backend/models/models/category_predictor_model.pth (torch, 295111 bytes, 4 tensors)

fc1.weight f4 [128, 564]
00000000: b6e9 983e 3ea0 913e 2d5b 8b3e b316 57be
00000010: fcbe 64be f128 01be beeb debd 08d2 34be
00000020: b837 ecbc f3d8 6b3e 0d56 6abe 900f 5fbe
00000030: 80e0 683e c1e1 34be f8f3 c23e 61d2 f6bd
00000040: fc03 983e 00b2 1bba ae07 67be c35d 003e
00000050: 9467 823c 6475 6b3e 0c5d ad3e 60b8 7b3e
00000060: 9c02 8f3c 3e5e 9a3c 53c2 863e 3c90 833e
00000070: 2e09 35bc 1b59 5fbe 9c41 3b3c fd9c 92be
00000080: e51d 62be 8178 6fbe 2a63 bfbd b67c 9c3e
00000090: 8a2a 83be ee0b 4fbe f15d 8f3e d9dc 973e
000000a0: e247 9bbe 5119 a6bc 9d01 9a3e c6ab 923e
000000b0: 32b2 963e 40d4 86be 865b 573e b687 52be
000000c0: 94f2 a6bc e22f 67be e928 8cbe 6aca a7be
000000d0: 03df 903e 3e84 923e bdba 3f3e a8eb 323e
000000e0: a031 8f3c 1c77 15be 31cb d3bd ea91 913e
000000f0: b645 883e 9524 983e bb5b 81be 7696 553e
00000100: 4ff6 b0bd cef1 5f3e 0fca 8b3e be2b 823e
00000110: 9b92 423e 53c4 3dbe 2cff 57be 1059 603e
00000120: 9cc6 9a3e 92b3 72be e3d2 6bbe 1c3f 3dbe
00000130: 419d 8e3e 785a 7c3e f7cd 723e f9e1 bdbe
00000140: a133 20be 658a 313e f0f5 903e 49e5 a13e
00000150: 6ff5 a63e 5283 923e fa90 523e 0cf9 89be
00000160: c0b8 a83e f517 9dbd 2386 7cbe 6c88 6ebe
00000170: 997a 1abe f023 7bbe 968c 683e bbc0 033f
00000180: 25cd 863e e056 aebd 2f2c 9b3e 2da8 853e
00000190: 8378 15be 368c 5f3e 4996 233e 428c 6abe
000001a0: 11fe 8bbe 3e4e b4bd e0b6 693b 51ac 5dbe
000001b0: 94f5 813e 0f2b 763e c19c 853e 927f 983e
000001c0: 788c 7f3e dc7a 923e 31ce 64be 7f48 ac3e
000001d0: 4b1b 59be dd43 433e a94e 293e 7aa1 3ebe
000001e0: 0958 41be 93cc 50be e667 2dbe 1354 31be
000001f0: 2da2 a33e d056 a53b 21d0 71bd f0bf 903e
00000200: 8c75 6c3e d1a4 97be 1e63 40be eed8 4bbe
00000210: 50f2 62be 22a0 803e 085e 2c3c 52ad 69be
00000220: 2312 84be fb84 6cbe 822f 27be f9ae 5b3e
00000230: 341a 123d 0ff3 8e3e e4bb 893c d0fd 3bbe
00000240: 7a51 0fbd 22ad 913e 8764 3ebe 92a7 89be
00000250: bb52 45be 9f81 4dbe 2067 d6bd baee 08bd
00000260: 714b 8b3e ddee 08bd 9ad9 76be 8e39 68be
00000270: dede a2be 25f3 693e 9c19 b03e 5e83 60be
00000280: 0889 aebd f4b4 7e3e 3067 7a3e 75b2 6abe
00000290: f0b5 f2bd 96ab a73e 60ab 323c 2cf6 163d
000002a0: 175d 8d3e 85d6 8cbe 9145 373e 6085 be3a
000002b0: e8a4 1d3d 88ee 8a3c fa70 4fbe b5e3 07bd
000002c0: 9954 57be c001 85be eee2 93be 5074 2e3b
000002d0: 0491 a93c b0b8 b53b 0d7c 66be 2b5b 82be
000002e0: 0a76 05be 010e 6cbe 0eb7 883e 6726 0bbe
000002f0: 1c34 9c3e 23a4 933e 7799 8f3e 17df 563e
00000300: ed90 70be 7a5f 13bd e1a1 7d3e 8f3e dabd
00000310: 502f 8b3e 614f 6cbe b8b1 703e 218d 6f3e
00000320: 48d7 943e 2f89 15be 65c0 43be 4e78 8bbe
00000330: 485e 8c3d 471e 40be a063 3bbe 6a0b 64be
00000340: 0dc6 6d3e 047d 26bc 7406 813e 8d7f 55bf
00000350: b162 833e 4535 b63e 7c34 973e 103f 0b3d
00000360: a309 8c3e 0155 07be 0ab5 76be 6e2b 60be
00000370: d1a5 a9be 198c 99be 9411 31be e08e 56be
00000380: 86cb 9abc bf34 bbbe cb62 43be 770c 593e
00000390: 0d88 523e 4a60 bdbe 00c4 5ebe ebb7 7abe
000003a0: 6e79 43be 3ace dfbc 1356 963e c50e 8e3e
000003b0: 43ae 9a3e 496a 983e f3bc 213e 1e04 923e
000003c0: 5ec5 9abe 8474 fabd db82 3d3e 5013 793b
000003d0: 4b30 4bbe f4dc 86be 2d5e 58be 33ee 89be
000003e0: b009 7bbe 238a c43e cdc6 35be 6560 63be
000003f0: a76c 8e3e 1747 3bbe be39 833e 92b6 6bbe
0.29865807 0.28442568 0.27218 -0.21004753 -0.2233848 -0.12613274 -0.10884808 -0.17658246
-0.028835163 0.23031978 -0.22884388 -0.2178328 0.2274189 -0.17664243 0.38076758 -0.12051845
0.2969054 -0.0005939305 -0.22561523 0.12535767 0.01591853 0.22994 0.33860052 0.24582052
0.017457299 0.018843766 0.26320133 0.2569598 -0.011049552 -0.21811335 0.011429217 -0.28635398
-0.22081716 -0.23385812 -0.09345086 0.30563897 -0.25618392 -0.20219395 0.2800136 0.2966068
-0.3032828 -0.020275744 0.30079356 0.28646678 0.29432827 -0.2633381 0.21031007 -0.20559582
-0.020379342 -0.2257686 -0.27374962 -0.32771617 0.28295144 0.28616518 0.18723579 0.17472708
0.017479718 -0.14596218 -0.1034149 0.28431636 0.26615685 0.2971541 -0.25265297 0.20858178
-0.0864073 0.21869585 0.27302596 0.25423998 0.19001238 -0.18531923 -0.21093434 0.21908975
0.30229652 -0.23701313 -0.23029666 -0.18481106 0.2785435 0.24643886 0.23711382 -0.37086466
-0.15644695 0.1733795 0.28312635 0.31620243 0.32609126 0.28615814 0.20563117 -0.2694782
0.32953453 -0.07670585 -0.24660544 -0.23294228 -0.1508583 -0.24525428 0.2270988 0.5146596
0.26328388 -0.08512664 0.30307147 0.2610487 -0.14596753 0.2183083 0.15975298 -0.22905067
-0.27342275 -0.08803986 0.003566198 -0.21647765 0.25382674 0.24039863 0.26096156 0.29784828
0.24955928 0.2860936 -0.22344281 0.3364906 -0.21201818 0.19068857 0.16533913 -0.18616286
-0.18881239 -0.20390539 -0.16934165 -0.17317228 0.31959668 0.0050457492 -0.059036378 0.28271437
0.23091716 -0.29617932 -0.1878781 -0.19906971 -0.22162747 0.25122172 0.010520466 -0.22820023
-0.25795087 -0.23097603 -0.16326717 0.21453466 0.03566952 0.27919814 0.016813226 -0.1835854
-0.03498981 0.28452402 -0.18593036 -0.26885659 -0.1926984 -0.20068978 -0.10468888 -0.033430792
0.27205995 -0.033430923 -0.24106446 -0.22678205 -0.3181066 0.22846659 0.34394538 -0.21925113
-0.085222304 0.24873716 0.24453425 -0.22919638 -0.11851108 0.32748097 0.010905117 0.03685586
0.27610084 -0.27507415 0.17897631 0.0014535598 0.038487345 0.016959444 -0.20257941 -0.033176143
-0.21028365 -0.25977898 -0.2888407 0.002661962 0.020699032 0.005545698 -0.22508259 -0.2546018
-0.1303331 -0.23052217 0.2670216 -0.13588868 0.30508506 0.28836164 0.28046772 0.2098354
-0.23492785 -0.035979725 0.24768783 -0.10656463 0.27184534 -0.23077156 0.23505294 0.2339368
0.29070497 -0.14603113 -0.19116361 -0.27240223 0.0685392 -0.1876155 -0.18299723 -0.22269979
0.23220082 -0.010161642 0.25200236 -0.8339775 0.25661233 0.35587516 0.2953223 0.033995688
0.27351102 -0.1321602 -0.24092498 -0.21891567 -0.3313432 -0.299897 -0.17291862 -0.2095294
-0.018895876 -0.3656368 -0.19080655 0.21196161 0.20559712 -0.36987525 -0.21754456 -0.24484222
-0.1908929 -0.027320016 0.29362544 0.27745643 0.30211076 0.2976859 0.15794735 0.28518766
-0.30228704 -0.12229255 0.18506949 0.0038005896 -0.19842641 -0.2634045 -0.21129675 -0.26939544
-0.24515414 0.3838664 -0.17751618 -0.2220474 0.2781727 -0.18288837 0.2562999 -0.23018864

fc1.bias f4 [128]
00000000: 8a4c 7f3e c0b2 953e 163e 553e 12c1 393c
00000010: 5d11 673e e31a 813e 6dbf 803e a680 783e
00000020: 6ad1 913e a5dc 6d3e 5fbc 8a3e 3bbe 7b3e
00000030: a10f 2b3e fe74 593e 15c1 803e a63f 8e3e
00000040: e3de 863e 99b7 653e 71da a63e 10e4 713e
00000050: bd9f 843e a948 743e 03b0 643e 2ddb 923e
00000060: 250c 933e 15c8 683e 0c9e 743e 448c 683e
00000070: bf24 7f3e a845 8f3e 74c7 4b3e 809b 873e
00000080: 2463 663e fa24 623e 9f7b 5d3e 9090 703e
00000090: c56d f43d 8d40 863e f1d7 903e 43a2 523e
000000a0: 297a 373e 89a2 6f3e 291c 5b3e c379 8d3e
000000b0: 2f63 823e 97ae 6b3e 0b52 973e 2ca4 743e
000000c0: dd47 6c3e 21df 7d3e 3fae 3f3e c66f 8b3e
000000d0: 9625 993e 690f 883e 9ed7 853e 5f67 803e
000000e0: d78c 573e abf2 8c3e f744 3e3e e9ab 883e
000000f0: 1891 823e e92d 833e 3dfd 833e b2e3 853e
00000100: c8d0 963e f5b7 803e bc60 753e 38b4 7e3e
00000110: b51d 4f3e 00ad 4f3e 9d44 693e ee6d 653e
00000120: 212d 5c3e 7366 7f3e d659 823e e401 783e
00000130: 2512 8a3e 076c 823e d08d 933e 983c 903e
00000140: 36d6 803e bdc8 7f3e 0167 803e 7a58 4f3e
00000150: 4871 693e b2c9 5f3e 488d 763e c1b3 683e
00000160: 9895 823e 5c06 843e fa9e 7a3e e02b 7e3e
00000170: da30 723e 85cc 743e 89c3 8c3e f5b5 8a3e
00000180: 2760 cdbd a4bc 973e b63d 693e d9db 813e
00000190: f474 873e 9a1b 873e 0614 843e 1620 573e
000001a0: 46ae 7a3e 3d17 7e3e 3073 8f3e e416 a23e
000001b0: 9b66 853e a4ea 733e 7852 503e 3dd3 823e
000001c0: 7b64 783e 977b 753e 9909 883e cc78 7b3e
000001d0: d86c 573e 999f 823e 133f 703e 483c 443e
000001e0: 8b26 543e 74ba 6c3e b9af 8e3e 7e14 683e
000001f0: a531 613e 0400 693e 8fdd 883e 239b 8a3e
0.24931541 0.29237938 0.20824465 0.011337535 0.22565217 0.25215825 0.25146046 0.24267825
0.28480083 0.232287 0.2709684 0.24584286 0.1670518 0.21236035 0.2514731 0.27782935
0.26341924 0.22433318 0.32588533 0.23622155 0.2590312 0.23855843 0.22332768 0.28682843
0.28720203 0.22732575 0.23888415 0.22709757 0.24916361 0.2798283 0.19900304 0.26485825
0.22498757 0.22084418 0.21629189 0.23492646 0.119349994 0.26221123 0.2828975 0.2056971
0.17917694 0.23401846 0.21397461 0.2763196 0.25466296 0.2301582 0.2955478 0.23890752
0.23074289 0.24792148 0.18718813 0.27233714 0.29911488 0.26574257 0.26141065 0.25078866
0.2104982 0.2752889 0.18580996 0.26693657 0.25501323 0.25620964 0.25779143 0.2615028
0.29456162 0.25140348 0.23962682 0.24873435 0.20226176 0.20280838 0.2278008 0.22405216
0.2150159 0.24941425 0.25459164 0.24219471 0.26966968 0.25473043 0.28819132 0.2817123
0.2516343 0.2497892 0.25078586 0.20248595 0.2279712 0.21854284 0.24077332 0.2272482
0.25504756 0.25786102 0.24474707 0.24821424 0.23651448 0.23906143 0.2749293 0.27091947
-0.10028105 0.2963611 0.22777447 0.25363043 0.26456416 0.26388246 0.25796527 0.21008334
0.24480543 0.24813552 0.2801757 0.3165809 0.26054844 0.23819977 0.2034396 0.25551787
0.2425708 0.23972927 0.26569822 0.24557799 0.21037614 0.25512388 0.23461561 0.1916362
0.20717828 0.23118001 0.2786844 0.22664067 0.21991594 0.22753912 0.26731536 0.27071485

fc2.weight f4 [6, 128]
00000000: 36c2 993e a127 88be 6e93 bbbe 18a8 d73e
00000010: c87e 913e 36b5 b7be 3763 8b3e 8e5d a3be
00000020: 24f4 b3be 13df af3e 014e 8f3e f7eb 88be
00000030: cf16 933e 1faf 8b3e a679 8cbe b7d4 983e
00000040: 7532 0b3e e75a b1be 1e67 b8be 0a6d c7be
00000050: fc7f a8be fe64 97be 513d 913e 0ec1 babe
00000060: 752b a6be 91f7 913e 3fa1 58be c40a a33e
00000070: 7d2d 9e3e fb08 a5be e872 c73e 89c7 8b3e
00000080: 623a ae3e 2185 b3be 26b4 a23e 2ec4 a5be
00000090: 0adb a43e 8cca aa3e ffd6 b8be 4bd5 893e
000000a0: e26c aebe c791 86be 8547 8e3e 1e49 b3be
000000b0: 0302 8cbe 86f8 ab3e c2ab 96be 0d1b b03e
000000c0: 6d3a 8fbe cb32 953e 8702 94be 877a 9e3e
000000d0: 6245 b0be af29 b0be 040b a2be 405c a2be
000000e0: c416 913e 734b a63e cb1a aebe b744 9bbe
000000f0: 7450 c1be 79f9 8d3e 36ba 8f3e aae5 933e
00000100: 0ad3 b8be c141 9c3e b471 aabe 816a 9bbe
00000110: 040a a23e fc7f 843e 0d75 843e 0276 8abe
00000120: a7a8 97be ea29 8dbe d4e4 82be da80 a23e
00000130: 5781 ab3e a44e b2be e382 933e 33a7 8c3e
00000140: 7b61 9b3e 58c6 a0be 2b19 cabe e867 883e
00000150: 7a71 a4be b41b bbbe 32dd a7be e40b abbe
00000160: 3786 9fbe 1965 873e 0688 973e 83c1 89be
00000170: f0df 9d3e 4f2c b33e d8af 98be f3ca 823e
00000180: 4c4f ba3c a068 813e 600d b13e 7364 9fbe
00000190: 47f7 8d3e d6be a43e 5397 b6be 33b0 963e
000001a0: c701 943e 5508 b3be f6ea b43e 3bd7 adbe
000001b0: 901f 8a3e 2448 933e 2a86 8dbe 2282 abbe
000001c0: 1752 8b3e 884d 933e 7da6 95be 923b a43e
000001d0: ac16 983e 0f0a 83be d504 8b3e bb82 99be
000001e0: c96b ad3e b68c 7dbe 46b2 9ebe bbbb 81be
000001f0: cab3 8d3e 05ec adbe 9f37 84be 9a0f b8be
00000200: c339 bb3e 239a 9c3e cde9 93be 9ae7 a2be
00000210: 6188 85be 8b49 aabe a12a b63e c74d 843e
00000220: 6f95 b13e af19 ab3e d121 aebe bdad 98be
00000230: 69c0 9cbe 8e8e 91be 33ca 97be df96 4bbe
00000240: a145 8bbe 2682 9cbe 7ab7 a0be a86a b2be
00000250: 2dcd 883e 69df 84be 8945 bcbe d8a0 b03e
00000260: fe49 9a3e b88b 87be 2d8e b63e 3a9d a73e
00000270: 2887 77be 7736 97be 7448 c63e 15a5 a6be
00000280: ddc1 ac3e f791 a7be e582 6ebe 9b69 af3e
00000290: 1391 98be 0ac6 a03e 6224 a63e 8b29 acbe
000002a0: 541d c4be 079b ab3e cf58 92be b0ab 733e
000002b0: 22ee c03e 715e 57be dda9 8bbe 06a5 6fbe
000002c0: 05cc 63be 0e01 a63e ecaa c0be 3584 8ebe
000002d0: 4341 8c3e fbe7 af3e 0e4e a5be e4c6 80be
000002e0: 8f0b a43e 303f 963e 731f 673e 76b0 813e
000002f0: 1ff6 8fbe 4ae4 a1be 37be 96be 087c 95be
00000300: 313c 8f3e cc8f 99be a19e abbe c8c1 83be
00000310: f3bd ad3e 123c 8f3e 3e83 92be 5525 ac3e
00000320: 6321 a03e 145b c23e 0c64 963e e38a ba3e
00000330: bab0 9dbe c20d 9fbe e4b2 b73e 2704 9e3e
00000340: b1bf 9dbe 195f b13e 8ce9 84be b751 9bbe
00000350: b202 b4be b6d0 90be aa0f a93e 86e3 9b3e
00000360: 28a4 883e c756 9fbe a548 a8be 3285 a43e
00000370: 2314 9dbe f313 b33e 0233 9b3e d46a 97be
00000380: 62d6 d03b 070a 823e 8bca b3be d40a 8d3e
00000390: dad0 aabe b378 adbe 6ea6 873e 0707 c3be
000003a0: 090f a93e d06f ab3e 270d bd3e 90b2 be3e
000003b0: 2112 a5be 7447 a2be 5833 5fbe b69e 9b3e
000003c0: 5a7a 89be 5b02 9ebe 412b 903e 3193 a1be
000003d0: b8da 9bbe 4d40 87be 2634 a3be 3f4a 7cbe
000003e0: b478 a8be 2001 ad3e 97bc 86be 8f1e 90be
000003f0: 2491 83be 4ede a7be d9d2 b63e fdc3 c43e
0.30030984 -0.26592734 -0.36635917 0.42120433 0.2841704 -0.3588044 0.27224132 -0.31907314
-0.35147202 0.3434988 0.279892 -0.26742527 0.2872834 0.27282044 -0.2743656 0.2984979
0.13593467 -0.34639665 -0.36016172 -0.38950378 -0.32910144 -0.29569238 0.28367093 -0.36475414
-0.3245503 0.2850919 -0.2115526 0.3184415 0.3089408 -0.32233414 0.38954854 0.2730067
0.34028918 -0.35062507 0.31778067 -0.32376236 0.32198364 0.33357656 -0.3610153 0.26920542
-0.34067446 -0.26283094 0.2778894 -0.3501672 -0.27345285 0.33588046 -0.29427916 0.34395638
-0.27974263 0.29140314 -0.28908178 0.30952856 -0.34427935 -0.34406802 -0.3164903 -0.31711006
0.2833768 0.32479438 -0.34004816 -0.30325863 -0.37756693 0.27729395 0.28071755 0.28886157
-0.3609851 0.30518916 -0.33289874 -0.30354694 0.31648266 0.25878894 0.25870553 -0.27043158
-0.2962086 -0.2757104 -0.25565207 0.3173893 0.33497116 -0.34825623 0.28810796 0.27471313
0.3034781 -0.31401324 -0.39472327 0.26641774 -0.32117826 -0.36544573 -0.32785946 -0.3340751
-0.31157085 0.2644432 0.29595965 -0.2690545 0.30834913 0.34994742 -0.29821658 0.25545463
0.02274289 0.25275135 0.34580517 -0.31131324 0.2772772 0.32176846 -0.35662326 0.29431304
0.28907606 -0.34967294 0.3533551 -0.3395327 0.26977205 0.28765976 -0.27641422 -0.3349772
0.27211067 0.2877009 -0.29228583 0.320767 0.29704797 -0.25593612 0.27152124 -0.29982552
0.33871296 -0.24760708 -0.30995387 -0.2533854 0.2767623 -0.3396913 -0.25823686 -0.35949403
0.36567506 0.30586347 -0.28889313 -0.31817323 -0.2608061 -0.33259234 0.35579398 0.2584059
0.3468432 0.33418033 -0.34010175 -0.29820052 -0.30615547 -0.28429073 -0.29646453 -0.19881772
-0.2720156 -0.30568045 -0.31389982 -0.34846997 0.26719037 -0.25951698 -0.367718 0.34497714
0.30134577 -0.26473784 0.35655347 0.32737142 -0.24172652 -0.2953374 0.38727152 -0.32547823
0.33741656 -0.3272855 -0.2329212 0.34260258 -0.29798183 0.31401092 0.32449633 -0.33625445
-0.38303626 0.33516714 -0.2858338 0.23795962 0.3768168 -0.2103212 -0.27278033 -0.23402795
-0.22245796 0.3242268 -0.37630403 -0.2783524 0.2739354 0.34356675 -0.32286114 -0.25151742
0.32040069 0.29345083 0.2257059 0.25329942 -0.28117463 -0.31619483 -0.29441997 -0.2919619
0.2797561 -0.2999252 -0.33519462 -0.2573378 0.33933982 0.27975518 -0.28615755 0.33622232
0.31275472 0.37960112 0.29373205 0.36434087 -0.30798894 -0.31065184 0.3587867 0.30862543
-0.3081031 0.34642866 -0.25959432 -0.3033578 -0.35158306 -0.28284234 0.33019763 0.30447024
0.2668774 -0.31120893 -0.32867923 0.3213287 -0.30679426 0.34976158 0.30312353 -0.2957369
0.0063732127 0.25398275 -0.35115466 0.27547324 -0.33362466 -0.3388115 0.26494163 -0.380913
0.33019283 0.33483744 0.36924097 0.37245607 -0.32240394 -0.3169514 -0.2179693 0.30394524
-0.2685116 -0.30861172 0.28158 -0.3155761 -0.30440307 -0.26416245 -0.31875724 -0.24637698
-0.3290459 0.3378992 -0.26315758 -0.28148314 -0.2569667 -0.32786793 0.3570774 0.38430777

fc2.bias f4 [6]
00000000: 8de6 ba3d 98e5 953e d4fe 583e 2b8b 0fbe
00000010: b985 503e d3e7 62be
0.09126005 0.2927673 0.21190959 -0.14017932 0.20363511 -0.22158746
