backend/models/category_predictor_model.pth (torch, 259271 bytes, 4 tensors)

fc1.weight f4 [128, 494]
-0.1352156 0.0031347238 -0.16132563 -0.34370303 -0.09775179 -0.114069946 -0.14987236 -0.19536588
-0.1741179 0.17356123 -0.14401048 -0.23870601 -0.11711205 -0.18877314 -0.25750393 0.16984001
-0.12944229 0.22253634 0.010416567 0.2294338 -0.14528807 -0.19599815 0.28984863 -0.095901705
-0.38978314 -0.15054643 -0.0017623231 -0.516574 -0.13746688 0.12796023 0.16687723 -0.16459525
0.01251258 0.23605657 0.15821591 -0.47764838 0.08245879 0.23124784 -0.1337421 0.15670162
-0.28994375 -0.08343993 -0.11010087 -0.14377016 0.11437887 -0.111499965 -0.18593623 -0.13664438
-0.36531565 0.23649845 0.16883753 0.2546997 0.18275216 -0.0006808825 0.18567862 0.2113028
-0.20285657 0.21490054 -0.13610525 0.21020289 0.15881748 0.27029845 -0.17106861 -0.14925998
-0.15812112 -0.20152651 0.13899621 0.24439265 -0.1836711 -0.1444472 -0.016550876 -0.4825225
-0.13024461 0.1831855 0.14210874 0.2541697 0.1213248 0.03505837 0.19594736 0.19582814
-0.0078900205 -0.23489457 0.15285178 -0.1617058 0.009793714 0.17595896 0.19359574 0.21136525
-0.09989212 -0.10640976 -0.18150954 -0.16294457 0.05181327 0.11240218 -0.17559858 -0.1548483
-0.15918604 -0.16525184 0.027528346 -0.41839877 0.2938761 0.14188692 -0.18338154 -0.030503836
-0.12814446 -0.09924771 -0.014241792 0.13950007 -0.23607956 -0.15123333 0.14198971 -0.040237423
0.22895262 0.15436547 0.016256351 -0.18186586 -0.10037437 -0.014040168 -0.13957779 -0.04746716
0.19463955 -0.12204784 0.1976918 -0.013716631 0.16108185 0.21343566 -0.28786057 0.2662018
0.19667621 0.19571154 -0.0132314935 -0.13511331 -0.3779167 0.21830307 -0.04467721 -0.121234946
-0.14281431 0.018461436 -0.042675585 0.006561417 0.012837991 -0.35658705 -0.18849434 -0.17364994
-0.0713155 -0.14525716 -0.059610073 -0.10669045 0.173263 0.11091281 0.19067097 0.16114236
-0.17485009 -0.016134826 0.0026515014 0.10910043 0.10918389 -0.20591843 0.21018346 0.17639872
0.23710215 -0.19753277 0.19343822 0.04456027 0.017349146 -0.15568133 -0.15198515 -0.12042823
-0.1538559 -0.16288523 0.02938269 -0.022559876 -0.14787605 -0.11350399 -0.09825802 -0.1640591
-0.059645325 -0.18246573 -0.1611016 0.18131232 -0.14762583 -0.14886539 -0.10267815 0.20600653
-0.14908728 -0.021679232 0.91215813 0.02282022 -0.29092675 0.2006315 0.1511958 0.14433888
-0.11729577 0.16149053 -0.13456614 0.19545418 0.20581505 0.14654654 0.23994283 -0.0061529614
-0.09136894 -0.22528256 -0.15197703 0.036933742 -0.1464354 -0.0979609 0.13978866 0.17449659
0.19019672 -0.16739574 -0.13574426 -0.2117798 -0.51045954 -0.18698122 0.15287417 -0.034555107
-0.057853125 0.09719675 -0.5253234 0.11619551 -0.26187 -0.15290782 0.18277298 0.22864425
0.1298824 0.22490636 -0.020391703 0.023830801 -0.16338322 0.098315835 0.21560077 0.10071851
-0.10771759 -0.25359052 0.113849305 0.17715168 -0.19781178 -0.029063096 -0.12104215 0.18638898
0.19329724 0.30197895 -0.21283971 0.12756905 -0.14530829 -0.01226563 -0.20732811 0.1290826
-0.16091166 0.18142715 -0.13150193 0.17048913 -0.1783208 0.22557178 0.1479214 0.11509057
00000000: f575 0abe f06f 4d3b 8c32 25be d8f9 afbe
00000010: 1732 c8bd 819d e9bd 2478 19be fe0d 48be
00000020: f64b 32be 09ba 313e 7c77 13be 596f 74be
00000030: 71d8 efbd bf4d 41be 8ed7 83be 8aea 2d3e
00000040: 858c 04be 91e0 633e 40aa 2a3c b2f0 6a3e
00000050: 65c6 14be bdb3 48be 0a67 943e 1d68 c4bd
00000060: a891 c7be d828 1abe c0fd e6ba 323e 04bf
00000070: 1ec4 0cbe 0208 033e dde1 2a3e a88b 28be
00000080: 9001 4d3c d0b8 713e 5a03 223e 548e f4be
00000090: 27e0 a83d 3ccc 6c3e b0f3 08be 6476 203e
000000a0: 8273 94be 8ee2 aabd 917c e1bd 7c38 13be
000000b0: 783f ea3d 185a e4bd 1166 3ebe 81ec 0bbe
000000c0: a70a bbbe a62c 723e bfe3 2c3e 0068 823e
000000d0: 6223 3b3e 407d 32ba 8922 3e3e c35f 583e
000000e0: a2b9 4fbe e30e 5c3e 2d5f 0bbe 6d3f 573e
000000f0: 0da1 223e 8f64 8a3e 9c2c 2fbe 9cd7 18be
00000100: 81ea 21be f75c 4ebe 0655 0e3e 1142 7a3e
00000110: 4714 3cbe f7e9 13be b495 87bc 300d f7be
00000120: d85e 05be fb94 3b3e f484 113e 8822 823e
00000130: 2379 f83d 5e99 0f3d 6da6 483e 2c87 483e
00000140: 2545 01bc 3488 70be 2d85 1c3e 3596 25be
00000150: d075 203c 962e 343e f63d 463e 2270 583e
00000160: 3d94 ccbd 5ced d9bd a3dd 39be f1da 26be
00000170: 273a 543d 1d33 e63d 1dd0 33be 8e90 1ebe
00000180: aa01 23be c737 29be 2083 e13c 5d38 d6be
00000190: ee76 963e ce4a 113e 5fc8 3bbe 2ee3 f9bc
000001a0: 4d38 03be 6242 cbbd 6856 69bc 1bd9 0e3e
000001b0: d7be 71be e9dc 1abe c065 113e ffcf 24bd
000001c0: 8e72 6a3e fb11 1e3e 0a2c 853c 0b3b 3abe
000001d0: 1491 cdbd bc08 66bc 7bed 0ebe ed6c 42bd
000001e0: 974f 473e 38f4 f9bd b86f 4a3e b8bb 60bc
000001f0: a4f2 243e e18e 5a3e 7662 93be 9a4b 883e
00000200: 7d65 493e 9b68 483e e8c8 58bc 255b 0abe
00000210: 4c7e c1be d78a 5f3e 73ff 36bd 074a f8bd
00000220: ea3d 12be 703c 973c 98cc 2ebd 2801 d73b
00000230: 7056 523c 9492 b6be a904 41be 4ad1 31be
00000240: dc0d 92bd 4bbe 14be b129 74bd 8680 dabd
00000250: db6b 313e 4126 e33d 403f 433e 8102 253e
00000260: e70b 33be 2f2d 84bc d0c4 2d3b 0c70 df3d
00000270: ce9b df3d 48dc 52be 553a 573e dea1 343e
00000280: e8ca 723e 0846 4abe ab14 463e d484 363d
00000290: cc1f 8e3c ed6a 1fbe ffa1 1bbe 13a3 f6bd
000002a0: 678c 1dbe 63cb 26be f8b3 f03c 7dcf b8bc
000002b0: d26c 17be c874 e8bd 803b c9bd 1cff 27be
000002c0: a84e 74bd 4cd8 3abe d1f7 24be f0a9 393e
000002d0: 3a2b 17be 2b70 18be ec48 d2bd 60f3 523e
000002e0: 56aa 18be a598 b1bc 3283 693f 78f1 ba3c
000002f0: 5af4 94be 5872 4d3e 12d3 1a3e 92cd 133e
00000300: c438 f0bd c65d 253e b5cb 09be 2425 483e
00000310: 2ec1 523e 4c10 163e 93b3 753e c89e c9bb
00000320: a41f bbbd 79b0 66be de9f 1bbe d647 173d
00000330: 29f3 15be b99f c8bd c224 0f3e 3caf 323e
00000340: eec2 423e ca69 2bbe 8b00 0bbe cedc 58be
00000350: 7aad 02bf 0178 3fbe 0c8b 1c3e a889 0dbd
00000360: 66f7 6cbd 170f c73d 987b 06bf e9f7 ed3d
00000370: d313 86be de93 1cbe d728 3b3e b821 6a3e
00000380: e4ff 043e da4d 663e 800c a7bc d038 c33c
00000390: ee4d 27be d059 c93d 73c6 5c3e 8245 ce3d
000003a0: 0a9b dcbd 9ed6 81be d329 e93d 4067 353e
000003b0: 2c8f 4abe bb15 eebc f2e4 f7bd c1dc 3e3e
000003c0: b6ef 453e fc9c 9a3e a7f2 59be 76a1 023e
000003d0: b2cb 14be c8f5 48bc d24d 54be 3b2e 043e
000003e0: 07c6 24be 0ac8 393e 71a8 06be b494 2e3e
000003f0: ba99 36be 4afc 663e b578 173e 9bb4 eb3d

fc1.bias f4 [128]
0.15289414 0.1759684 0.28412694 0.21226554 0.26141927 0.23635161 0.19926116 0.251166
0.24949872 0.20575131 0.11698053 0.20290032 0.2668604 0.2115585 0.24481897 0.24511653
0.26214653 0.24209484 0.21196681 0.27044097 0.25894994 0.19983956 0.24000555 0.32267866
0.24011284 0.26050675 0.2738353 0.25629234 0.18584895 0.25569102 0.18349536 0.23923476
0.28414077 0.3019467 0.2529913 0.20597675 0.17700513 0.2715705 0.27372205 0.26828593
0.21113281 0.22555517 0.2628092 0.24911635 0.29722974 0.20412433 0.17897971 0.29401323
0.25337276 0.280339 0.2858346 0.25741732 0.2390441 0.22164075 0.2942523 0.26284268
0.24406755 0.26838005 0.22053242 0.23256731 0.23853028 0.20855205 0.23922437 0.26503742
0.3093716 0.25863326 0.2266777 0.2269824 0.22607705 0.24518047 0.19368377 0.23849013
0.25819257 0.24710694 0.2732604 0.18295346 0.20187493 0.17039594 0.22177418 0.21139
0.23687072 0.24639578 0.21741584 0.19888836 0.31375477 0.21213387 0.17524767 0.23291402
0.22170393 0.23226975 0.29205328 0.25974128 0.22214764 0.21522743 0.21684587 0.2541572
0.31342942 0.23541924 0.25065252 0.21294522 0.21762112 0.3030146 0.28373942 0.35178515
0.26065105 0.20859535 0.2907794 0.23614216 0.25572044 0.24999428 0.25455272 0.2070768
0.20180325 0.19263273 0.23148328 0.24031967 0.31366634 0.19287786 0.24718572 0.21984628
0.21981014 0.22062057 0.25719085 0.22043818 0.27485263 0.25809684 0.30278188 0.26067787
00000000: 4890 1c3e 0f31 343e 1679 913e 235c 593e
00000010: bfd8 853e 2806 723e 1e0b 4c3e d498 803e
00000020: 987c 7f3e 79b0 523e 7d93 ef3d 1ac5 4f3e
00000030: eda1 883e cba2 583e d3b1 7a3e d4ff 7a3e
00000040: 1238 863e b6e7 773e d40d 593e 3d77 8a3e
00000050: 1695 843e bea2 4c3e 04c4 753e 2336 a53e
00000060: 24e0 753e 2461 853e 2434 8c3e c038 833e
00000070: 304f 3e3e efe9 823e 35e6 3b3e f5f9 743e
00000080: e67a 913e c298 9a3e 1388 813e 92eb 523e
00000090: d540 353e 4a0b 8b3e 4c25 8c3e c65c 893e
000000a0: 3333 583e eff7 663e ed8e 863e 5b18 7f3e
000000b0: 7f2e 983e f805 513e 7546 373e e788 963e
000000c0: 13ba 813e 9888 8f3e ea58 923e 34cc 833e
000000d0: fac7 743e cbf5 623e 3da8 963e 5193 863e
000000e0: d8ec 793e 1c69 893e 40d3 613e 2026 6e3e
000000f0: 4841 743e ab8e 553e 3cf7 743e fcb2 873e
00000100: f465 9e3e 946b 843e 331e 683e 136e 683e
00000110: be80 673e 9710 7b3e 0a55 463e c236 743e
00000120: d131 843e 9a09 7d3e cae8 8b3e 2758 3b3e
00000130: 4db8 4e3e 467c 2e3e c518 633e 9f76 583e
00000140: 3d8e 723e 2d4f 7c3e 42a2 5e3e 64a9 4b3e
00000150: 77a4 a03e 9f39 593e 2074 333e 0381 6e3e
00000160: 5b06 633e 1fd8 6d3e 0288 953e cffc 843e
00000170: ac7a 633e 9464 5c3e d80c 5e3e e420 823e
00000180: d279 a03e be11 713e 8755 803e 500e 5a3e
00000190: 12d8 5e3e bb24 9b3e 4b46 913e 2f1d b43e
000001a0: 0e74 853e 059a 553e 0ae1 943e 40cf 713e
000001b0: caed 823e 80fe 7f3e bc54 823e f10b 543e
000001c0: 83a5 4e3e 8441 453e f409 6d3e 5c16 763e
000001d0: e098 a03e c681 453e 411e 7d3e 621f 613e
000001e0: e915 613e 5cea 613e 85ae 833e 8cba 613e
000001f0: 7cb9 8c3e 4525 843e 3a06 9b3e 9277 853e

fc2.weight f4 [6, 128]
-0.3462987 0.27942654 -0.29887056 0.3453713 0.31688842 0.321458 0.35348922 -0.28398913
0.25392175 0.25661966 0.3276966 0.30996853 -0.30462834 0.31828228 0.24761394 0.31892392
-0.3066483 -0.28672656 0.28439167 -0.31018606 0.267162 -0.28500316 0.33140337 -0.23442556
0.29288682 -0.36101097 0.23267624 -0.33586463 0.32689458 -0.34313053 -0.3091365 -0.34918135
0.20005937 -0.27425635 -0.299973 0.38347182 0.40921852 -0.33542588 -0.22850423 -0.2852473
0.29356575 -0.29580024 0.1422972 0.263362 -0.37077636 0.37529328 -0.38137355 -0.3579612
0.30236375 -0.36904502 -0.29264176 -0.35143784 0.3059669 0.29917967 -0.3711588 0.28174818
-0.37329203 0.13335755 -0.34549057 0.2945437 -0.11346459 0.30691764 0.2626896 -0.28492442
0.24571614 0.28307617 -0.30979055 0.30140162 -0.34191844 -0.36117816 0.33816388 0.3363428
0.3018459 -0.3275895 -0.29860324 0.3579986 -0.32884565 -0.33932057 0.15947494 0.10087708
0.33950654 -0.39522007 -0.37440726 0.3056231 -0.33079904 0.39251575 0.3161242 -0.33437195
-0.36339483 -0.26928955 0.28129068 -0.296362 0.29004744 0.3343311 0.34929916 0.19858618
0.3522485 0.14696102 0.3125644 -0.3604849 0.28185293 0.34556022 0.23535822 -0.30651587
0.33877614 0.35138106 -0.33903846 -0.27801406 0.34854403 0.14327936 -0.3427745 -0.62541527
0.31554776 0.29909804 0.35509557 -0.32026795 -0.36856675 -0.3322009 -0.27366763 0.32587576
-0.36608073 -0.3220265 -0.36728334 0.3033204 -0.36107102 0.27886847 -0.24865934 0.33161378
-0.3926719 -0.24301101 -0.14079572 -0.33212602 0.3734359 -0.2657215 -0.3940914 -0.34375352
-0.2505122 -0.16003598 -0.319775 -0.34461746 0.3336172 -0.24946308 -0.29706648 -0.26177156
0.265686 0.2408883 0.003665415 0.16929227 -0.2672323 -0.3098617 -0.30852905 -0.24581316
-0.32891122 0.26073897 0.303229 0.31895685 -0.28350776 0.3171642 -0.3309676 0.3138098
-0.349574 -0.3362552 0.33498642 -0.29838127 -0.383673 0.3436474 0.39107326 0.20351933
-0.28957158 0.23171064 0.3261233 0.36261892 0.27072224 -0.26285678 -0.435785 -0.2879135
0.34865978 0.28759214 -0.32337746 0.22116269 -0.29143366 -0.30533105 0.27407938 -0.12637626
0.16798116 0.37851393 0.13009204 0.3664475 -0.33095223 -0.2501735 0.36345127 0.33441627
-0.3396691 -0.2175112 0.3280695 0.25928468 0.40751383 -0.38227415 -0.37121484 0.13620302
-0.25349444 -0.35521144 -0.33942154 -0.30673304 -0.18632948 0.062403377 -0.39532974 -0.23360018
-0.30650815 0.3420056 -0.29978117 -0.24911079 -0.33793852 -0.43521363 -0.316169 0.3151812
0.325745 -0.2109323 0.29448706 -0.23968166 -0.22161607 0.2940473 -0.32955605 0.32530937
-0.31806323 -0.31197235 0.3318536 -0.2931765 0.2800228 -0.3313802 -0.33698305 -0.34386075
0.30765375 -0.30556148 0.2912085 -0.34296882 0.3819742 -0.33597285 0.35869843 0.3827255
0.17313994 0.29574943 -0.25416666 0.2870442 -0.32416365 0.17256029 -0.2571292 0.3584788
0.30239642 -0.36295065 -0.34961087 -0.2973429 -0.27263775 0.3502726 -0.34526834 -0.33976713
00000000: 104e b1be ff10 8f3e 9005 99be 82d4 b03e
00000010: 333f a23e 2596 a43e 8afc b43e 0667 91be
00000020: 0802 823e a763 833e d9c7 a73e 32b4 9e3e
00000030: 3ff8 9bbe e5f5 a23e 828e 7d3e ff49 a33e
00000040: 0201 9dbe d3cd 92be c99b 913e b5d0 9ebe
00000050: 75c9 883e efeb 91be b4ad a93e 410d 70be
00000060: 43f5 953e 6ed6 b8be ae42 6e3e 73f6 abbe
00000070: ba5e a73e ceae afbe 2447 9ebe e6c7 b2be
00000080: 5ddc 4c3e 546b 8cbe 1096 99be 6b56 c43e
00000090: 1785 d13e f1bc abbe 03fd 69be ef0b 92be
000000a0: 404e 963e 2173 97be 5bb6 113e 62d7 863e
000000b0: 66d6 bdbe 7126 c03e 6543 c3be b146 b7be
000000c0: 6ccf 9a3e 78f3 bcbe 24d5 95be a9ef b3be
000000d0: b2a7 9c3e 142e 993e 8708 bebe 4c41 903e
000000e0: 2220 bfbe e28e 083e 24e4 b0be 6fce 963e
000000f0: 1f60 e8bd 4f24 9d3e 407f 863e 9de1 91be
00000100: 039d 7b3e 5cef 903e de9c 9ebe 5051 9a3e
00000110: ef0f afbe 58ec b8be d123 ad3e 2035 ac3e
00000120: 8c8b 9a3e d0b9 a7be 86e2 98be 984b b73e
00000130: 755e a8be 6dbb adbe 664d 233e a498 ce3d
00000140: cdd3 ad3e 495a cabe 4fb2 bfbe a27a 9c3e
00000150: 7e5e a9be d3f7 c83e 08db a13e cd32 abbe
00000160: e30e babe 52e0 89be 5505 903e c3bc 97be
00000170: 1981 943e 722d ab3e 57d7 b23e 2d5a 4b3e
00000180: ea59 b43e f37c 163e 7108 a03e 7a91 b8be
00000190: 074f 903e 45ed b03e bf01 713e a6ef 9cbe
000001a0: 1174 ad3e 38e8 b33e 7396 adbe dc57 8ebe
000001b0: 5d74 b23e d3b7 123e 2480 afbe 371b 20bf
000001c0: 7a8f a13e 6123 993e 16cf b53e 29fa a3be
000001d0: c8b4 bcbe 3d16 aabe 2a1e 8cbe 30d9 a63e
000001e0: ef6e bbbe a8e0 a4be 900c bcbe d04c 9b3e
000001f0: 4dde b8be d9c7 8e3e 8ea0 7ebe 48c9 a93e
00000200: 4b0c c9be e1d7 78be c12c 10be 6c0c aabe
00000210: fe32 bf3e a60c 88be 59c6 c9be 7600 b0be
00000220: 2343 80be 79e0 23be 8cb9 a3be b371 b0be
00000230: e0cf aa3e 4073 7fbe 1919 98be ec06 86be
00000240: ff07 883e 6cab 763e 7637 703b f45a 2d3e
00000250: acd2 88be 31a6 9ebe 85f7 9dbe 72b6 7bbe
00000260: 0d67 a8be 947f 853e d540 9b3e 504e a33e
00000270: ee27 91be 5963 a23e 9674 a9be aeab a03e
00000280: 5dfb b2be a429 acbe 5783 ab3e 6ec5 98be
00000290: ca70 c4be 8df2 af3e c13a c83e 5f67 503e
000002a0: ba42 94be 8e45 6d3e a2f9 a63e 30a9 b93e
000002b0: 1b9c 8a3e 2a95 86be 361f dfbe 6669 93be
000002c0: 8983 b23e 473f 933e bb91 a5be 7978 623e
000002d0: cb36 95be 5a54 9cbe 2254 8c3e c768 01be
000002e0: 4103 2c3e 94cc c13e d936 053e 029f bb3e
000002f0: 9272 a9be be16 80be 4916 ba3e 9c38 ab3e
00000300: 1ce9 adbe 42bb 5ebe baf8 a73e f6c0 843e
00000310: a7a5 d03e 70b9 c3be df0f bebe ce78 0b3e
00000320: 06ca 81be 46de b5be a9c8 adbe 1d0c 9dbe
00000330: 28cd 3ebe af9a 7f3d a968 cabe e334 6fbe
00000340: a3ee 9cbe 5c1b af3e eb7c 99be e616 7fbe
00000350: 4706 adbe 52d4 debe e7e0 a1be 6e5f a13e
00000360: 0cc8 a63e a3fe 57be 02c7 963e 1c6f 75be
00000370: 53ef 62be 5e8d 963e 92bb a8be f38e a63e
00000380: 2fd9 a2be d7ba 9fbe b7e8 a93e 3b1b 96be
00000390: 265f 8f3e aaaa a9be 0b89 acbe 840e b0be
000003a0: cb84 9d3e 8e72 9cbe 4819 953e 9c99 afbe
000003b0: 1f92 c33e a204 acbe 52a7 b73e 99f4 c33e
000003c0: 994b 313e 786c 973e 2222 82be 75f7 923e
000003d0: c7f8 a5be a5b3 303e 70a6 83be 898a b73e
000003e0: b4d3 9a3e abd4 b9be 3200 b3be 543d 98be
000003f0: 2d97 8bbe ee56 b33e 03c7 b0be f5f5 adbe

fc2.bias f4 [6]
-0.086282656 -0.02134866 0.011361291 0.22868684 -0.007039066 -0.13478565
00000000: f6b4 b0bd 63e3 aebc b524 3a3c e22c 6a3e
00000010: f7a7 e6bb 4005 0abe
