backend/models/category_predictor_model.pth (torch, 255687 bytes, 4 tensors)

fc1.weight f4 [128, 487]
00000000: 6c8a 26be 45fc 09bd f3b4 0abe 2d54 353e
00000010: 4bd7 57bd 23de 563e b3e0 7a3e 5559 0abe
00000020: d0fd 993e 18ac 65be 3319 893e dabe 743e
00000030: f50f 9bbd ba62 09be e456 5e3e 5d02 9b3e
00000040: 80c5 19ba 6d17 70be 5a14 143d ff55 53be
00000050: 1eb7 febd dcb9 a1be 58f4 debb b6dc cbbe
00000060: f72e 2ebe 6856 173c c6db 9b3e 216e 1cbe
00000070: 6256 0dbe f159 f2bd f3c2 34be e024 2bbb
00000080: ce83 dfbd 0973 c5bd d5dc dbbe 84d4 933e
00000090: 29ce 6cbe 94e5 843e 71f7 66be e024 30bd
000000a0: e2ea f9bd 4ddf d9bd f4ff 2ebe 29bc 5ebe
000000b0: 2fa2 85bd d65b 093e 6846 583e 1184 38be
000000c0: cb59 1ebe 3ddf fcbd 384d a43e 7bba 68be
000000d0: 6c72 363e ff94 2fbe be63 eebd c355 53be
000000e0: a7b6 39be 9a02 59be a267 a73e 0d5a 19be
000000f0: 197b 7f3e e90f 18be c8d5 2bbe 3977 853e
00000100: 7898 fabd 1df8 29bd cb6e 11be 8ed8 54be
00000110: 45e2 e1bc a4f0 8f3e 9323 33be 2f49 6abe
00000120: d75e 6abe 35d1 63be b2c4 0dbe d0b5 103d
00000130: 5762 6bbe 23c0 443e 31df 873e a4b7 853e
00000140: 061a 6cbe 3d10 0dbe 5014 c7bb 0f50 923e
00000150: f5e2 69be 0842 debd 149f 1cbe 5204 22be
00000160: b6dd 0fbe fd96 b6bd e10c 9b3e 34f4 8c3e
00000170: 368a 7ebe 7e9c 2bbe 2a44 fbbd b6bf 33be
00000180: de03 01bd 716c 25be 5104 30be 52ef 133e
00000190: a9ce 25be b83d a23e ac19 79bd 63c8 2abe
000001a0: 93af b4bd 10fb 8b3e 626d 833e 8659 923e
000001b0: c481 e23c 6c3e 2cbe df2d 9a3e 9977 6abe
000001c0: bc2f fb3c bc90 093e d59d 1b3e 81f4 82bc
000001d0: aeef eebd 7d5d f9bd 5d8d 32bd 4d00 593e
000001e0: f673 67be a0d0 5b3c 6997 f7bd 5640 debd
000001f0: c697 adbe f532 3c3e fd54 53be 17bc b3bc
00000200: 2356 8c3e be52 493e 37fc 8c3e 5e6d 863e
00000210: 005b d4ba bed6 0abe d01d 123d fcaf 0abd
00000220: 2814 d0bc 0015 23bb 94fa c93c 7438 a83e
00000230: 0e9b d0bd a148 24be c76c 08be c20d 5c3e
00000240: 97d2 76bd d84b 80be 9e67 13be f0ce e5bd
00000250: 27dc 1ebe 7ae8 943e b945 35be 283d 0abd
00000260: 80da d63c b11a b6bd 94de 8c3e 06b4 16be
00000270: 10d7 4a3e 286f 17be 79b1 2d3e fe9e 873e
00000280: 2ef7 873e ad67 2f3e 4794 8cbc ecaf 903c
00000290: 45e3 8cbe 315b 11be 51cc 28be b524 60be
000002a0: 884c 17be f9ce 06be 2801 1f3d 3cf5 1fbe
000002b0: 4e05 9fbc 1bd3 b8bd 444d 953e a236 22be
000002c0: 111f 1ebe afa8 8fbd 3e31 11bd 2e1f 983d
000002d0: 2ceb 293e 3358 23be fcbe a03e ac7f 423e
000002e0: f9ce 26be 2e3e 13bd c039 d73b 862c a9be
000002f0: 09f9 37be 4673 f5bd 3448 e1bd e611 323e
00000300: 457e 04be c3ed d13e f2d3 253e dad8 873e
00000310: 068d 983e b016 4fbc 47f3 88bc f4bd 0bbe
00000320: c57a 6f3e e45b d53c c934 1abe fc11 22bd
00000330: e4dd cfbd d56e d9bd fd01 65be 1797 e0bd
00000340: 8c43 28be a865 1bbe 292e 973e 833a 513e
00000350: e372 3a3e 7812 a03c 4b2b 84bd 16ee 943e
00000360: 4b39 a63e 0336 9fbd edff 8d3e 1ae6 cabd
00000370: ac1f 933e 615b a33e 0051 8e3e a2e8 36be
00000380: 241b db3c 14f2 833c 95a6 08be 07ef 963e
00000390: 3d36 a03e 5cb7 1ebe e096 d9bd a339 ac3e
000003a0: e4d5 cf3e ed31 a33e 358b 953e a043 92ba
000003b0: e261 06be 8989 f3bd b646 debd 131f f3bd
000003c0: 8c11 263e f82c 6ebe cf7e 1fbe 4c6e 4abc
000003d0: 6940 01be 53e0 65be f611 973e 2b97 67be
000003e0: 838d 12be 626c 9b3e b0f6 19be 96f6 0abe
000003f0: cc11 1f3e 42c5 483e 885a b6bd 589f 84bb
-0.16263741 -0.03368785 -0.13545589 0.17707892 -0.052695554 0.20983176 0.24499778 -0.1351064
0.30076456 -0.2242893 0.26777038 0.23900929 -0.07571403 -0.13416567 0.21712834 0.3027524
-0.00058659166 -0.23446436 0.03615222 -0.20638274 -0.124372706 -0.31587112 -0.0068040304 -0.39816827
-0.17010103 0.009236909 0.3044111 -0.15276386 -0.13802484 -0.11833561 -0.17652492 -0.0026114509
-0.109138116 -0.09641082 -0.4294192 0.28873074 -0.23125519 0.25956404 -0.22555329 -0.043003917
-0.122030035 -0.10638294 -0.17089826 -0.21751465 -0.06525075 0.13413939 0.21120608 -0.1801913
-0.15463941 -0.12347267 0.32090163 -0.22727387 0.17817086 -0.17146681 -0.11640118 -0.20638184
-0.18136083 -0.21192399 0.32696253 -0.14975758 0.24949302 -0.14849819 -0.1678077 0.26067522
-0.12236112 -0.041496385 -0.1420242 -0.20785734 -0.027573714 0.28113282 -0.17494039 -0.2287948
-0.22887741 -0.22247775 -0.13844565 0.03532964 -0.22986732 0.1921392 0.2653747 0.2611667
-0.23056802 -0.13775726 -0.0060754195 0.28576705 -0.22840483 -0.10852438 -0.15295058 -0.1582196
-0.1404942 -0.089155175 0.30283263 0.27530062 -0.24857411 -0.16758916 -0.12268861 -0.175536
-0.03149783 -0.16154648 -0.17189147 0.14446762 -0.16192116 0.31687713 -0.0608155 -0.16678004
-0.088225506 0.27339983 0.2566939 0.28583926 0.027649768 -0.16820687 0.30113122 -0.22897185
0.03066241 0.13434118 0.15196927 -0.01598573 -0.11666809 -0.121760346 -0.043591846 0.21191521
-0.2260283 0.013416439 -0.12089426 -0.10852115 -0.33904856 0.18378814 -0.20637889 -0.021940274
0.27409467 0.1966047 0.27536175 0.26255316 -0.0016201437 -0.1355848 0.035672963 -0.033859238
-0.025400236 -0.0024884343 0.024655618 0.3285557 -0.10185824 -0.1604333 -0.13322745 0.21489623
-0.060259428 -0.25057864 -0.14394996 -0.11221111 -0.15513669 0.29083616 -0.17702378 -0.03374973
0.026227236 -0.0889181 0.27513564 -0.14717111 0.19808602 -0.14788496 0.16962232 0.2648849
0.2655577 0.17129393 -0.017160548 0.017662011 -0.27517143 -0.14194943 -0.1648419 -0.21889003
-0.14775288 -0.13164891 0.038819462 -0.15620893 -0.01941171 -0.0902464 0.29160511 -0.15841153
-0.15441538 -0.07014596 -0.03544735 0.07427822 0.16593617 -0.15951614 0.3139571 0.18994015
-0.16289891 -0.03594797 0.0065681636 -0.3304178 -0.17966093 -0.11984877 -0.110001 0.1738964
-0.12938793 0.4100171 0.16194132 0.26532632 0.29795092 -0.012639686 -0.016717566 -0.1364668
0.23386677 0.026044793 -0.15059198 -0.039567932 -0.10149744 -0.10616843 -0.2236404 -0.10966318
-0.16432017 -0.15175498 0.29527405 0.20432477 0.18207888 0.019540057 -0.0645357 0.29087895
0.32465586 -0.07773974 0.27734318 -0.0990717 0.287351 0.31905654 0.27796173 -0.1786218
0.02674634 0.016106643 -0.13344796 0.29479238 0.3129138 -0.15499634 -0.1062448 0.33637723
0.40592873 0.31874028 0.2920777 -0.001115907 -0.13123277 -0.11891467 -0.10853331 -0.11871161
0.16217631 -0.23259342 -0.15575717 -0.012355398 -0.12622227 -0.22448854 0.2950589 -0.2261626
-0.14311795 0.30356127 -0.1503551 -0.13570628 0.15534133 0.19606498 -0.08903986 -0.0040473156

fc1.bias f4 [128]
00000000: e554 533e a6d3 653e 53b7 873e b0d1 9a3e
00000010: f802 4d3e 6397 743e 09e1 983e 890a 7b3e
00000020: 4ca0 4e3e 35f2 893e 88b6 553e 2517 443e
00000030: 1a7c 8c3e cd14 2c3e 9b53 8b3e 2cfe 593e
00000040: e7b4 843e efcc 503e 40e3 9c3e 6eda 763e
00000050: 92e4 a63e 5c0e 833e b482 723e bbb9 6d3e
00000060: 7f68 973e 430c 6b3e b0b5 783e 1c74 543e
00000070: 8409 643e 3a49 863e 6d3b 853e f2e7 7d3e
00000080: 9d64 4a3e e382 813e 375a 7f3e 2910 413e
00000090: e926 733e a897 4e3e c861 843e 4a36 5c3e
000000a0: 672e 883e af70 653e 2591 693e c530 7d3e
000000b0: 8bb9 6b3e 0853 9d3e ecab 643e e2bf 783e
000000c0: 512f 813e c812 9d3e 5cab 583e 7e0f 873e
000000d0: ea3f 453e f6cb 7c3e 61c4 833e 313a 7f3e
000000e0: edfd a13e 866a 973e 967b 843e aaee 6b3e
000000f0: 1879 813e e6c9 823e d8d9 693e 1a7e 663e
00000100: 4009 453e 1be3 823e 248c 843e 1f0f 653e
00000110: c03b 7c3e d490 413e 1b4e 823e 65e8 883e
00000120: 06ef 7e3e 0cb2 993e 29a3 953e 717f 833e
00000130: d976 6e3e 720b 903e e27d 753e 9cb8 783e
00000140: f3a6 623e 5c52 763e 1173 7e3e 7799 9f3e
00000150: 1e83 6d3e 7ad3 5a3e 9cec 623e 798a 5b3e
00000160: 8977 733e 33ac 5f3e 7d68 833e eb99 7e3e
00000170: ccdf 703e 826e 6e3e 4e95 933e 7c3d a93e
00000180: 4926 9c3e dab2 5e3e 8086 373e f674 8a3e
00000190: 5b03 953e 539b 9a3e efde 873e 3bc7 893e
000001a0: 3baa 743e 59da 7f3e 7290 793e a03f 563e
000001b0: fe2c 843e 6ea7 473e 0020 803e dbd4 693e
000001c0: a326 523e 7564 623e 9fce 7c3e 3621 3a3e
000001d0: 7e66 873e f750 3f3e cc89 693e 1118 5f3e
000001e0: aa07 6d3e d83b 843e b181 a03e fe05 723e
000001f0: 56c3 563e f726 933e 264d 803e 7bee 563e
0.20637853 0.22444019 0.26507053 0.30238104 0.20020664 0.23885874 0.29859188 0.24515738
0.20178336 0.26942602 0.20870411 0.19149454 0.27438432 0.1680481 0.27212223 0.21288365
0.25919268 0.20390676 0.30642128 0.24106762 0.3259626 0.25596893 0.23682672 0.23215382
0.29571912 0.22953896 0.24288058 0.20747417 0.22269255 0.26227742 0.260219 0.24795511
0.19764943 0.2529517 0.24936758 0.18853821 0.23745312 0.2017504 0.2585585 0.21505085
0.26597902 0.22406267 0.22809274 0.24725635 0.23019998 0.3072741 0.22331208 0.24291947
0.25231412 0.3067839 0.21159118 0.26379007 0.19262663 0.2468718 0.25735763 0.24924542
0.31639042 0.29573458 0.2587554 0.23040262 0.252877 0.2554466 0.22837007 0.22509041
0.1924181 0.25563893 0.2588817 0.2236905 0.24632168 0.18902904 0.25450215 0.26739803
0.24895868 0.3001865 0.29226044 0.25683168 0.23287524 0.28133732 0.23973802 0.24289173
0.22133999 0.24054855 0.24848582 0.31171772 0.23194548 0.21369734 0.22160572 0.21439542
0.23776068 0.21843033 0.25665656 0.24863403 0.23522872 0.23284343 0.28824848 0.3305472
0.3049796 0.21747914 0.17922401 0.2704236 0.29104123 0.30196628 0.26537272 0.26909813
0.23893063 0.24985637 0.24371508 0.20922709 0.25815576 0.19497463 0.25024414 0.22835104
0.20522551 0.22108634 0.24688195 0.18176731 0.26445383 0.1868323 0.22806472 0.21786524
0.23147455 0.25826907 0.31348947 0.23635098 0.20972952 0.28740665 0.2505886 0.2098941

fc2.weight f4 [6, 128]
00000000: 815b 86be 26a6 88be f224 94be 7b5e 823e
00000010: 1c2f a2be bd97 b63e e075 c13e a347 98be
00000020: 27d1 93be 4b19 bb3e 619f b3be e597 a7be
00000030: ae75 9bbe 0732 b0be 658c a83e ea65 adbe
00000040: 9894 b0be 3558 cb3e 3159 a1be 297c b3be
00000050: 0a92 99be ac5d 8dbe d24f ba3e 84e5 98be
00000060: 5548 a3be c9e6 c33e 97e7 893e 2652 9dbe
00000070: 1794 81be acda bcbe 18bd ab3e 03a4 97be
00000080: 3cda 91be cf32 9b3e f33a a33e 8363 9dbe
00000090: 03b9 b53e a7f8 85be f957 b7be fc4b 9ebe
000000a0: 0766 a53e 28d9 c83e bbb8 b63e cff3 b43e
000000b0: f1fb 97be 1519 b43e 7c4f b7be d5da 8dbe
000000c0: 83e3 c23e b795 82be 4f98 c8be c905 7fbe
000000d0: 9954 983e a620 b53e f925 95be f5c1 71be
000000e0: 1432 62be 948c c03e 2b62 b03e 1323 9a3e
000000f0: 3e91 b0be e09f 9e3e d339 b8be 7775 a3be
00000100: 6719 893e 6a78 acbe 5ccb a33e 0973 b03e
00000110: 3f4e 913e 1bc6 a8be c4a3 a73e ba8b a9be
00000120: 9a66 ab3e a1d0 9c3e 406e 9abe dde2 9ebe
00000130: 0a84 9abe 47a6 a1be 659e 9abe bfd8 a13e
00000140: 018c 8ebe fdaa bc3e 097b bdbe f8a1 a93e
00000150: a65e 81be 7cd4 783e 5b8b a6be 184e 83be
00000160: 639d b4be 0a14 b6be 7d26 bcbe 0601 98be
00000170: 08ae 9d3e f579 bbbe 07b3 bb3e d574 aa3e
00000180: 60ef 8ebe 9ced 98be 3897 a43e 0d0c 98be
00000190: 9fb7 b83e e747 a93e c081 9dbe 17de b23e
000001a0: 600d b0be 0a99 a93e cdf3 8c3e 003e bebe
000001b0: 192b 80be 4bd7 a23e 483c a7be f8a1 b0be
000001c0: fd1c 9bbe 270a a9be 5272 78be c629 bfbe
000001d0: 009b aa3e ca7f 91be a819 c5be 3206 acbe
000001e0: 8c35 b9be 06bc ab3e 72ac b93e 2409 a43e
000001f0: d1c5 93be 7573 923e b61b 9cbe 550c aebe
00000200: 891e 65be 6573 c03e b8b2 a6be 6046 b0be
00000210: b701 b4be aeea f13c 6b15 abbe 93d4 87be
00000220: e8dd 373d eb80 823e a0fb 5c3e 3c87 a2be
00000230: 1634 923e de6a ddbe 514d 8ebe 2171 b8be
00000240: 73ee a53e ac1b b5be 0e7d a7be 0678 963e
00000250: ca79 84be df2d 923e eac9 b83e 61f1 8e3e
00000260: ee87 85be 8c66 af3e 4a38 a3be 1a46 adbe
00000270: 2c28 b83e 7452 ce3e ae43 8fbe 6d63 9c3e
00000280: c43a ecbe ee13 92be 6337 b6be 78c1 a8be
00000290: 792b b83e 5a9a 84be d895 7f3e 69d0 a1be
000002a0: 08ec 93be 5264 343e 64bd 80be e5dd c63e
000002b0: de84 ad3e 92c0 7c3e 0d93 acbe 6285 93be
000002c0: ef35 943e adb2 99be b255 863e 8093 9cbe
000002d0: 5b76 c1be 76e9 c9be eabd 9d3e e7b5 8dbe
000002e0: 63f9 8bbe 6b22 70be b6ab b9be 97d8 a73e
000002f0: 142b 95be c03f b2be c2b8 52bd 4dea b2be
00000300: 088b c4be a850 bb3e 3f1a a43e ee3d 74be
00000310: 9d73 9fbe 6318 9ebe 2d20 953e daa0 ab3e
00000320: e5d0 9abe a7fa 98be 8fdf 883e b5ab 9ebe
00000330: efff b23e 30b2 93be 3ab6 97bd aedb 8bbe
00000340: ba27 8f3e 729a acbe 23b3 4b3e f161 b3be
00000350: 3b9c 8fbe 738a bebe 3b69 9abe 9e9e c2be
00000360: 86f2 ad3e d162 463d 8d0c 953e e034 97be
00000370: 3958 c1be 6191 a23e e241 7bbe a1ba 9abe
00000380: b357 b4be fa50 c13e c04e a9be 0eff 983e
00000390: 28ed 853e b74e 4d3e a77f a2be 3a64 a7be
000003a0: 1ee9 ba3e 61fc 883e 80b4 8e3e d82c bfbe
000003b0: 009f 75be 9086 4a3e 0570 8f3e 35d5 863e
000003c0: 5300 9d3e 735f ccbe 46cd babe d9fe 783e
000003d0: 2a50 aabe 8730 773e 8464 a23e 1ea0 bebe
000003e0: 37c5 be3e 7c46 8ebe aca8 87be 51b8 b23e
000003f0: e785 a33e b7e5 adbe 74e0 663e f11c 89be
-0.26241687 -0.2668926 -0.28934437 0.25462708 -0.31676567 0.35662642 0.37785244 -0.29742154
-0.28870508 0.36542735 -0.35082534 -0.32733074 -0.3036322 -0.34413168 0.32919613 -0.33866817
-0.34488368 0.39715734 -0.3151336 -0.35055664 -0.2999423 -0.27610528 0.36389023 -0.29862607
-0.31891122 0.38262013 0.26934502 -0.30726737 -0.25308296 -0.36885583 0.33542705 -0.2961732
-0.28486812 0.303122 0.31880912 -0.30739984 0.35492715 -0.2616627 -0.35809305 -0.30917346
0.32304403 0.39228177 0.35687813 0.3534226 -0.29684404 0.35175386 -0.3580283 -0.27706018
0.38064203 -0.25504848 -0.39178702 -0.2490455 0.29752043 0.3537647 -0.29130533 -0.23609145
-0.22089416 0.37607253 0.34449896 0.30104885 -0.3448581 0.3098135 -0.35981616 -0.31925556
0.26777193 -0.3368562 0.31991088 0.34462765 0.2838001 -0.32963642 0.3274213 -0.33114415
0.33476716 0.3062792 -0.3016224 -0.31032458 -0.30178863 -0.31572172 -0.3019897 0.31610677
-0.2784119 0.36849204 -0.3700793 0.33131385 -0.25267524 0.24299806 -0.32528195 -0.25645518
-0.35276327 -0.35562164 -0.36748114 -0.2968828 0.30796838 -0.36616483 0.36660025 0.3329226
-0.27917004 -0.29868782 0.3214662 -0.29696694 0.36077592 0.3306267 -0.30763054 0.34935066
-0.34385204 0.33124572 0.27529755 -0.37156677 -0.2503288 0.3180488 -0.32663178 -0.34498572
-0.30295554 -0.33015558 -0.2426236 -0.37336558 0.3332138 -0.28417808 -0.38496137 -0.33598477
-0.36173666 0.33541888 0.36264378 0.32038224 -0.2886186 0.28603712 -0.30489892 -0.33993784
-0.2237493 0.3758804 -0.32558227 -0.34428692 -0.35157558 0.02953085 -0.33414778 -0.2652937
0.04488936 0.25488982 0.21580362 -0.317438 0.28555363 -0.43245596 -0.27793363 -0.3602381
0.32408485 -0.35372674 -0.32712597 0.29388446 -0.25874168 0.28550622 0.36091548 0.27918532
-0.2608027 0.34257925 -0.31878883 -0.33842546 0.3596815 0.40297282 -0.27981323 0.30544606
-0.46138585 -0.2853083 -0.35589132 -0.32960105 0.35970667 -0.2589901 0.24959505 -0.31604317
-0.28891015 0.17616394 -0.25144494 0.38841167 0.33890432 0.24682835 -0.3370594 -0.288127
0.28947398 -0.3001913 0.26237255 -0.30581284 -0.3778561 -0.3943593 0.30808955 -0.27677843
-0.27338704 -0.2345063 -0.36263818 0.32782432 -0.29134429 -0.34814262 -0.05144573 -0.34944382
-0.38387322 0.36584973 0.32051274 -0.2385175 -0.31142893 -0.3087798 0.2912611 0.33521158
-0.302375 -0.29878733 0.26733062 -0.30990377 0.34960887 -0.28846884 -0.07407804 -0.2731604
0.27959996 -0.33711582 0.19892554 -0.3503566 -0.28048882 -0.37215003 -0.3015841 -0.3801164
0.33974093 0.048434082 0.29111138 -0.29532528 -0.3776262 0.3175154 -0.24536851 -0.30220512
-0.3522316 0.37757093 -0.33067894 0.2988209 0.26157498 0.20049559 -0.31738016 -0.32693654
0.3650598 0.2675505 0.27872086 -0.373389 -0.23986435 0.19777894 0.28015152 0.2633454
0.3066431 -0.39916572 -0.36484736 0.24315967 -0.33264285 0.24139605 0.31717312 -0.37231535
0.37259838 -0.2778815 -0.26495874 0.34906247 0.31938097 -0.3396432 0.2254656 -0.26779893

fc2.bias f4 [6]
00000000: da2a 473e 7afe c4bc 7f45 2c3e 2890 623d
00000010: 784c 35be 04dc fabd
0.1944994 -0.024047125 0.16823386 0.05531326 -0.17704952 -0.12248996
