backend/models/category_predictor_model.pth (torch, 259271 bytes, 4 tensors)

fc1.weight f4 [128, 494]
0	0x3e968783	0.29400262
1	0xbd23b16b	-0.03996412
2	0x3e90b96b	0.28266463
3	0xbeb0debe	-0.3454494
4	0x3e590dec	0.21196717
5	0xbe6f37d2	-0.23361138
6	0xbe2ce87d	-0.16885562
7	0x3e1dd5c8	0.15413582
8	0xbe03649f	-0.12831353
9	0xbe4d1d3d	-0.20030685
10	0xbe64b04f	-0.22332881
11	0xbeb5126c	-0.35365617
12	0xbd01e4d4	-0.031712368
13	0x3e5bc942	0.21463493
14	0xbe3596dc	-0.1773333
15	0x3e8b5d5c	0.27219665
16	0x3e9df985	0.3085443
17	0xbe4f0b73	-0.20219211
18	0x3cb4cde8	0.02207084
19	0xbe4d1c54	-0.20030338
20	0x3e62e29a	0.22156754
21	0x3e854cb1	0.26035073
22	0xbe1c2505	-0.15248497
23	0x3e5dba23	0.21653037
24	0x3e7daccd	0.2477295
25	0x3e44e835	0.19229205
26	0x3cdec6f4	0.027194478
27	0xbebcf7ee	-0.36907905
28	0x3e91dd45	0.28489128
29	0xbdfb1127	-0.12259131
30	0xbdfad907	-0.12248426
31	0x3e8ef6cd	0.2792267
32	0xbd33b765	-0.04387607
33	0xbe54a47d	-0.20765872
34	0xbe1e12e2	-0.1543689
35	0x3ea239c0	0.31684685
36	0x3ce405ab	0.027834734
37	0xbe27de24	-0.16393334
38	0xbe933eb9	-0.2875879
39	0xbe4d1d35	-0.20030673
40	0x3e8429b1	0.25813058
41	0x3e88a6d2	0.26689774
42	0x3e2e59da	0.17026463
43	0x3e9a297d	0.30109778
44	0xbdb397e0	-0.08769202
45	0x3e47d2cf	0.19514011
46	0x3e90fb29	0.2831662
47	0xbe1da6a8	-0.15395606
48	0xbe6d5b43	-0.23179345
49	0xbdfeb985	-0.12437729
50	0xbdd71129	-0.1050132
51	0xbe55c55d	-0.2087607
52	0x3e8cd43f	0.2750568
53	0xbc65913c	-0.014011677
54	0x3e97ae24	0.29625046
55	0xbd73a2f9	-0.059481595
56	0x3ea7f585	0.32804504
57	0xbe2da39e	-0.16956946
58	0x3e572da5	0.21013506
59	0xbe4d3377	-0.20039164
60	0x3ea4fa03	0.32221994
61	0xbd529fec	-0.051422045
62	0xbdd385c8	-0.10328251
63	0x3e97157c	0.2950858
64	0x3e6eaaf4	0.23307401
65	0xbe7a421e	-0.24439284
66	0xbe1e976d	-0.15487452
67	0xbe2d979d	-0.16952367
68	0x3e93b145	0.28846183
69	0x3e6fbcfe	0.23411939
70	0x3c7dd0f0	0.015491709
71	0xbee11207	-0.43959066
72	0x3e772faf	0.24139284
73	0xbe20eca6	-0.15715274
74	0xbe24eff8	-0.16107166
75	0xbe513598	-0.204306
76	0xbe08dabf	-0.13364695
77	0xbd1350d7	-0.035965767
78	0xbe516102	-0.20447162
79	0x3e61eb73	0.22062473
80	0x3e51cd83	0.20488553
81	0xbe577a05	-0.2104264
82	0xbe4e532f	-0.2014892
83	0x3e36ccfe	0.17851636
84	0xbc01a764	-0.007913444
85	0x3e7a98f2	0.24472407
86	0xbe4d1c20	-0.2003026
87	0xbe556780	-0.20840263
88	0xbde97cc4	-0.1140075
89	0xbdde7d57	-0.108637504
90	0x3e66b31c	0.22529262
91	0x3e6e9ce8	0.23302042
92	0x3e11661d	0.1419911
93	0x3e92c1b5	0.28663412
94	0x3e713ba2	0.23557904
95	0x3e8a3c04	0.26998913
96	0x3e285261	0.16437675
97	0x3e86e2a1	0.2634478
98	0xbcc40ec9	-0.023932831
99	0x3e8e893c	0.27839077
100	0xbe42d90c	-0.1902811
101	0x3e2ef448	0.17085373
102	0x3e628ecf	0.2212479
103	0xbc1302c8	-0.008972831
104	0x3e6af972	0.22946718
105	0x3e7f6fd4	0.24945003
106	0xbda49e05	-0.08037952
107	0x3e96b284	0.29433072
108	0xbe4ec91d	-0.20193906
109	0xbdd9a27b	-0.10626694
110	0x3e61161e	0.21981093
111	0x3d113018	0.035446256
112	0x3e725180	0.23663902
113	0xbe2231f4	-0.15839368
114	0x3ba89070	0.0051441714
115	0xbe14cdad	-0.14531584
116	0xbdc4111f	-0.09573578
117	0xbc84d176	-0.01621316
118	0x3e892987	0.26789495
119	0x3e7b1f6e	0.24523708
120	0xbddbc433	-0.107307814
121	0xbe5f7fbe	-0.21826074
122	0xbe4e6629	-0.20156159
123	0xbd0ebc02	-0.034847267
124	0xbdd40c5b	-0.10353919
125	0xbe54a5e4	-0.20766407
126	0x3e80d2bd	0.2516078
127	0x3e849080	0.25891495
128	0xbe28e114	-0.1649211
129	0xbe553a7c	-0.20823091
130	0x3d015718	0.0315772
131	0xbe7bf481	-0.2460499
132	0xbec370ed	-0.38172093
133	0x3e8458a0	0.25848866
134	0xbbcbcf20	-0.0062197596
135	0x3e7d9758	0.24764764
136	0x3e85b3c0	0.261137
137	0x3c844524	0.01614625
138	0x3b67c2f0	0.0035363995
139	0x3bf30398	0.0074162
140	0x3cc7d590	0.024393827
141	0xbeba908c	-0.36438406
142	0x3e4348c2	0.19070724
143	0x3e8d4338	0.27590346
144	0x3e8b737b	0.27236542
145	0xbe12ed0a	-0.14348236
146	0x3e8efe21	0.2792826
147	0x3e822747	0.2542059
148	0xbe1c91a9	-0.1528994
149	0xbdf1acd9	-0.11800546
150	0xbdd8d107	-0.10586744
151	0x3e961883	0.29315576
152	0x3e0d742b	0.13813846
153	0xbc2531b4	-0.010082651
154	0x38e9f000	0.00011155009
155	0xbe0af868	-0.13571322
156	0x3e920513	0.28519496
157	0xbe955255	-0.29164377
158	0xbe1cf8c9	-0.15329279
159	0x3e8a6f7f	0.2703819
160	0x3e90fa1c	0.28315818
161	0xbe7c2a59	-0.2462553
162	0x3e88041e	0.2656564
163	0x3d2dd006	0.042434715
164	0x3c3ee9cc	0.011652421
165	0x3eb06c6d	0.34457722
166	0x3bfd48b6	0.007729615
167	0x3e1dfffe	0.15429685
168	0x3e802711	0.25029805
169	0x3e9152a5	0.28383365
170	0xbc62c96a	-0.013841966
171	0x3e6abb9f	0.22923134
172	0xbe7cc903	-0.24686055
173	0x3e8cf8fa	0.27533704
174	0xbe2e96c2	-0.17049697
175	0x3e8234b6	0.2543084
176	0x3e8330e3	0.25623235
177	0x3ea63190	0.32459688
178	0x3e905071	0.28186372
179	0x3e7c22b4	0.24622613
180	0xbe25d9d4	-0.16196376
181	0x3e8948bf	0.26813313
182	0xbe53be1a	-0.20677987
183	0x3e86d573	0.26334724
184	0x3e5ffa90	0.21872926
185	0x3d24aea6	0.04020562
186	0x3f5531f0	0.83279324
187	0x3cd3be30	0.025847524
188	0x3e64763a	0.22310725
189	0xbe466cd3	-0.1937745
190	0xbe2c70af	-0.1683986
191	0xbe03bf5a	-0.12865964
192	0x3e915984	0.28388608
193	0x3e49e0bb	0.19714634
194	0xbe6ce3fb	-0.23133843
195	0x3e99595a	0.29950982
196	0x3e247ce9	0.16063274
197	0x3e3dc456	0.18531927
198	0x3e86aa7e	0.2630195
199	0xbcd026f4	-0.0254092
200	0x3dc7c684	0.09754661
201	0x3e83fb74	0.2577778
202	0xbe292c3c	-0.1652078
203	0xbcbe2b87	-0.023214115
204	0x3e61c243	0.22046761
205	0x3e8c4a1e	0.27400297
206	0xbdd080ad	-0.10180793
207	0xbe5a9e17	-0.21349369
208	0xbe2326d7	-0.15932785
209	0x3e80a3ba	0.25124913
210	0x3e880156	0.2656352
211	0x3e799f45	0.24377163
212	0xbea8756e	-0.32902092
213	0xbe7519ae	-0.23935577
214	0x3e93c775	0.2886311
215	0x3c6eab7c	0.014567252
216	0x3e652a01	0.22379304
217	0x3e322dba	0.17400256
218	0xbea87c5d	-0.32907382
219	0xbdd547c9	-0.104140826
220	0xbea58a4d	-0.32332078
221	0x3e7e0fa1	0.2481065
222	0x3e8ad9d7	0.27119324
223	0x3e8ff052	0.28113037
224	0x3e69bacb	0.22825162
225	0xbe134856	-0.14383063
226	0x3be92ec0	0.0071161687
227	0x3d2366c6	0.039892934
228	0x3e75556c	0.23958367
229	0x3e26e46b	0.16298072
230	0x3e094f38	0.13409126
231	0xbdd4eec8	-0.103971064
232	0x3e42cf0a	0.19024292
233	0xbe37d049	-0.17950548
234	0xbde9de11	-0.11419309
235	0x3e8e3866	0.27777404
236	0xbe82a6ae	-0.25517792
237	0xbc06e3f8	-0.008233063
238	0x3e81b0aa	0.25330096
239	0xbe54a504	-0.20766073
240	0xbe54a3d3	-0.20765619
241	0xbe2962fa	-0.16541663
242	0x3ddaa63f	0.1067624
243	0xbe2abc51	-0.166734
244	0x3e7863e5	0.24256857
245	0x3bcc97c0	0.006243676
246	0x3e628f11	0.22124888
247	0xbe281bb4	-0.16416818
248	0xbdebae54	-0.1150786
249	0xbe4b9a28	-0.19883025
250	0x3e90e95a	0.28303033
251	0x3e9cb578	0.306072
252	0x3e7b792e	0.24557945
253	0xbe3c75bc	-0.18404287
254	0x3e66c341	0.22535421
255	0x3e5a2d84	0.21306425

fc1.bias f4 [128]
0	0x3e5fe796	0.21865687
1	0x3e564f05	0.20928581
2	0x3e772def	0.24138616
3	0x3e82db7d	0.2555808
4	0x3e7be234	0.24598008
5	0x3e6e07f0	0.23245215
6	0x3e812107	0.2522051
7	0x3e4ce0d2	0.20007637
8	0x3e7be946	0.24600706
9	0x3e40673e	0.18789384
10	0x3e5ad31f	0.21369599
11	0x3e625d08	0.22105801
12	0x3e8bcbba	0.2730387
13	0x3e4f63ab	0.20252864
14	0x3e8042c9	0.25050953
15	0x3e9d2ce1	0.30698302
16	0x3e88a564	0.26688683
17	0x3e7b4e31	0.24541546
18	0x3e68b290	0.22724366
19	0x3e859e59	0.26097372
20	0x3e87242a	0.26394778
21	0x3e802f43	0.25036058
22	0x3e5dcdc2	0.21660522
23	0x3e805698	0.25066066
24	0x3e8e02ae	0.2773642
25	0x3e70d222	0.2351766
26	0x3e8c62ca	0.2741912
27	0x3ea09af4	0.3136822
28	0x3e78d326	0.24299297
29	0x3e87f599	0.26554564
30	0x3e988611	0.29789785
31	0x3e5769b7	0.21036421
32	0x3e877f16	0.26464146
33	0x3e3c7ccb	0.1840698
34	0x3e6c7a5b	0.2309355
35	0x3e517fdc	0.2045893
36	0x3e81e0f0	0.25366926
37	0x3e53e8d7	0.2069429
38	0x3e76c809	0.24099745
39	0x3e9063d5	0.28201166
40	0x3e83d8db	0.25751385
41	0x3e81189a	0.25214082
42	0x3e8371fc	0.256729
43	0x3e908c9c	0.28232276
44	0x3e6d56eb	0.23177688
45	0x3e72b30a	0.2370111
46	0x3e9113f9	0.2833555
47	0x3e8e874a	0.27837592
48	0x3e987db5	0.29783407
49	0x3e8f8ecd	0.28038636
50	0x3e5f4f89	0.21807684
51	0x3e8be13d	0.2732028
52	0x3e90ec59	0.2830532
53	0x3e77f0d0	0.24212956
54	0x3e861348	0.26186585
55	0x3e85adca	0.26109153
56	0x3e5638bf	0.20920084
57	0x3e88c223	0.26710615
58	0x3e5ba113	0.21448164
59	0x3e889860	0.26678753
60	0x3e850ad0	0.25984812
61	0x3e3ea33f	0.18616961
62	0x3e833b3d	0.25631133
63	0x3e967c07	0.293915
64	0x3e65e937	0.22452246
65	0x3e2e3312	0.1701167
66	0x3e9cf919	0.30658796
67	0x3e589205	0.21149452
68	0x3e5ad085	0.21368606
69	0x3e47db62	0.19517282
70	0x3e766c1c	0.24064678
71	0x3e3e0336	0.18555912
72	0x3e5c21cd	0.21497269
73	0x3e89e6cc	0.26933897
74	0x3e846221	0.25856116
75	0x3e829535	0.2550446
76	0x3e765eec	0.24059647
77	0x3e249ae0	0.16074705
78	0x3e836f56	0.2567088
79	0x3e424243	0.1897059
80	0x3e82e45d	0.25564852
81	0x3e83df73	0.25756416
82	0x3e7bc7c8	0.24587929
83	0x3e820a18	0.25398326
84	0x3e7c34cc	0.24629515
85	0x3e7bfc75	0.24608023
86	0x3e77957e	0.2417812
87	0x3e82227e	0.2541694
88	0x3ea26f14	0.3172537
89	0x3e8b23f3	0.27175865
90	0x3e69be82	0.22826579
91	0x3e2f36a7	0.17110692
92	0x3e760329	0.24024643
93	0x3e53923a	0.2066125
94	0x3e8ded36	0.2772004
95	0x3e85994c	0.2609352
96	0x3e563eaf	0.2092235
97	0x3e936dfc	0.2879485
98	0x3e6e8256	0.23291907
99	0x3e8c66bf	0.2742214
100	0x3e7d7813	0.24752836
101	0x3e89e6d6	0.26933926
102	0x3e82b0b4	0.2552544
103	0x3e84ae81	0.25914386
104	0x3e4ae869	0.1981522
105	0x3e49f6c8	0.19723046
106	0x3e55f614	0.20894653
107	0x3e37b1ac	0.1793887
108	0x3e619f80	0.220335
109	0x3e27a284	0.16370589
110	0x3e8e0777	0.2774007
111	0x3e8ffe52	0.28123719
112	0x3e61c142	0.22046378
113	0x3e6136af	0.21993516
114	0x3e6994ce	0.2281067
115	0x3e9f0e98	0.31065822
116	0x3e76d526	0.24104747
117	0x3e856e9d	0.26060954
118	0x3e69854c	0.22804755
119	0x3e827ed0	0.25487375
120	0x3e6cdacd	0.23130341
121	0x3e92f6ea	0.28704005
122	0x3e8874d4	0.26651633
123	0x3e803bc0	0.25045586
124	0x3e71bd96	0.23607478
125	0x3e7bcf58	0.24590814
126	0x3e7db7a9	0.24777092
127	0x3e2d4aca	0.16923061

fc2.weight f4 [6, 128]
0	0x3eb94188	0.3618281
1	0x3ea81bf3	0.32833824
2	0xbeb6d65a	-0.35710412
3	0xbe8a34cf	-0.26993415
4	0xbe973ede	-0.2954015
5	0x3eac1858	0.33612323
6	0x3e9d139f	0.30679032
7	0xbeb5a1ac	-0.35474908
8	0xbe8ac1ce	-0.27100986
9	0x3e89169b	0.2677506
10	0x3e90f388	0.283108
11	0xbec3a894	-0.38214552
12	0xbea1c9d4	-0.31599295
13	0xbeb87013	-0.36023006
14	0x3e9996dc	0.2999791
15	0x3ebbf842	0.36712843
16	0x3e8a45d9	0.27006415
17	0xbeaa04a9	-0.3320668
18	0x3eb807e3	0.35943517
19	0x3eb4d1e9	0.353164
20	0x3ea63681	0.32463458
21	0x3eb4e2e1	0.35329345
22	0xbe942618	-0.28935313
23	0xbec37d25	-0.38181415
24	0x3e652004	0.22375494
25	0xbea0ee50	-0.31431818
26	0x3eb63b49	0.35592106
27	0xbeb2869c	-0.34868324
28	0x3e73db8c	0.23814219
29	0x3eb9b8ad	0.3627371
30	0xbe9ceae3	-0.30647954
31	0xbe630af4	-0.22172147
32	0xbe8809ca	-0.26569968
33	0xbea5df8d	-0.32397118
34	0xbe96080f	-0.29303023
35	0x3eb7df08	0.35912347
36	0x3eb624e0	0.35575008
37	0xbe87da3d	-0.2653369
38	0x3e941b8b	0.28927264
39	0xbe866c72	-0.26254612
40	0xbe5eb3a2	-0.21748212
41	0xbe7d9a81	-0.2476597
42	0xbeb36251	-0.35035947
43	0x3eb03933	0.3441864
44	0xbe9f0863	-0.31061086
45	0x3e8e0d10	0.2774434
46	0xbebd7e12	-0.37010247
47	0x3eaba738	0.33526015
48	0x3e88f34f	0.2674813
49	0x3ea2c167	0.3178818
50	0x3ebef405	0.37295547
51	0xbeb66b7e	-0.35628885
52	0x3eab834d	0.33498612
53	0x3eb0108d	0.34387627
54	0x3ead14b8	0.3380487
55	0x3e87dde5	0.2653648
56	0xbe9a35f0	-0.30119276
57	0xbea90298	-0.3300979
58	0x3ec1df50	0.37865686
59	0xbe7a7fd3	-0.24462824
60	0x3e8dc65d	0.27690402
61	0xbea85a65	-0.32881466
62	0xbe5dde3d	-0.21666808
63	0xbe947bc9	-0.2900069
64	0x3ec2c7a2	0.38042933
65	0xbe949125	-0.29016986
66	0xbea4069b	-0.3203629
67	0xbe9eadd5	-0.30991998
68	0x3ea65fe7	0.32495043
69	0xbe9bb3e4	-0.30410683
70	0x3e74a7cb	0.23892133
71	0xbe8546a8	-0.2603047
72	0xbec493eb	-0.38394102
73	0x3eb21b9a	0.34786683
74	0xbe801d11	-0.25022176
75	0xbe8e3d98	-0.27781367
76	0xbe8bd3b5	-0.27309957
77	0xbece8c23	-0.4034129
78	0xbea4786b	-0.32123122
79	0xbe857954	-0.2606913
80	0xbec3e4e9	-0.38260582
81	0xbed153d6	-0.40884274
82	0x3e95d8f6	0.2926709
83	0xbeb5bb2c	-0.35494363
84	0x3ebb5703	0.36589822
85	0xbe863f06	-0.26219958
86	0xbe85bf07	-0.26122305
87	0x3ea06dd4	0.31333792
88	0x3eaa3199	0.33240965
89	0x3ea25d9f	0.31712052
90	0xbe98f6c2	-0.2987576
91	0xbf07a611	-0.5298777
92	0xbe9c2bc9	-0.30502155
93	0xbe91d105	-0.28479782
94	0xbe8f00af	-0.2793021
95	0x3e8a4ec7	0.27013227
96	0xbe87271f	-0.26397035
97	0xbe494ed4	-0.19658977
98	0xbea5317f	-0.32264325
99	0xbeaaad3e	-0.33335298
100	0xbeadb0f1	-0.33924058
101	0x3eae53d3	0.34048328
102	0xbeab5515	-0.3346335
103	0x3e9e9a6c	0.3097719
104	0x3eb69511	0.35660604
105	0x3ea700d1	0.3261781
106	0x3e9c4654	0.30522406
107	0x3e8ea794	0.27862227
108	0x3eaf1879	0.3419836
109	0xbf02a534	-0.5103333
110	0x3eae5f87	0.34057257
111	0xbe965718	-0.29363322
112	0x3e97888a	0.2959636
113	0x3ea10503	0.31449136
114	0xbe9acaeb	-0.3023294
115	0x3eb89f88	0.36059213
116	0xbe88dcc5	-0.26730934
117	0xbe9a475d	-0.3013257
118	0xbea85908	-0.32880425
119	0xbeae10da	-0.33997232
120	0xbece8018	-0.40332103
121	0xbe9f94a9	-0.31168106
122	0xbeac4b7e	-0.33651346
123	0x3e9952e1	0.29946044
124	0xbebcdc47	-0.36886808
125	0x3ea7f083	0.32800683
126	0x3e99a53b	0.30008873
127	0x3eaa8fe0	0.33312893
128	0x3e434014	0.19067413
129	0xbe817421	-0.25283912
130	0xbe956fb4	-0.29186785
131	0x3eb1b01d	0.34704676
132	0x3eab7b4d	0.3349251
133	0x3ea726b0	0.32646704
134	0x3e6eea8e	0.23331663
135	0xbed86093	-0.4226118
136	0x3e54ec58	0.20793283
137	0x3e3d24b5	0.18471034
138	0xbeb72e98	-0.35777736
139	0x3ec3409a	0.38135225
140	0xbe84a436	-0.25906533
141	0xbe8d335f	-0.27578256
142	0xbeaab94a	-0.3334449
143	0xbe7abbb1	-0.24485661
144	0xbe87e0a5	-0.26538578
145	0xbe6b2f86	-0.22967348
146	0xbebe4248	-0.37159944
147	0xbe90eff4	-0.2830807
148	0x3dea24e0	0.114328146
149	0xbea15d5d	-0.31516543
150	0xbe700b19	-0.23441733
151	0x3ea96d31	0.3309112
152	0x3e95a0e4	0.29224312
153	0xbe915022	-0.2838145
154	0xbe902473	-0.2815281
155	0xbeaee238	-0.34156966
156	0x3e8b3dfa	0.27195722
157	0xbea67c2c	-0.3251661
158	0xbe9654e8	-0.29361653
159	0xbe4af4a2	-0.19819883
160	0x3ea521de	0.322524
161	0x3dff6171	0.12469757
162	0xbd8e1ead	-0.06939445
163	0xbea45ef3	-0.3210369
164	0xbea43853	-0.32074222
165	0xbe78ce6d	-0.24297495
166	0x3e4558de	0.19272181
167	0xbe71beac	-0.23607892
168	0xbe76f5d1	-0.24117209
169	0x3eb1af4b	0.3470405
170	0x3e9e120c	0.30873144
171	0xbead626f	-0.3386416
172	0xbe96655a	-0.293742
173	0x3ea3c589	0.31986645
174	0x3eafa1a9	0.34303024
175	0xbe9ab207	-0.3021395
176	0xbeaf1020	-0.3419199
177	0x3e7c7a84	0.24656111
178	0x3d7282fe	0.059206955
179	0x3e87de02	0.26536566
180	0xbeae0671	-0.3398929
181	0xbebc4472	-0.3677097
182	0x3e9f4030	0.3110366
183	0x3e812919	0.25226668
184	0xbead96b5	-0.33904043
185	0xbe8600c6	-0.26172465
186	0xbe55450d	-0.20827122
187	0x3eb23040	0.34802437
188	0x3ea5a47b	0.3235205
189	0xbe56c240	-0.20972538
190	0xbec0deeb	-0.37670073
191	0xbe9a11ef	-0.30091807
192	0x3d87bf00	0.06628227
193	0xbe91bb4e	-0.28463215
194	0xbe9d3cc2	-0.30710417
195	0xbec661d4	-0.38746512
196	0xbeb12e81	-0.34605792
197	0xbeb93b51	-0.36178067
198	0x3e869b3a	0.26290303
199	0xbe8b1e8a	-0.27171737
200	0x3e927ead	0.2861227
201	0xbeacc9db	-0.33747754
202	0xbe487472	-0.1957567
203	0x3ebe650b	0.37186465
204	0xbea30222	-0.31837565
205	0x3dc290a3	0.095002435
206	0x3ea661a6	0.32496375
207	0xbea34fb6	-0.31896752
208	0x3ec66faa	0.38757068
209	0x3ecb96ee	0.39763588
210	0x3ea60a6c	0.32429826
211	0x3e8fdffc	0.28100574
212	0x3e479398	0.19489896
213	0xbe95f9fd	-0.29292288
214	0xbea64124	-0.32471573
215	0xbeacd00e	-0.33752483
216	0xbe8c43d0	-0.27395487
217	0x3e1a7125	0.15082224
218	0xbe8c999e	-0.2746095
219	0x3e059c36	0.13047871
220	0xbe80d9a7	-0.25166056
221	0xbe34b571	-0.1764734
222	0x3e9c7efc	0.3056563
223	0x3e8fc24c	0.28077924
224	0xbe9fd029	-0.312135
225	0xbe20aba9	-0.15690483
226	0xbea980d0	-0.3310609
227	0x3e916f2d	0.28405133
228	0x3e4d3ec1	0.2004347
229	0xbe911a6d	-0.28340474
230	0x3e624b09	0.22098936
231	0x3eb4e321	0.35329536
232	0xbe39325f	-0.18085621
233	0xbdcafb4c	-0.09911212
234	0x3e45f1cf	0.19330524
235	0xbe71e59a	-0.23622742
236	0xbeafe4e7	-0.34354326
237	0xbec52b7a	-0.38509732
238	0x3e97261c	0.29521263
239	0x3e9754a1	0.29556754
240	0xbe8982f3	-0.2685772
241	0x3ea3f72a	0.3202451
242	0xbeb20d97	-0.34775993
243	0xbea84a74	-0.32869303
244	0xbe9a0db9	-0.30088595
245	0x3eac20a9	0.33618668
246	0x3e9bfd05	0.30466476
247	0xbe98bdcb	-0.298323
248	0x3e685cec	0.22691697
249	0xbe90cf80	-0.2828331
250	0x3ea878ce	0.32904667
251	0xbe9f267f	-0.31084058
252	0x3e9f605b	0.311282
253	0xbe992842	-0.29913527
254	0x3ea5c8bb	0.32379708
255	0xbea4f7b5	-0.32220235

fc2.bias f4 [6]
0	0xbdc1cc60	-0.094628096
1	0x3c232bfe	0.009959219
2	0x3dcef45c	0.101052016
3	0x3e291446	0.1651164
4	0xbb974e1e	-0.0046174666
5	0xbe34e981	-0.176672
