backend/models/category_predictor_model.pth (torch, 258759 bytes, 4 tensors)

fc1.weight f4 [128, 493]
0.20002544 -0.016899899 0.26592416 -0.24379255 0.25844315 -0.26880795 -0.19093123 -0.21125352
-0.28789258 0.29057562 -0.17878932 -0.3094877 -0.17004807 0.19957668 -0.307288 0.270712
0.24013743 0.26892367 -0.033711873 0.23486848 0.2521634 0.22645657 0.23556875 0.13878147
-0.30137816 -0.19864134 0.020937596 -0.24576002 0.1801073 0.25868696 0.26184136 0.1781026
-0.02899209 0.22893418 0.17223087 -0.36220482 -0.036785208 0.2242628 -0.22508036 0.23796283
0.30486968 -0.15485036 -0.13724254 0.22000004 0.27008516 -0.2077051 0.17646636 -0.24179247
-0.17158289 0.16726097 0.28339443 0.27207252 0.28192398 -0.009890273 0.29504108 0.19349776
-0.12108154 0.25321102 -0.14488997 0.27363676 0.3215529 0.20599857 -0.22021814 0.16564798
0.1610165 -0.1834477 0.26073602 0.19456436 -0.18012033 -0.21228628 0.0067430846 -0.38834548
0.30018452 0.27477828 0.31225327 0.29200676 0.22031434 -0.025517343 0.30129975 0.20381798
-0.0058768485 -0.20846641 0.27314815 0.1857752 0.013119839 0.21085922 0.2289345 0.28487992
-0.15310432 -0.1865139 0.16816443 0.23972833 0.13909611 0.2600078 0.32777852 -0.18195109
0.23550431 0.16711308 0.023811381 0.19591887 0.23122725 0.25807306 0.23381421 0.03176712
0.19132423 0.22379467 -0.17743407 0.19482392 -0.21166116 -0.2031631 0.28431886 0.021540206
0.2747333 0.19046259 -0.01612269 -0.27004683 -0.16093318 0.0054675154 0.25517747 0.21589553
0.22487058 -0.18323088 0.23034133 0.019625347 0.27596638 0.23426753 -0.26708508 0.26463184
0.2907828 0.30544856 -0.016176507 -0.1692364 -0.40483272 0.29531893 0.029072132 0.15618104
0.14089908 -0.018513093 -0.020408781 0.027053405 -0.031309057 -0.23356733 0.26127312 0.26683602
-0.09645986 -0.10826684 -0.1347056 0.25052494 0.23954943 0.21359086 0.20953393 0.21872279
-0.15361017 -0.005451519 -0.035376325 0.21622482 0.21912913 -0.18718246 0.21699788 0.3393934
0.36052215 -0.18969262 0.22569302 0.042479027 0.028346185 0.32979998 -0.1856417 0.2546933
0.22727038 0.205999 -0.010751702 -0.13594678 -0.16654634 0.19294287 -0.13265616 -0.19118886
0.2869177 -0.26309547 0.264588 -0.027051285 -0.1506156 0.26281273 -0.19337982 0.2743291
-0.17867291 0.011333905 -0.027666401 -0.031914536 -0.37527546 0.24446128 0.21851593 0.22522648
-0.12935041 0.2933157 -0.21356796 0.36302826 0.25862837 0.29968092 0.30237225 -0.0017683133
-0.10551579 0.1759691 -0.26068935 0.0042322576 0.24886484 0.25147703 0.2599337 0.260197
0.18740071 0.30108085 0.23537877 0.17464466 -0.19081198 -0.24738708 0.28114566 0.014818184
-0.18004872 0.19927402 -0.24275501 0.23978804 -0.24922378 0.21736693 0.28662115 0.2713747
0.17317048 0.27099487 -0.0028204322 0.03559373 0.29557267 0.21457945 0.2902546 0.15344378
0.22671002 -0.31030026 -0.1381245 0.24218282 -0.18327108 -0.035143543 0.26272595 0.18234086
0.22727568 0.21301849 0.06698349 0.2817142 0.30798855 0.011955187 0.2455427 0.2710135
-0.18538092 0.31820935 0.27804467 0.3140256 0.2998763 0.21169542 0.25897315 0.21743374
00000000: 78d3 4c3e a871 8abc 3627 883e c1a4 79be
00000010: a952 843e 32a1 89be 7a83 43be d852 58be
00000020: a866 93be 54c6 943e 8c14 37be 2c75 9ebe
00000030: 1521 2ebe d45d 4c3e da54 9dbe c39a 8a3e
00000040: 96e6 753e 5db0 893e 7615 0abd 5d81 703e
00000050: 901b 813e 3be4 673e ef38 713e bb1c 0e3e
00000060: 3d4e 9abe a368 4bbe 5285 ab3c 84a8 7bbe
00000070: 0c6e 383e 9e72 843e 1210 863e 8760 363e
00000080: d280 edbc b96d 6a3e 4a5d 303e e972 b9be
00000090: 16ac 16bd 26a5 653e 777b 66be 87ac 733e
000000a0: e117 9c3e 1891 1ebe 4f89 0cbe b147 613e
000000b0: 9a48 8a3e a5b0 54be 99b3 343e 7298 77be
000000c0: 6db3 2fbe 7646 2b3e 1319 913e 174d 8b3e
000000d0: 5758 903e d00a 22bc a00f 973e 4724 463e
000000e0: 99f9 f7bd e0a4 813e 095e 14be 1e1a 8c3e
000000f0: 95a2 a43e 4af1 523e dd80 61be a09f 293e
00000100: 82e1 243e b7d9 3bbe 317f 853e e13b 473e
00000110: 7771 38be 9361 59be 18f5 dc3b 38d5 c6be
00000120: c9b1 993e bdaf 8c3e a9df 9f3e e981 953e
00000130: 159a 613e bf09 d1bc f643 9a3e a9b5 503e
00000140: 9492 c0bb 3878 55be 13da 8b3e db3b 3e3e
00000150: 98f4 563c 7beb 573e ce6d 6a3e c8db 913e
00000160: 61c7 1cbe 80fd 3ebe 4c33 2c3e 587b 753e
00000170: 366f 0e3e be1f 853e 96d2 a73e 6351 3abe
00000180: 0b28 713e b11f 2b3e 1610 c33c f59e 483e
00000190: d6c6 6c3e 2722 843e fe6c 6f3e 3d1e 023d
000001a0: 80ea 433e 6e2a 653e 47b1 35be ec7f 473e
000001b0: b4bd 58be fd09 50be 3e92 913e 1675 b03c
000001c0: d8a9 8c3e a008 433e bb13 84bc 9443 8abe
000001d0: abcb 24be d828 b33b 9fa6 823e b813 5d3e
000001e0: 7944 663e e0a0 3bbe 99de 6b3e 56c5 a03c
000001f0: 774b 8d3e d4e3 6f3e 60bf 88be d37d 873e
00000200: 7ce1 943e c163 9c3e 9884 84bc 4f4c 2dbe
00000210: 3c46 cfbe 0b34 973e ae28 ee3c eced 1f3e
00000220: d947 103e c5a8 97bc 5130 a7bc 1a9f dd3c
00000230: ed3d 00bd 462c 6fbe 97c5 853e bb9e 883e
00000240: bf8c c5bd 01bb ddbd 44f0 09be ce44 803e
00000250: 724c 753e 90b7 5a3e 1090 563e def8 5f3e
00000260: fc4b 1dbe a8a2 b2bb c4e6 10bd 0a6a 5d3e
00000270: 6363 603e c2ac 3fbe b134 5e3e f9c4 ad3e
00000280: 5c96 b83e c83e 42be 121c 673e 7dfe 2d3d
00000290: 4236 e83c 8bdb a83e dc18 3ebe 2967 823e
000002a0: 91b9 683e 67f1 523e e827 30bc a235 0bbe
000002b0: 208b 2abe d192 453e 04d7 07be 03c7 43be
000002c0: e0e6 923e 73b4 86be 1478 873e a89a ddbc
000002d0: fa3a 1abe 648f 863e 5c05 46be dd74 8c3e
000002e0: 08f6 36be d8b1 393c a6a4 e2bc d1b8 02bd
000002f0: 1b24 c0be 0f54 7a3e a4c2 5f3e c5a1 663e
00000300: 6f74 04be 7a2d 963e 8fb1 5abe d7de b93e
00000310: f06a 843e c76f 993e 89d0 9a3e c0c6 e7ba
00000320: aa18 d8bd 3e31 343e 1379 85be c0ae 8a3b
00000330: 6dd6 7e3e 99c1 803e 0816 853e 8b38 853e
00000340: f9e5 3f3e 4527 9a3e 2207 713e 0dd6 323e
00000350: 3764 43be 0a53 7dbe 53f2 8f3e f8c7 723c
00000360: b15e 38be 7d0e 4c3e c594 78be ff8a 753e
00000370: 8534 7fbe 7095 5e3e 02c0 923e a0f1 8a3e
00000380: 9a53 313e d7bf 8a3e 00d7 38bb bbca 113d
00000390: 4d55 973e b7ba 5b3e 409c 943e 5e20 1d3e
000003a0: ac26 683e addf 9ebe 8270 0dbe c6fe 773e
000003b0: 6aab 3bbe adf2 0fbd 0484 863e 90b7 3a3e
000003c0: f5ba 683e 8521 5a3e a42e 893d d83c 903e
000003d0: adb0 9d3e b0df 433c 8c6f 7b3e 48c2 8a3e
000003e0: 7fd4 3dbe 56ec a23e df5b 8e3e f7c7 a03e
000003f0: 6389 993e afc6 583e 2198 843e f3a6 5e3e

fc1.bias f4 [128]
0.2097576 0.24223772 0.1968879 0.3060979 0.1418901 0.19845246 0.2357991 0.2191686
0.2980895 0.21634471 0.2406444 0.26280582 0.20088594 0.20011657 0.24627791 0.26015472
0.23974797 0.23058562 0.22246379 0.2193908 0.27942693 0.2575101 0.23566608 0.24935326
0.19229367 0.19728269 0.2725269 0.32615945 0.24093197 0.15725479 0.18917884 0.25583577
0.2893057 0.29446483 0.24407175 0.3274499 0.26151875 0.2290936 0.25849053 0.25704974
0.17252931 0.2359216 0.26406682 0.19075687 0.24551508 0.2737049 0.22739169 0.27531463
0.25728774 0.24733017 0.20685348 0.26133493 0.24944787 0.25044888 0.23156062 0.20785889
-0.09905523 0.29613128 0.24088703 0.19216187 0.25044164 0.25003594 0.22413017 0.23073603
0.20062616 0.32400814 0.26120523 0.27422187 0.23337193 0.22843868 0.15165845 0.24192065
0.22707865 0.27517125 0.16437358 0.28919163 0.24452776 0.22172673 0.25275195 0.18676855
0.19537519 0.2845076 0.20157987 0.22214852 0.26583624 0.26055184 0.22763826 0.16876237
0.24990892 0.24860352 0.25830466 0.22011863 0.22581552 0.25493425 0.24942121 0.25631273
0.19756135 0.29868338 0.2205915 0.27187127 0.23427059 0.29215187 0.2668074 0.26728326
0.20995283 0.25024676 0.2178188 0.2119118 0.26514453 0.27348468 0.20441534 0.28237516
0.24286796 0.2533512 0.27300367 0.2659118 0.27910683 0.27059755 0.19389929 0.21736312
0.23761258 0.2303273 0.24377139 0.26219922 0.28433907 0.21089621 0.19269346 0.2479349
00000000: b2ca 563e 2a0d 783e fb9c 493e ddb8 9c3e
00000010: a34b 113e 1f37 4b3e 5275 713e bc6d 603e
00000020: 309f 983e 7889 5d3e 7c6b 763e 7c8e 863e
00000030: 0bb5 4d3e 5ceb 4c3e 4730 7c3e 0033 853e
00000040: 7e80 753e a31e 6c3e 8ccd 633e fba7 603e
00000050: 0c11 8f3e 5dd8 833e 7352 713e 7656 7f3e
00000060: a2e8 443e 7904 4a3e a588 8b3e 5ffe a63e
00000070: dfb6 763e 6607 213e 19b8 413e e8fc 823e
00000080: e01f 943e 18c4 963e f2ed 793e 83a7 a73e
00000090: c9e5 853e 8397 6a3e df58 843e 069c 833e
000000a0: 86ab 303e 6f95 713e c433 873e c555 433e
000000b0: 4e68 7b3e 0c23 8c3e 5ed9 683e 0af6 8c3e
000000c0: 38bb 833e 1f44 7d3e 66d1 533e b1cd 853e
000000d0: 436f 7f3e d63a 803e 3a1e 6d3e f6d8 543e
000000e0: 78dd cabd 859e 973e 17ab 763e 15c6 443e
000000f0: e339 803e b604 803e 6182 653e 1146 6c3e
00000100: f270 4d3e 65e4 a53e b1bc 853e cf66 8c3e
00000110: 0df9 6e3e d4eb 693e 5a4c 1b3e 0cba 773e
00000120: 4e87 683e 3fe3 8c3e 8c51 283e ed10 943e
00000130: 7c65 7a3e 550c 633e b468 813e 4140 3f3e
00000140: 6f10 483e fbaa 913e f46a 4e3e e77a 633e
00000150: b01b 883e 0d67 853e 011a 693e 0bd0 2c3e
00000160: 20e8 7f3e ec91 7e3e 8240 843e c766 613e
00000170: 2f3c 673e be86 823e 4668 7f3e 6c3b 833e
00000180: 864d 4a3e 07ed 983e bde2 613e b632 8b3e
00000190: a1e4 6f3e ee94 953e fb9a 883e 5ad9 883e
000001a0: e0fd 563e 5820 803e e40b 5f3e 68ff 583e
000001b0: 06c1 873e 2f06 8c3e 4152 513e 7a93 903e
000001c0: 61b2 783e 40b7 813e 23c7 8b3e 9725 883e
000001d0: 17e7 8e3e c38b 8a3e 898d 463e 7094 5e3e
000001e0: b650 733e ebda 6b3e 359f 793e fa3e 863e
000001f0: e494 913e 2df5 573e 6f51 453e a5e2 7d3e

fc2.weight f4 [6, 128]
0.3181404 0.2412889 -0.31798804 0.27570322 -0.3181772 -0.2121247 0.32563266 0.3635382
0.3323968 -0.3751848 0.24503611 -0.28746477 -0.33560216 -0.27755108 -0.34428144 -0.29811338
-0.39693406 -0.27511784 -0.38480175 0.25657114 -0.31612626 -0.2776384 -0.2838383 0.35533333
-0.3389218 0.3374725 0.33036733 -0.2778134 0.26281187 0.28472126 -0.33607742 0.34143203
-0.34361833 0.3145988 0.3100772 0.2551755 -0.30915493 -0.35765192 -0.33646876 0.34834453
-0.34597996 0.3331331 0.27572793 0.33865523 -0.3526085 -0.26323447 -0.34072006 -0.22306938
0.24391286 -0.3325413 0.35674486 -0.3397899 -0.28789568 -0.38691437 -0.2242665 0.34885907
-0.04012019 0.3463767 -0.29429084 -0.3868818 0.25637856 0.21245535 0.19892648 -0.32470402
0.33534682 0.32483447 0.26795888 -0.29358312 -0.30400822 -0.31898695 0.46492738 -0.29189497
-0.33577594 -0.32466748 0.2934141 0.33891463 -0.37356824 0.33172697 -0.32946226 0.35695553
0.32763064 -0.31049666 -0.40601328 -0.32745326 -0.35354367 0.2562479 0.3080558 0.35636362
-0.35414746 0.23727424 0.32804346 -0.27909398 -0.29173192 -0.3615035 0.26455832 -0.2884037
0.30786595 0.31552917 -0.3739364 0.28429353 -0.3861934 0.28663248 -0.30036274 -0.2825075
0.33731282 0.25971752 0.26154014 0.3651531 -0.35132638 -0.28787023 -0.26596224 0.23616979
0.32446375 -0.31388927 0.30404758 -0.30111367 -0.3130652 -0.33380312 -0.36050376 0.32474673
0.3603015 -0.28494117 0.28187674 -0.3119296 0.30322817 0.30657125 0.3080526 -0.31213403
-0.19569911 0.34023994 -0.2884167 0.13663307 -0.49887314 -0.27354342 -0.29154563 -0.29124454
-0.3253894 0.2821478 -0.30462018 -0.30480295 0.09152392 -0.21017052 0.28448722 -0.24275516
0.33281526 -0.30630818 0.36914712 -0.42568865 -0.26777893 0.34973332 0.17571637 0.3251839
-0.26589185 -0.21960762 0.32233757 -0.28071138 -0.14694113 -0.27490774 -0.2560499 -0.3560946
0.35606927 -0.32288253 -0.22616945 0.29342827 -0.2846901 -0.26881263 0.37999827 0.29230663
-0.28785568 -0.26001218 -0.24384338 -0.27697775 0.306381 -0.16400544 -0.32572418 -0.28521508
0.28857827 -0.3454774 -0.1662281 0.15685631 0.026297452 0.24809366 -0.27193537 -0.3038625
-0.014243308 -0.30079436 -0.22128 -0.42493528 -0.309312 0.35356134 -0.3491793 0.25797454
-0.119727 -0.30456704 0.27145973 0.35266298 -0.24775906 -0.3505851 0.22686249 -0.29262137
-0.31801733 0.22172208 -0.3482019 0.2788522 0.31089365 -0.19741249 0.21061946 -0.11420946
-0.31533343 -0.27297562 -0.3466418 -0.34391037 0.35299045 -0.23771974 0.20880432 -0.22312996
0.3424529 0.32517183 -0.27954486 -0.2955421 -0.26694927 0.41159266 0.3099364 -0.31713238
-0.2899604 -0.33117074 -0.23085763 0.33102393 0.24068311 -0.2970487 0.3635872 -0.28938
-0.2316954 0.3344059 -0.24782166 -0.2937729 0.33933675 0.3869676 -0.3213908 -0.29961857
0.3032646 0.27504674 0.32109594 0.33992562 -0.31191587 0.37591407 0.25344786 -0.34488517
-0.3421327 -0.19619709 -0.25720224 -0.310674 -0.2518547 -0.30479982 -0.17883463 0.30670473
00000000: 4ce3 a23e 7014 773e 54cf a2be f928 8d3e
00000010: 1fe8 a2be 3837 59be 53b9 a63e ae21 ba3e
00000020: ea2f aa3e 3918 c0be bfea 7a3e 952e 93be
00000030: 0cd4 abbe 2d1b 8ebe a845 b0be 51a2 98be
00000040: f13a cbbe 3fdc 8cbe bc04 c5be 4b5d 833e
00000050: 4ddb a1be 9f26 8ebe 4153 91be 40ee b53e
00000060: 2887 adbe 32c9 ac3e e825 a93e 8f3d 8ebe
00000070: 478f 863e fcc6 913e 5712 acbe 2ed0 ae3e
00000080: beee afbe 1813 a13e 70c2 9e3e 5da6 823e
00000090: 8e49 9ebe 271e b7be a245 acbe 375a b23e
000000a0: 4924 b1be 6c90 aa3e 362c 8d3e 3864 ad3e
000000b0: 1a89 b4be abc6 86be dc72 aebe 4d6c 64be
000000c0: 4bc4 793e da42 aabe 43a7 b63e f1f8 adbe
000000d0: 1067 93be a419 c6be 1ea6 65be a89d b23e
000000e0: 1155 24bd 4958 b13e 4aad 96be 5f15 c6be
000000f0: 0d44 833e e58d 593e 62b3 4b3e 9b3f a6be
00000100: 94b2 ab3e b450 a63e e831 893e 8750 96be
00000110: f7a6 9bbe 4252 a3be f60a ee3e 4273 95be
00000120: d3ea abbe d13a a6be 5f3a 963e 3886 ad3e
00000130: 5644 bfbe 1ed8 a93e 47af a8be e0c2 b63e
00000140: 34bf a73e 6bf9 9ebe f9e0 cfbe f4a7 a7be
00000150: ad03 b5be ed32 833e 7db9 9d3e 4b75 b63e
00000160: d152 b5be 05f8 723e 50f5 a73e 68e5 8ebe
00000170: e35d 95be fd16 b9be 3074 873e a6a9 93be
00000180: 9ba0 9d3e 0a8d a13e 9874 bfbe ec8e 913e
00000190: 24bb c5be 7ec1 923e 25c9 99be d3a4 90be
000001a0: 44b4 ac3e b2f9 843e 97e8 853e 59f5 ba3e
000001b0: 0de1 b3be ba63 93be 342c 88be 7ed6 713e
000001c0: 1d20 a63e 18b6 a0be 20ac 9b3e 922b 9abe
000001d0: 154a a0be 3ee8 aabe f393 b8be 3445 a63e
000001e0: 7079 b83e cfe3 91be 2652 903e 3db5 9fbe
000001f0: b940 9b3e e8f6 9c3e 12b9 9d3e 08d0 9fbe
00000200: 5965 48be ee33 ae3e 5bab 93be 8ae9 0b3e
00000210: 4d6c ffbe e20d 8cbe 7845 95be 011e 95be
00000220: 7099 a6be ad75 903e 2df7 9bbe 220f 9cbe
00000230: e570 bb3d f136 57be 4fa8 913e cf94 78be
00000240: c366 aa3e 6dd4 9cbe da00 bd3e ddf3 d9be
00000250: 521a 89be 3f10 b33e feee 333e 817e a63e
00000260: fa22 88be d2e0 60be 6e09 a53e 67b9 8fbe
00000270: bc77 16be b5c0 8cbe f918 83be 0852 b6be
00000280: b64e b63e dc50 a5be f798 67be 3b3c 963e
00000290: e7c2 91be cfa1 89be 228f c23e 37a9 953e
000002a0: d261 93be 5120 85be 14b2 79be 07d0 8dbe
000002b0: f8dd 9c3e 0bf1 27be 52c5 a6be b607 92be
000002c0: 88c0 933e 6ae2 b0be b337 2abe f19e 203e
000002d0: c16d d73c 440c 7e3e 1d3b 8bbe de93 9bbe
000002e0: c45c 69bc b801 9abe 3997 62be 1e91 d9be
000002f0: 245e 9ebe fe05 b53e a1c7 b2be 3d15 843e
00000300: 6e33 f5bd 36f0 9bbe c5fc 8a3e 3e90 b43e
00000310: 8db4 7dbe e47f b3be a44e 683e 78d2 95be
00000320: 2bd3 a2be 1d0b 633e 8547 b2be b7c5 8e3e
00000330: 742d 9f3e 8026 4abe a1ac 573e a6e6 e9bd
00000340: 6273 a1be 76c3 8bbe 097b b1be 0515 b0be
00000350: 2abb b43e ce6c 73be cdd0 553e 2e7c 64be
00000360: fd55 af3e ec7c a63e 8120 8fbe 4b51 97be
00000370: 93ad 88be 46bc d23e fcaf 9e3e 2d5f a2be
00000380: b175 94be 368f a9be f165 6cbe f87b a93e
00000390: a275 763e c416 98be 1a28 ba3e 9e29 94be
000003a0: 8f41 6dbe 4037 ab3e f6c4 7dbe 6769 96be
000003b0: 8cbd ad3e 9e20 c63e 568d a4be 9b67 99be
000003c0: 7f45 9b3e edd2 8c3e b066 a43e bb0a ae3e
000003d0: 70b3 9fbe cf77 c03e ebc3 813e ca94 b0be
000003e0: 042c afbe e4e7 48be 03b0 83be aa10 9fbe
000003f0: 19f3 80be b90e 9cbe 6d20 37be 6708 9d3e

fc2.bias f4 [6]
-0.06386323 0.03727804 -0.094181105 0.3503065 -0.07100503 0.08868535
00000000: baca 82bd dcb0 183d 06e2 c0bd 605b b33e
00000010: 166b 91bd aaa0 b53d
