backend/models/category_predictor_model.pth (torch, 295111 bytes, 4 tensors)

fc1.weight f4 [128, 564]
000000 7e 73 d6 bd 3c cf 0d be e3 b3 ae bd 52 d5 70 3e
       -0.10471247 -0.13848585 -0.085304044 0.23518875
000010 de 99 b9 bd c6 c7 e9 bd ed c4 c2 bd 8e f2 8d be
       -0.09062551 -0.11415057 -0.09510217 -0.27724117
000020 54 fc 28 bc 3b 4c 91 3e 70 c6 52 3e ab f5 49 be
       -0.010314066 0.28378472 0.2058351 -0.19722621
000030 51 5c 42 3e 9b 0a 03 bd 1b ed dd 3d c7 3a 35 3e
       0.18980528 -0.031992536 0.1083624 0.17698203
000040 58 3e f0 bd 28 28 0f 3d c2 c0 81 be d8 02 40 be
       -0.11730641 0.034950405 -0.25342375 -0.18751085
000050 68 ff 9b bb 20 aa 8b bd ed 98 9f 3e db 78 bf bd
       -0.0047606714 -0.06819558 0.3117136 -0.09349223
000060 3a 94 89 3c fa c1 05 3d 21 2a b8 3e eb 68 7e 3e
       0.016794313 0.032655694 0.35969642 0.2484471
000070 f0 f1 cf 3c 01 ca e3 bd e4 77 20 3c 35 ee 7f 3e
       0.02538392 -0.111225136 0.009794209 0.24993213
000080 24 2a 70 3e 06 e8 76 3e 15 3b 5c 3e 79 fc 6b 3e
       0.23453575 0.24111947 0.21506913 0.2304553
000090 d7 01 2b 3e d2 66 49 3e d5 c9 cf bd 71 97 85 3e
       0.1669992 0.19668129 -0.10145918 0.26092103
0000a0 ea 92 81 3e 86 d4 91 3c 98 8a 83 3e ec 71 82 3e
       0.253074 0.017801534 0.25691676 0.2547754
0000b0 44 a5 8f 3e 67 bf bb be f6 3f 59 3e 37 96 ea bd
       0.28055775 -0.36669466 0.21215805 -0.114544325
0000c0 ee 4b 2a 3d be 42 20 3e 36 5e 62 3e b3 ec e6 3d
       0.04157632 0.1565046 0.22106251 0.112756155
0000d0 87 bb 58 3e 5e f1 67 be 5e 75 85 3e 33 80 11 be
       0.21165286 -0.22650668 0.26066107 -0.1420906
0000e0 08 72 25 3d fc 10 2c 3e 7c 3a 84 bd eb 04 3f 3e
       0.04039195 0.16803354 -0.064564675 0.1865422
0000f0 59 57 75 3e a5 b2 91 3e a6 9a 87 be d3 f3 92 3e
       0.23959102 0.28456607 -0.26485175 0.28701648
000100 9a 34 a2 bd fd e2 e8 3d 2d 85 99 3e 1d e3 61 3e
       -0.07920189 0.113714196 0.29984418 0.22059293
000110 34 04 9a 3e cc ae 20 bd d3 7f 67 be cb ba 2a be
       0.30081332 -0.0392292 -0.22607355 -0.16672818
000120 2e 89 b3 bd 05 35 6e 3e 59 32 8a 3e 70 50 18 be
       -0.08766399 0.23262413 0.26991537 -0.14874434
000130 b1 2a 57 3e 67 4b 9b 3e d2 3e 84 3e f2 6e 18 be
       0.21012379 0.30330965 0.25829178 -0.14886072
000140 79 fb fa bd 94 57 27 be d8 f4 84 3e 3f c1 74 3e
       -0.12254996 -0.16342002 0.2596805 0.23901843
000150 f0 34 6c 3e 52 5a 92 3e 42 de b2 bc b1 16 80 3e
       0.23067069 0.28584534 -0.021834496 0.25017312
000160 35 bb 98 3e 1f 67 b9 be 1c 29 81 3e 23 fa 9b be
       0.29830328 -0.36211488 0.25226676 -0.30464277
000170 ba 4b 7c 3e 60 e1 20 be 3b 39 74 3e b1 bb be be
       0.24638262 -0.15710974 0.23849957 -0.37252572
000180 d4 c1 5e 3e 22 02 5b bd e9 da 3e 3e 03 e8 5d 3e
       0.21753627 -0.05346883 0.18638195 0.21670537
000190 37 05 4b 3e 9a c7 2e be 2f 42 fc bd 24 ac 75 3e
       0.19826208 -0.1706833 -0.12317311 0.23991448
0001a0 a9 79 45 be 78 36 80 bd e4 fc 84 3c e8 b6 57 3e
       -0.19284691 -0.06260389 0.016233869 0.21065867
0001b0 0b ca 4a 3e 57 04 73 be cf e3 ba bc d0 58 5e 3e
       0.19803636 -0.23732124 -0.022813706 0.21713567
0001c0 1e a2 87 bd 3d fc 56 3e 22 62 06 be a6 a0 6f be
       -0.06622718 0.20994659 -0.13123372 -0.23401126
0001d0 a7 61 e4 bd 16 60 df bd 02 c7 d5 bd 91 d9 3d 3e
       -0.11151438 -0.10906999 -0.10438348 0.18540026
0001e0 1c e0 12 be 60 95 19 be 9f 6f 31 be 42 8e 1a be
       -0.14343303 -0.14998388 -0.17327736 -0.1509333
0001f0 93 c3 8b bd a0 2c d6 bb 72 84 09 bd e8 b6 8e 3e
       -0.06824412 -0.0065360814 -0.033573575 0.2787392
000200 ab 3a 69 3e 35 f3 76 3e a3 7b 4b be 40 c6 db bd
       0.22776286 0.24116214 -0.19871382 -0.107311726
000210 df 26 bc bd 3f 58 6b be 1d 32 04 bd 12 a6 8f 3e
       -0.091871016 -0.22982882 -0.032274354 0.2805639
000220 43 ee 70 3e 79 4d 27 3e 28 98 bc bd 9b 08 42 3e
       0.2352839 0.16338147 -0.09208709 0.18948595
000230 9c a5 5d 3c 36 99 98 3e cf 2a bf 3e e9 96 54 be
       0.013528254 0.2980439 0.37337348 -0.20760693
000240 12 29 05 bd fe 3b 8d 3e 07 83 4b 3e 03 c3 7e 3e
       -0.03250987 0.27584833 0.19874202 0.24879079
000250 90 1f 29 bd f1 69 21 be d3 99 96 bc 72 a8 94 bc
       -0.041289866 -0.1576307 -0.018383896 -0.018146727
000260 67 2d cd bc 40 f4 a7 3c 30 2c 50 bb cf 69 c5 bd
       -0.025046064 0.02050221 -0.003176462 -0.09639322
000270 fb ab 87 3e 7c bd 99 be 21 d1 83 3e ec 20 ed bd
       0.26498398 -0.30027378 0.2574549 -0.11578545
000280 5e a7 d9 3d b1 1b 0a be 60 46 2b 3e 6c 32 0b be
       0.10627626 -0.13487126 0.16726065 -0.13593453
000290 ee 74 4e 3e de 07 fb 3d 60 7c 93 bb 00 10 3f 39
       0.20161793 0.1225736 -0.0045009106 0.0001822114
0002a0 b1 bb 84 3e f9 80 4b 3e 7f 2b 7d 3e 12 14 94 bc
       0.25924447 0.19873418 0.24723624 -0.018075977
0002b0 72 97 1d bd f6 a9 e7 bc c1 42 6f be 1c 81 1f 3d
       -0.038474508 -0.028279286 -0.23365308 0.038941488
0002c0 22 1e 19 be 1c 2b 84 3e db ba 99 3e ca 31 a0 3c
       -0.14952901 0.2581414 0.30025372 0.019554991
0002d0 19 d8 0d bd 68 80 83 3b 96 58 34 3d ff b0 b4 be
       -0.034629915 0.00401311 0.044029795 -0.35291287
0002e0 e8 0e b4 bd a8 d1 0b be 27 c7 6d be 56 c6 90 bd
       -0.08791906 -0.13654196 -0.23220502 -0.070690796
0002f0 f1 bc 9e bd 50 5c 87 bd 73 19 67 be 15 93 26 be
       -0.077508815 -0.06609404 -0.22568302 -0.16267045
000300 dd 61 1a 3e 00 00 49 3b d7 95 56 3e 0d 22 72 bd
       0.15076394 0.0030670166 0.20955597 -0.059114505
000310 ff 39 95 bd 71 79 6c be e8 ee 84 3e 44 1d 0a be
       -0.072864525 -0.23093201 0.2596352 -0.13487726
000320 95 60 51 3e 17 1d 68 3d 1c 09 8b 3e 01 c7 56 3e
       0.20447 0.056668367 0.27155387 0.20974351
000330 b0 1c 8a 3d c3 d3 02 be 92 e8 88 be 53 c7 2a be
       0.06743753 -0.12776093 -0.26739937 -0.16677599
000340 37 11 92 3e 52 51 93 3c 7a d2 9a 3e 7f 36 a3 be
       0.2852876 0.017983112 0.30238706 -0.31877515
000350 53 9e 49 bd 12 8f 08 bd 2b c0 95 3e 21 9c b9 bc
       -0.049223255 -0.033339567 0.29248175 -0.022657456
000360 c2 2c a2 3e 8d 52 8d be ad b3 8d 3e ab fe 68 3e
       0.31674773 -0.27602044 0.27676144 0.22753398
000370 d1 e0 be 3e ab 94 ab be b8 5e 24 be aa a5 37 be
       0.37280896 -0.33511862 -0.16051757 -0.1793429
000380 f0 5b 3a 3b f0 ef db be 3a e9 03 be 5b 1a 05 3e
       0.0028436147 -0.42956495 -0.12881938 0.12998335
000390 1a 80 d1 bd c8 db 68 3e ff 05 57 3e 19 5a 76 be
       -0.102295116 0.2274009 0.20998381 -0.24057807
0003a0 aa 2b 8a 3e 7c c0 4e 3c 3c 84 4a be 4c 62 10 bc
       0.26986438 0.012619134 -0.19777006 -0.008812498
0003b0 6d f6 94 3e e0 69 77 3e 17 62 04 be ef b9 86 be
       0.29094258 0.24161482 -0.12928043 -0.2631373
0003c0 36 f4 4a 3e 99 3c 30 3e f8 eb ca bd 74 f4 bb 3c
       0.19819722 0.17210616 -0.09908289 0.022943713
0003d0 44 14 54 be b5 20 81 be 9a eb 3d be 48 fd 84 3e
       -0.20710856 -0.25220266 -0.18546906 0.25974488
0003e0 a9 53 67 be 96 7f 7e 3e 30 2e 2f be 99 07 c5 bd
       -0.22590508 0.24853358 -0.17107463 -0.0962059
0003f0 8a 22 36 3e 33 e9 3c be a6 90 55 bc 04 12 48 be
       0.17786613 -0.18448333 -0.013034975 -0.19538122

fc1.bias f4 [128]
000000 c7 2a 73 3e 9d c1 8e 3e 9f d6 95 3e 7f 74 93 3e
       0.23746787 0.2788209 0.29265305 0.28799817
000010 3c 1a 85 3e 59 f9 9a 3e 4c 6a 92 3e be 17 58 3e
       0.25996578 0.30268362 0.28596723 0.21102807
000020 29 58 81 3e 76 32 45 3e e4 10 80 3e 3e bd 8a 3e
       0.25262573 0.1925753 0.25012887 0.27097505
000030 6c 2e 4a 3e dd 5f 78 3e bc f1 70 3e 21 d7 56 3e
       0.19744271 0.24255319 0.23529714 0.20980503
000040 ee 69 60 3e ad ec 77 3e 26 b1 90 3e 4c 53 63 3e
       0.21915409 0.24211378 0.28260154 0.22199744
000050 d6 b9 8f 3e a0 22 62 3e 1c 33 62 3e dc a8 8a 3e
       0.2807147 0.22083521 0.22089809 0.27081954
000060 6b 83 5c 3e 90 d0 81 3e 1d 01 66 3e 02 c4 4b 3e
       0.21534507 0.25354433 0.22461362 0.1989899
000070 19 6d 9d 3e 58 81 5d 3e f1 85 70 3e 28 80 54 3e
       0.30747297 0.21631372 0.23488595 0.20752013
000080 33 be 75 3e be 83 5e 3e 04 9f 2d 3e 3b b7 7a 3e
       0.23998336 0.21729943 0.16955191 0.2448396
000090 10 18 92 3e 7b fa 94 3e b8 b6 74 3e 4e fe 7b 3e
       0.28533983 0.2909735 0.23897827 0.24608728
0000a0 9b 68 8a 3e 74 8b 72 3e 85 7a 4b 3e 6e e2 8b 3e
       0.27032933 0.2368601 0.19870956 0.2732119
0000b0 2c 54 61 3e c1 18 7c 3e 5e 64 91 3e fa 70 69 3e
       0.22004765 0.24618818 0.28396887 0.22797003
0000c0 b3 56 72 3e a0 f6 6a 3e 2f f3 6d 3e ce bd 5d 3e
       0.23665886 0.22945642 0.23237298 0.21654436
0000d0 c7 00 8c 3e 6c 30 3b 3e 95 f4 6a 3e c6 e6 44 3e
       0.27344343 0.1828019 0.22944863 0.19228658
0000e0 14 f1 76 3e d4 88 90 3e cc 7f 8e 3e 9f f7 81 3e
       0.24115402 0.28229392 0.27831876 0.25384232
0000f0 f6 eb 55 3e 43 e6 57 3e 0e 48 7d 3e e2 b7 83 3e
       0.20890793 0.21083932 0.24734518 0.2572623
000100 30 28 76 3e cf bd 8e 3e 33 80 92 3e 01 ba 68 3e
       0.24038768 0.27879187 0.28613433 0.22727205
000110 f3 63 72 3e ef 81 5a 3e 98 79 93 3e 9b d4 91 3e
       0.2367094 0.21338628 0.28803706 0.28482518
000120 80 d9 8f 3e 31 a5 4a 3e 9e 3e 7a 3e 29 19 80 3e
       0.28095627 0.19789578 0.24437949 0.25019196
000130 56 9e 79 3e 04 d3 5e 3e 5a 88 3a 3e 53 33 72 3e
       0.24376807 0.21760184 0.18216076 0.23652391
000140 8e 18 7b 3e 60 69 8e 3e eb 7e 66 3e 71 45 67 3e
       0.24521086 0.2781477 0.22509353 0.22585084
000150 c4 8e 99 3e af b8 56 3e b6 3f 7b 3e 88 dd 96 3e
       0.29991734 0.20968889 0.24536023 0.2946589
000160 9a e8 c7 3e 0f 33 7f 3e 0f e2 3d 3e 4e 24 82 3e
       0.39044648 0.24921821 0.18543266 0.25418323
000170 a7 ad 54 3e 89 a9 80 3e 51 4f 87 3e a5 1f 78 3e
       0.20769368 0.25129345 0.264277 0.24230821
000180 b0 1e 60 3e f4 49 47 3e ca 6b 4f 3e aa 11 95 3e
       0.21886706 0.19461805 0.20255962 0.2911504
000190 87 1f 76 3e fc 8b 6c 3e 6c 46 6d 3e 4e b9 5a 3e
       0.24035464 0.23100275 0.23171395 0.2135975
0001a0 4d 8f 76 3e 10 92 7f 3e 50 2e 8f 3e be 07 87 3e
       0.24078102 0.24958062 0.2796502 0.26373094
0001b0 20 cf 8a 3e a5 e0 5f 3e 6f e0 64 3e 91 80 64 3e
       0.2711115 0.21863039 0.2235124 0.22314669
0001c0 5d 44 7e 3e 86 fc 97 3e b1 3d 7d 3e f5 87 76 3e
       0.24830766 0.29684848 0.24730565 0.24075301
0001d0 74 7c 79 3e 01 bf 99 3e a7 5e 66 3e 1e 51 59 3e
       0.24363881 0.30028537 0.22497045 0.2122235
0001e0 81 b5 6f 3e b1 67 7d 3e 0a b1 79 3e b7 2f 69 3e
       0.23409082 0.24746586 0.24383941 0.22772108
0001f0 0a d2 92 3e f1 1c 8d 3e bf 8c 8a 3e 0f ef 66 3e
       0.28675872 0.27561143 0.27060506 0.22552131

fc2.weight f4 [6, 128]
000000 90 14 ad be 68 75 a6 3e 04 3b 93 3e 16 dd 97 3e
       -0.3380475 0.3251145 0.28755963 0.29660863
000010 c3 b8 8c be 9b ac a2 be b4 27 84 be b3 1e 94 be
       -0.27484712 -0.31772313 -0.2581154 -0.28929672
000020 a0 55 b8 3e 17 7e b8 be d3 21 62 be 98 7c 94 be
       0.36002827 -0.360337 -0.22083215 -0.29001307
000030 8f 53 a6 be ea d2 bf 3e bf bf b0 be 2c c4 b5 be
       -0.32485625 0.37465602 -0.3452129 -0.3550123
000040 ba 32 a5 be ae 62 8e be 08 e5 87 be 6a 3f 8e 3e
       -0.32265264 -0.27809662 -0.26541924 0.27782756
000050 df c0 b0 3e 43 e1 9a be 1c 7d ac be 25 36 af 3e
       0.3452215 -0.30249986 -0.336892 0.34220996
000060 f7 11 9c be ee a3 86 be ed ea b9 be 10 00 ae 3e
       -0.30482456 -0.26296943 -0.36312047 0.33984423
000070 fd f6 8b be 86 3d b1 3e 2f 34 8d 3e 6f 50 9a be
       -0.27336875 0.3461725 0.27578875 -0.3013949
000080 e5 74 9c be ae ca 8b be 54 0f 9c be 56 be 78 be
       -0.30557933 -0.2730307 -0.30480444 -0.24291357
000090 f9 1d 91 be ad 00 96 3e cc 50 b8 be 28 30 77 3e
       -0.2834318 0.2929739 -0.35999143 0.24139464
0000a0 e9 37 96 be 04 2c a3 be 61 61 b2 be 15 27 a2 be
       -0.2933953 -0.3186952 -0.3483992 -0.31670442
0000b0 d5 9a 83 be 29 e4 ac 3e 43 ef 8e 3e d4 df 9a be
       -0.25704065 0.33767822 0.27916917 -0.30248892
0000c0 ad ec 83 3e 7a eb 2e 3e d9 24 b2 3e ff a1 89 3e
       0.25766507 0.17082015 0.34793738 0.26881406
0000d0 1e 42 9b be ae de d1 3e 5a 3f bf 3e c8 37 8f be
       -0.3032388 0.40990204 0.3735302 -0.27972245
0000e0 d4 86 82 be f2 81 a7 3e 72 39 af be c3 0f 82 be
       -0.2549349 0.32716328 -0.34223515 -0.2540265
0000f0 dc 57 a1 be 01 66 cb be 5f ab b2 be 97 2c 8b 3e
       -0.31512344 -0.3972626 -0.3489637 0.27182457
000100 be 91 a9 3e b6 5f 9d 3e 3c 31 8e be 67 0f 8d 3e
       0.33119005 0.30737084 -0.27771938 0.27550814
000110 cb 39 9d be d6 8e 8b 3e 8e cf a3 3e 6e bd 98 3e
       -0.30708155 0.27257413 0.3199429 0.29832023
000120 8e db a3 3e 0c 99 b2 be fc 4e a8 3e 0e 39 97 3e
       0.32003444 -0.3488239 0.3287276 0.29535717
000130 da 19 85 be e6 99 85 be 83 4f 6c be e2 82 8d be
       -0.25996286 -0.26093978 -0.23077206 -0.27638918
000140 a0 6b 97 be 81 e2 77 be 7d e0 a8 3e 6c 71 94 be
       -0.295743 -0.24207498 0.3298377 -0.28992784
000150 53 93 ba 3e 4f 26 a9 be 42 c1 7b be fe e4 98 be
       0.36440524 -0.3303704 -0.24585441 -0.29862207
000160 8e 9e ae bf 7c d7 5b be 14 95 a0 be 55 fd 9f be
       -1.3642137 -0.2146892 -0.31363738 -0.31247965
000170 8f 95 8b be 44 dd 8f be 2d 43 a6 3e 03 f7 b0 3e
       -0.27262542 -0.280985 0.32473126 0.34563455
000180 f1 af 90 be 06 f9 e0 3e 46 59 a3 be 4d c3 95 be
       -0.28259233 0.4393999 -0.31904048 -0.29250565
000190 e8 ac 82 be 37 ee 89 3e 04 1d 9e 3e c7 13 a7 be
       -0.25522542 0.26939556 0.30881512 -0.32632276
0001a0 0c 35 93 be aa 77 b4 be 23 d9 80 be a3 1a b0 3e
       -0.2875141 -0.35247546 -0.25165662 0.34395322
0001b0 ae 1a a0 be 4d 85 a5 3e 33 ff a0 be 04 fd b3 3e
       -0.31270355 0.32328263 -0.31444702 0.35153973
0001c0 1b 5c 98 3e 7d 68 87 be d4 90 98 be bd 65 95 be
       0.2975777 -0.26446906 -0.29797995 -0.29179183
0001d0 cd 35 aa be e2 48 9a 3e 6e cd ae be d1 42 a4 3e
       -0.33244172 0.3013373 -0.34141105 0.32082227
0001e0 d9 aa b0 3e 52 bc b2 be 03 78 af be eb 2f a5 3e
       0.34505346 -0.34909302 -0.3427125 0.3226312
0001f0 6e e2 ad be 99 90 b2 3e 15 c6 ab 3e 4d 37 70 be
       -0.33961815 0.34875944 0.33549562 -0.23458596
000200 bd b3 9c 3e 92 fc 84 3e 1f 10 b0 3e 5c fa 9a be
       0.3060588 0.25973946 0.343873 -0.30269134
000210 53 1e a6 3e 04 eb b6 be fa 2e b9 3e 28 cb bd be
       0.3244501 -0.35726178 0.36168653 -0.37069058
000220 31 27 8a be 49 19 b7 3e 85 b9 bd 3e 72 c3 9f be
       -0.26983026 0.3576148 0.37055603 -0.312038
000230 d2 26 a8 be f5 76 6b be 2f 4b 70 3e 5e cb bc be
       -0.32842118 -0.22994597 0.2346618 -0.36873907
000240 d9 be 82 be eb ff 8d 3e 3a f2 b5 be 8a 61 a0 be
       -0.2553623 0.27734312 -0.35536367 -0.31324416
000250 be 9a 7b be 38 15 a2 3e 7a 9a 9d 3e a7 02 b9 be
       -0.24570748 0.31656814 0.3078192 -0.36134836
000260 5c b8 d0 3e 5d a0 a6 be e4 13 b5 be 62 0a 8c 3e
       0.40765655 -0.32544222 -0.35366738 0.2735167
000270 c4 f5 95 3e 5a 93 99 be 2c cd 96 3e a9 3e b9 be
       0.29289067 -0.29995233 0.2945341 -0.36180618
000280 f0 26 7b 3e 54 4d 9f be 63 5b 93 be c8 74 89 be
       0.24526572 -0.31113684 -0.2878066 -0.2684691
000290 8d 2d b5 be 95 2b 80 3e 05 c5 96 be dc 29 9e be
       -0.35386315 0.2503325 -0.2944719 -0.3089131
0002a0 25 fc 95 be 70 b4 86 3e 0b f0 af be 6c 96 8c 3e
       -0.29293934 0.26309538 -0.34362826 0.27458513
0002b0 c6 8c a6 3e 8f 72 92 be 4a eb a4 be 34 bb 76 3e
       0.32529277 -0.28603026 -0.3221076 0.2409485
0002c0 7b cb a5 be 2a 12 a2 be d5 af 84 be fe d8 93 be
       -0.32381806 -0.31654483 -0.259154 -0.2887649
0002d0 17 ab 8f be d0 0f b6 be 68 af c0 be 9b b9 a8 3e
       -0.2806022 -0.3555894 -0.37633824 0.32954106
0002e0 df 17 aa 3e 7b 3e 94 3e 93 4b 9a 3e c2 37 ac 3e
       0.33221337 0.2895392 0.30135784 0.3363629
0002f0 10 15 b6 3e be 7e aa be 83 c1 9f 3e 92 99 9a 3e
       0.35562944 -0.33299822 0.31202325 0.3019529
000300 34 31 94 be ea dd a1 be 66 0a 77 3e 3b 3c c4 3e
       -0.2894379 -0.3161462 0.2412506 0.38327202
000310 06 41 89 be 6b b9 aa be a3 c2 b6 be 19 9e b3 be
       -0.2680742 -0.33344588 -0.3569537 -0.35081556
000320 77 da 95 3e 08 60 8e 3e 33 22 b1 be 6f fa 7f 3e
       0.29268238 0.2780764 -0.34596404 0.24997877
000330 a3 0d 9a be ef f8 a6 be 73 1f 97 be 1d 90 a2 3e
       -0.3008853 -0.32611796 -0.2951618 0.31750575
000340 c1 d1 b4 3e 6f 2a 9c 3e e7 9d a6 be 24 50 b7 be
       0.3531628 0.30501124 -0.32542345 -0.3580333
000350 42 c2 ae 3e 32 89 b0 3e db b2 ab 3e 03 ad 96 3e
       0.34132582 0.34479672 0.33534893 0.29428872
000360 2c 95 23 bf ee 74 9d 3e cb eb b7 be f3 c3 a8 be
       -0.63899493 0.30753273 -0.35922083 -0.32961997
000370 0b 09 a4 3e 2b 04 97 3e 3d 88 94 be a6 c1 8e 3e
       0.3203815 0.29495367 -0.29010192 0.27882117
000380 28 f7 a8 3e 8e 56 b1 3e 6d 14 8a be ab ac 95 3e
       0.33001065 0.34636348 -0.2696871 0.29233298
000390 6f 80 9d 3e 32 5d 9a be 14 7b 9b be 24 66 bf 3e
       0.3076205 -0.30149227 -0.3036734 0.37382615
0003a0 8f 5b b5 3e f6 ea bf be 8b e6 aa 3e 48 ee b3 3e
       0.35421416 -0.37483948 0.33379015 0.35142732
0003b0 90 13 ac be cf 2e b9 be 61 97 95 be a3 63 ba be
       -0.33608675 -0.36168525 -0.29217055 -0.36404142
0003c0 4d b8 94 be 61 05 63 be ee 94 a4 3e a9 2d 8c be
       -0.2904686 -0.2217002 0.32144874 -0.27378586
0003d0 6a 81 90 3e 6d d4 af be 73 5e ba 3e 6e 0a b9 3e
       0.28223735 -0.34341756 0.36400184 0.3614077
0003e0 5b 18 b3 be 5d e4 a2 3e d3 77 54 3e 72 af a5 be
       -0.3497952 0.31814852 0.20748834 -0.32360417
0003f0 4f 59 a4 3e 8b bd 80 3e 85 0b a2 be ea 7b af 3e
       0.32099387 0.2514461 -0.31649414 0.34274226

fc2.bias f4 [6]
000000 5a 9d 39 3e 52 0d cd 3d e0 8d f0 3b d4 93 89 bd
       0.18126431 0.10012306 0.0073411316 -0.06717649
000010 b3 22 85 be b3 2d 52 be
       -0.26003036 -0.20525245
