backend/models/expense_predictor_model.pth (torch, 9813 bytes, 6 tensors)

lstm.weight_ih_l0 f4 [64, 6]
00000000: f50e d63d 9876 103f ff4c 2ebe 7170 ab3d
00000010: 9eb9 aebe b836 9f3f efa6 ad3d 8ed0 04bf
00000020: ecbe e93e 32dc 5a3e 7ae4 ed3e b614 f63e
00000030: 1029 88bf 96a8 143f 07e7 993d 505c e3bd
00000040: e886 b73e 7c05 72be 3d32 763f 391b 713f
00000050: 5f64 513d 2cc7 be3e a25b 713f a991 bdbd
00000060: e694 1d3f 1956 33bf e0ff d4be c889 0e3f
00000070: 78ad ebbe 489e 9f3d fd0a c6be 00ee c5bd
00000080: 412d ce3f 4093 8f3f 19bb a63e bc04 4e3f
00000090: daeb 0c3f be63 26bf 9e01 373f b289 a4bf
000000a0: 8c0b be3d b070 373f 472a d9be b600 30be
000000b0: af18 7d3a 1e27 473f 3c64 133f e09c 8b3e
000000c0: a08e ae3d a7cd 0d3f 39ad 853e c7db 76bf
000000d0: dc6a edbe 3bf7 47bf 91cc 4f3e 4f61 37bf
000000e0: d34c 793e 286f 283c b1a8 ae3e f893 263f
000000f0: ad4b 1d3e 354b af3f 318a 48be 481b 243f
00000100: 3f8e 173f 9e36 26bf 352a 1e3f 7279 c13e
00000110: c238 8ebf a173 e93d 1e92 07bd e8ca 883e
00000120: 4f62 733f f83c 53bf aba1 bc3e 410b e33e
00000130: d662 2d3f e204 7dbf 2cc5 7e3f aa36 05bf
00000140: 9a89 223d d31f 95be 36de 25be b3a3 c4be
00000150: b948 a93f 6dce cebe ebbb 703d 3ba1 553f
00000160: 7586 023e cb38 393f 79b9 23bf 6f28 543f
00000170: fbf0 1e3e a5cd 85bf 7c86 c9bf 5626 76be
00000180: 267d d7bd b33a 4ebf 3fe1 3abb c24f 74bf
00000190: fd0f 543f e64f d23e 3d7a 75bf 8709 2bbf
000001a0: 5e0d f3bb b5c2 37bf 72d4 2d3f b1c8 383d
000001b0: 3947 a1bf a3c8 5c3f e6d0 113f 50cb 263f
000001c0: 12b1 053f cb12 e1be 17bd 163f 1768 dd3e
000001d0: 4bc0 0c3f 9378 39bf c3d0 cf3e 24b4 cbbe
000001e0: 3c7e f3be 8380 1dbf 3faf 793e 97f3 1e3f
000001f0: e463 203f 065e 4d3e 5b7d 00be bac5 a8be
00000200: e89e 603f c61a 92be 8a7d 8ebd 94be e6be
00000210: 289d 923e 7293 c23d a8b6 97be 791c 163f
00000220: 9766 50bf 16f4 ae3f 57b8 36bf c519 9b3e
00000230: ec7f 203f 4978 2c3f 4baa c33e 4892 08bf
00000240: 8166 3d3e facf 8fbc 46ff 52bf 6ced e8be
00000250: 3230 c5be e781 8c3e 07a8 4c3f 03f4 4bbe
00000260: 8772 f0be 65a4 6b3f afab 8c3e b6eb c2be
00000270: 6a7c 443e ace4 833f a3e4 e33d 8627 53be
00000280: 0d3d df3e a5fa 6ebf 97c0 983e ddee f43e
00000290: 8db2 acbe 571e 473f de34 b63e b7c2 613f
000002a0: 5923 63bf ff2a 75be 3661 883f 4af6 bebf
000002b0: c493 aa3e 13f8 88bf 518f b73f 46a6 e93e
000002c0: da38 363f 46a3 9bbf a232 45bf cbf1 3c3f
000002d0: be62 a43e d212 d6be 4d00 9cbe 267e 4d3e
000002e0: c7cf bc3e f1ad 563e a1ba 8fbf 4b22 193f
000002f0: e343 043f b56b acbf da02 1b3f c1b2 ccbe
00000300: cb9f 653e 9576 47bf f5a3 39bd a6cf 50be
00000310: c985 dabe 274c 73bf eb55 74be a4e2 4c3f
00000320: 86b8 9bbe 3ecc 50be c3c4 98be 3716 983e
00000330: 4abd 133b d17f 0f3f 83dd 10bf d156 ffbd
00000340: 2b6d a4be 7345 6bbf 96ac a13f b1b4 18be
00000350: 5514 16bf 0ea0 b33e 2096 babe 629c e63e
00000360: f9d9 ddbd d668 8d3f e45f 7a3f 7e6c 803e
00000370: 98a1 b1be 3e00 ce3e 485c b23e 5821 85be
00000380: 013e 8c3f 952e ca3e e6e9 e7bd ad8b 8f3e
00000390: 18ff 09be bfef 283f 2375 9a3e 00ce e73e
000003a0: 5f6d ee3d 2403 28bf 16b9 9a3e cd35 ad3e
000003b0: f4f8 c83d 7d28 763e eb71 4d3e dfd2 d63e
000003c0: 7585 48bf 5af5 533d b0c0 d8bd 619e 30bd
000003d0: 0583 293f 26c2 b9be 1e08 c83b 5b77 4a3f
000003e0: 00c7 253e 2c4e 0a3f 606b 10be aee3 d7be
000003f0: 090c a13e 023d bd3e ef8c 623c 3131 0a3e
0.104520716 0.5643096 -0.17021559 0.08371056 -0.3412599 1.2438574 0.08479106 -0.5188073
0.45653474 0.2137306 0.46463376 0.48062676 -1.0637531 0.5806974 0.07514768 -0.111015916
0.35845113 -0.23634905 0.9617041 0.94182163 0.051121112 0.3726133 0.94280446 -0.09256298
0.61555326 -0.7005325 -0.41601467 0.5567899 -0.46030784 0.07793862 -0.38680258 -0.096645355
1.610756 1.1216812 0.3256462 0.80475974 0.5504738 -0.64995944 0.7148684 -1.2854521
0.09279546 0.7165632 -0.42415068 -0.17187771 0.0009654862 0.77794063 0.5757482 0.27268124
0.08523297 0.55391926 0.2610872 -0.96429104 -0.4637059 -0.7811162 0.2029288 -0.71632856
0.24345712 0.010280408 0.34113076 0.6506953 0.153609 1.3694826 -0.19583966 0.6410413
0.59201425 -0.6492709 0.6178315 0.37787968 -1.1111071 0.113990076 -0.033098333 0.26717305
0.9507188 -0.82514906 0.36842093 0.44344524 0.67728937 -0.98835576 0.9951961 -0.52036536
0.03968201 -0.29125842 -0.16198048 -0.38406143 1.3225318 -0.40391865 0.058772963 0.83449143
0.12746604 0.72352284 -0.63954884 0.82874197 0.15521614 -1.0453383 -1.5744166 -0.24038061
-0.10521917 -0.8055832 -0.0028515605 -0.954342 0.82836896 0.41076583 -0.95889646 -0.6681141
-0.007417365 -0.71781474 0.6790229 0.04511327 -1.259986 0.8624365 0.5695938 0.6515398
0.5222331 -0.4395965 0.5888228 0.43243477 0.54980916 -0.72449607 0.4058896 -0.39785874
-0.47557247 -0.6152422 0.24383257 0.6209044 0.6265242 0.20055398 -0.1254782 -0.32963353
0.8774247 -0.28536052 -0.069575384 -0.45067275 0.28635526 0.09500779 -0.29631543 0.58637196
-0.8140654 1.3668239 -0.7137503 0.30293098 0.62695193 0.6737104 0.3821586 -0.5334821
0.18496133 -0.017555226 -0.82420766 -0.4549364 -0.38513333 0.27442858 0.7994389 -0.19917302
-0.46962377 0.9204772 0.27474734 -0.38070458 0.19188085 1.030416 0.11127593 -0.20620546
0.43601266 -0.93351203 0.29834434 0.47838488 -0.33729973 0.7778067 0.3558721 0.88187736
-0.8872581 -0.23942183 1.0654666 -1.4918911 0.3331586 -1.0700706 1.4340612 0.4563467
0.711805 -1.2159202 -0.77030385 0.73806447 0.32106584 -0.41811234 -0.3046898 0.20067653
0.36877272 0.20964791 -1.122883 0.5981795 0.51666087 -1.347037 0.60551226 -0.39980128
0.22424237 -0.77915317 -0.045322377 -0.20391712 -0.42680195 -0.95038074 -0.238609 0.80033326
-0.30414218 -0.20390412 -0.29837617 0.2970445 0.0022543245 0.5605441 -0.56588 -0.12467731
-0.3211454 -0.91902846 1.2630794 -0.14912678 -0.58624774 0.3508305 -0.3644266 0.45041186
-0.108325906 1.1047618 0.9780257 0.25082773 -0.346936 0.4023456 0.3483603 -0.26002002
1.0956422 0.39488664 -0.113239095 0.28036252 -0.13476217 0.65990824 0.30167493 0.45274353
0.11641955 -0.6562979 0.30219334 0.3383011 0.09813109 0.24038883 0.20062988 0.41957757
-0.7832864 0.051747657 -0.10583627 -0.043119792 0.66215545 -0.36280936 0.0061044833 0.7908837
0.16189194 0.5402553 -0.1410346 -0.42165893 0.31454495 0.36960608 0.0138275465 0.13495328

lstm.weight_hh_l0 f4 [64, 16]
00000000: 8b6b 1b3f 94ee 473f 30df 8a3d 25bf 8fbe
00000010: a489 f8bd 1eaa c7be 508f e7bd fbd5 16bf
00000020: c9b2 bfbf 452c 4f3f e1e4 863d dc78 ae3e
00000030: 3f19 40be d978 c0bf b707 a53f 7720 d8bf
00000040: cb6d 4d3f b31c 03bc b5db 6cbf b1ef adbf
00000050: 5b52 eabd ddde 103f fa41 a8bf 518c d63e
00000060: a6c7 5dbf 5b59 1f3f c490 9e3e 6ffb d33e
00000070: e2ac a4be 3508 99bf 4536 753f 0c13 293f
00000080: 73d0 123d be6a 413f 1211 d93e c3bd 81bf
00000090: 5fdd 123f a4a7 01bf efb1 703f a523 ae3e
000000a0: 0f88 953e d7d5 b83d 8ebf 663d 4025 b83f
000000b0: adcb c83f ea03 6bbf 2d30 a63d 4ade c4bf
000000c0: 3ab0 14bf a1a0 41bf 9c1d 9abe 7823 a1bf
000000d0: 3b89 e7be e28b b13e 4d4e 55bf f711 203f
000000e0: f28f 3dbf db06 78be 9514 14bf a1d7 b43f
000000f0: 3aa1 653b b5fe 0fbf 7aed 613e d619 3b3c
00000100: 282e 8d3f 7bf7 5ebe 1665 383f bde1 183f
00000110: c30e 4fbf c0c5 523f 1756 823f 9f37 e73e
00000120: 41e8 0abf 7028 793f a095 5b3c b465 fbbd
00000130: ccf4 50bf cbf6 56be 0f28 803f 2ba3 bd3f
00000140: 6d27 a2be 5f64 853f aaf5 33be 784c 30bf
00000150: fd92 6dbd 2cb7 473e cca0 f4be af76 313f
00000160: f9f4 19bf e373 cd3e 7c59 9c3e 7d0d 213e
00000170: 796e 273f 7848 1abf 9a30 593f 0750 13be
00000180: f349 843f 8af0 8cbe 464a 49bf bd1b 70bf
00000190: 4454 8dbd 429b 5d3f 5dbf 0e3e 9c59 583f
000001a0: 7838 e93c ce35 bf3e df11 ccbe 138d 13be
000001b0: b467 a4bf f141 a4bf 0b6a 04bf a299 573f
000001c0: 9df3 7e3e 7a37 f73e a21c 6fbf 60e6 37bd
000001d0: a12b ca3e f2c7 1a3e 5d34 37bf 02fd 173f
000001e0: 22a4 20bf e225 e33e 408d 1fbf 23d6 7c3e
000001f0: 0ca8 64bf 5343 2c3f 3898 643e c640 0abd
00000200: 94f9 863e e9ea 123f 62c9 cc3f 6fce 1c3f
00000210: d146 cb3c 61fa 343f da59 ab3e 2749 8b3f
00000220: 9e77 14bf 05ab 253f 4396 b33e 362a 6c3f
00000230: b173 bb3e d186 67bf 944a af3f 0c12 6ebf
00000240: dbce 2e3f 7f8b 33bf bed1 07bf 1fea 9f3c
00000250: 20c3 a6be 6562 1a3f 0a42 16bf 5ee1 0dbf
00000260: b74a 20bf b3bc 4c3f 537a 073f e3f5 c5be
00000270: e68d 8dbf 4449 81be 1565 233f bc85 7ebe
00000280: 7729 893d 4783 063e 1fa8 8ebf 05e3 cbbe
00000290: f30f 75bd 9285 7e3e 349c 9fbf 5b99 0f3f
000002a0: e6b2 5bbe b841 1bbf 0c9b 623f 7799 6f3f
000002b0: b1bd 3a3e 2b98 be3b f445 e33e c219 b9bf
000002c0: bf6a 2f3f e5a0 9b3e 82ab 28be 4297 09bf
000002d0: f2f5 c5bc e5fe c8be ed32 89bf ebe6 1c3e
000002e0: 5a41 d7bf 145e c3be c986 0bbd 5c53 0d3f
000002f0: a363 333e 7d67 a9be 8f40 b4bd d20e e9bf
00000300: 0560 353d 05a4 bebf 2350 d53e d290 0abe
00000310: c321 debe ce08 103f c755 3bbf dd49 17bf
00000320: a605 6f3f ca51 4dbf 5f9f b23f 0bdc 1c3f
00000330: bb17 85bf 6217 913f 0db8 1bbf 9db4 24bf
00000340: 91de 8c3f 84ca bfbe 3809 aebe 356c e1be
00000350: 7caa a3bf 8256 293f 459d e13d ee04 b63e
00000360: 612e b0bf 7a18 353f 6742 31bf 47c8 5a3e
00000370: 5b3d b7bd 0741 95bf 03bc c03e e09e 7abe
00000380: 6f1b fd3e e625 e3be c33a 8bbf fe36 6bbf
00000390: 33b0 0bbf 7450 4f3e 56ef 8bbe e3cc d13e
000003a0: 887e 8dbf 331d a53e 8017 0d3f e885 00bf
000003b0: 4a00 37bf 614d 95bf 1428 34bf e4bb 7c3e
000003c0: dcfd 71be aaaf 97bf 9b6c cb3f 583e 9e3f
000003d0: 9417 16bf f148 dbbe f43a 8bbf 8b40 86bf
000003e0: a495 15bf e111 65be 8115 21bf 9162 3f3e
000003f0: fb97 39bf a151 8e3f 5373 ebbf 5aa3 863e
0.6071097 0.78098416 0.06780851 -0.2807552 -0.12135628 -0.38996977 -0.113066316 -0.5892026
-1.4976436 0.80926925 0.06586624 0.34076583 -0.1875963 -1.503688 1.2892979 -1.6884907
0.80245656 -0.008002448 -0.92522746 -1.3588773 -0.11441489 0.5659006 -1.3145134 0.41903928
-0.86632764 0.6224572 0.30969822 0.41402766 -0.3216315 -1.195563 0.95785934 0.6604469
0.035843324 0.755535 0.42395836 -1.0136036 0.57369035 -0.50646424 0.94021505 0.3401157
0.29205367 0.09025162 0.056335025 1.4386368 1.5687157 -0.9180285 0.081146576 -1.5380337
-0.580814 -0.75635725 -0.30100715 -1.2588949 -0.45221886 0.34677035 -0.833226 0.6252741
-0.7404777 -0.24221365 -0.57843906 1.4128305 0.0035038725 -0.5624803 0.22063246 0.011419734
1.1029711 -0.21774094 0.72029245 0.5971945 -0.808819 0.8233299 1.0182523 0.45159623
-0.5426064 0.9732733 0.013402373 -0.12275258 -0.8162353 -0.20992582 1.0012225 1.481542
-0.31670704 1.0421256 -0.17574182 -0.6886668 -0.058001507 0.19503468 -0.47778928 0.6932172
-0.60139424 0.40127477 0.3053702 0.15727802 0.6540294 -0.6026683 0.84839785 -0.14385997
1.0335068 -0.27527267 -0.7862896 -0.93792325 -0.06900838 0.8656503 0.13940187 0.84511733
0.02846931 0.37345737 -0.39857385 -0.14409284 -1.2844148 -1.2832624 -0.5172431 0.842188
0.24897619 0.48284513 -0.93403065 -0.044897437 0.3948641 0.15115336 -0.71564275 0.59370434
-0.62750447 0.4436484 -0.62324905 0.24691062 -0.8931892 0.6729023 0.22323692 -0.03375318
0.26362288 0.57389694 1.5998957 0.6125249 0.024814041 0.7069455 0.3346699 1.0881699
-0.5799502 0.6471408 0.35075578 0.9225191 0.36611703 -0.9044009 1.3694634 -0.9299629
0.68284386 -0.7013473 -0.53054416 0.019520817 -0.32570744 0.6030639 -0.5869452 -0.5542201
-0.62614006 0.7997543 0.52921027 -0.3866416 -1.1058929 -0.2525121 0.63826114 -0.24855703
0.06697362 0.13136016 -1.1145056 -0.3982164 -0.059829663 0.2485564 -1.2469544 0.56093377
-0.21454963 -0.60647154 0.8851783 0.93593544 0.18236424 0.0058164797 0.44389307 -1.4460986
0.68522257 0.3039619 -0.16471675 -0.53746426 -0.024165127 -0.3925697 -1.0718666 0.15322463
-1.6816819 -0.38157713 -0.034064088 0.5520532 0.17518477 -0.33086768 -0.08801376 -1.8207648
0.044281024 -1.4893805 0.41662702 -0.13531807 -0.43385133 0.56263435 -0.7317776 -0.5909708
0.93367994 -0.80202925 1.3954886 0.6127326 -1.0397867 1.1335261 -0.60827714 -0.64338094
1.1005422 -0.37459195 -0.33991408 -0.44027868 -1.2786403 0.66147625 0.11016325 0.35550636
-1.3764154 0.70740473 -0.69241947 0.21365462 -0.089472495 -1.166047 0.37643442 -0.24474669
0.49434993 -0.44364852 -1.0877308 -0.91880786 -0.54565734 0.20245534 -0.27331036 0.4097663
-1.1054239 0.3224884 0.55113983 -0.50204325 -0.71484816 -1.1664239 -0.70373654 0.2468105
-0.23631996 -1.1850483 1.5892519 1.2362776 -0.5862973 -0.42829087 -1.0877366 -1.0488447
-0.5843146 -0.22370102 -0.6292344 0.18689944 -0.7249753 1.1118661 -1.8394569 0.26296502

lstm.bias_ih_l0 f4 [64]
00000000: fad8 0c3f 3f40 913e ac09 323f 9382 cf3e
00000010: 147d 6d3f 2266 123f 574a 353f d6d2 e23e
00000020: 08ff 393f 675e 523e b212 ad3e b978 983e
00000030: b1ba 2f3f dfe4 f03e f272 513e 959e 233f
00000040: 5f0a ad3e 8621 9fbd e984 a5be d588 cc3e
00000050: 2ac7 563f 7e10 813e 4c7d e53e 4dcb de3e
00000060: f68c ab3e 9dd9 9fbd f786 2d3f 4ff2 b23d
00000070: 844a 193e 2ab6 883d 15ef 01bd 4a6b b2bd
00000080: dd86 8f3d 7753 4dbe b602 8abe bb27 22bf
00000090: 969c f6be f738 393f 7df9 56be 740b f53d
000000a0: c840 0dbf 10ad c03e ab98 ab3d 4226 223f
000000b0: 280b cbbe 25f5 4bbe 2c97 94bd 60a7 293e
000000c0: 2f9d 103f 092b 853e 5b8e 263f f384 313f
000000d0: 799c 483f 412b 303f 51da 0f3f 6b13 123f
000000e0: 03ba 1c3f e721 6c3e 0180 9e3e 79ff 393f
000000f0: 695f 413f 0d9b d93e 477e 2f3f 3c70 173f
0.5501858 0.28369328 0.6954601 0.40529308 0.9276898 0.5718709 0.7081656 0.4430148
0.7265477 0.20543824 0.33803326 0.29779604 0.68644243 0.47049615 0.20454004 0.6391385
0.33796975 -0.07770066 -0.32327965 0.39948145 0.8389765 0.25207895 0.44822156 0.4351448
0.33505982 -0.07805178 0.67784065 0.08737623 0.14969832 0.0667537 -0.031722147 -0.0871187
0.07008145 -0.2005137 -0.26955193 -0.63341874 -0.4816634 0.72352546 -0.2099361 0.11965075
-0.55176973 0.37632036 0.083787285 0.63339627 -0.3965695 -0.19917734 -0.07255396 0.16567755
0.56489843 0.26009396 0.6506097 0.6934349 0.7836376 0.68816 0.561925 0.5706088
0.6122133 0.23059808 0.30957034 0.72655445 0.7553621 0.42501107 0.6855206 0.5915563

lstm.bias_hh_l0 f4 [64]
00000000: 13f5 393f 9490 1a3f 9ac3 803f 3307 023f
00000010: c2d9 fd3e 58b1 c93e 3fa5 2c3f de79 0e3f
00000020: f3ea 373f a841 163d aae2 383f bc08 103f
00000030: 38c0 213f c940 153f 32ff 273e 976f c73e
00000040: 65a2 ba3e 5897 d9bc 21fb f93d e25e 313f
00000050: 6b29 fa3e 5180 da3e 04f0 573e 75cb e83d
00000060: 4698 0a3f d5f3 c53d 0acb 113f f776 9f3d
00000070: 35c0 103e 4a66 5dbd f560 02bd f3f2 12be
00000080: 40f6 8a3e 2627 8abc 58f0 6f3c bafc 5cbe
00000090: cb4b 9abe 3fca 423f 08e2 9e3b cfad a73e
000000a0: 6d88 e8be ed4c 003f 01b7 77bd c8bd 2f3f
000000b0: 18ab 60be 8c6c 94be 1138 07be ee9a 35bd
000000c0: f528 7d3f 282e 0d3f 18f8 0b3f 644e 383f
000000d0: d5c0 393f edae 5b3f 46a0 5f3f 7257 533f
000000e0: 4335 223f da9d 073e 5aa0 323f 2391 aa3e
000000f0: 78c9 413f c6b7 4e3d 4662 e93e 22f8 443f
0.7263958 0.6037686 1.0059693 0.50792235 0.495802 0.39393115 0.67439646 0.55654705
0.7184288 0.03668371 0.7222086 0.5626333 0.6318393 0.5830198 0.16405943 0.38952324
0.36452022 -0.026561424 0.12206102 0.69285405 0.48859724 0.42676023 0.21087652 0.11366931
0.541386 0.09665648 0.5695044 0.077863626 0.14135821 -0.05405263 -0.031830747 -0.1435049
0.27141 -0.01686437 0.014644705 -0.21580783 -0.3013595 0.76089853 0.0048487224 0.32749793
-0.45416585 0.5011738 -0.06047726 0.6864896 -0.21940267 -0.28989065 -0.13204981 -0.044337206
0.9889062 0.55148554 0.54675436 0.71994615 0.72559863 0.8581379 0.8735393 0.82555306
0.6336252 0.1324381 0.6977593 0.33313856 0.7569804 0.05046823 0.4558279 0.7694112

fc.weight f4 [6, 16]
00000000: 921e 0e3f 68d7 943d b3a9 4ebf d5c2 82bf
00000010: c739 9bbf 84fd 80bf b979 5fbf 68c7 793f
00000020: 5168 be3f e672 ebbc 2648 1dbf a8d1 0e3f
00000030: 1449 9b3f 0344 b6bf 1d1d 7cbf 4d96 c23e
00000040: 68a7 f9be f483 b4bc 8a56 213f 217e 313e
00000050: dada 423e 8e7a 02bf c7e4 163f 607e 543f
00000060: 39d5 2c3c 5ce7 803f 4a43 80be ef70 063f
00000070: a9a9 babd f25e d4be 3cad 0f3f db2a 6abe
00000080: 8ac6 ad3f 8222 653e f3c0 8b3d 0fad 443f
00000090: 4b9f 753f 4291 65bf 6299 8cbf 1262 073e
000000a0: 3336 44bb 4805 9e3e d86b 143f a32c 403f
000000b0: 6080 0bbf ef43 5e3e 7871 18bc a8ca b53f
000000c0: f07d a63f 7fd6 77bf e92f b03f b7b3 85bf
000000d0: 5665 b33e 0336 b3be a27b 6bbd be73 b53e
000000e0: bf55 3fbf 9059 813f cb8b 1f3f 01e8 563e
000000f0: f1f0 893f 7fe7 633f d82f 12bf c01b 93bf
00000100: 7514 a6bb ad73 b5be d344 1dbe ed32 adbe
00000110: af70 a6be 5b3a bc3d 60d8 2cbd e8aa d13e
00000120: d4e1 123f 7a65 0d3d a645 203f 4ecf 3d3e
00000130: fa3e 70be c95a 5f3e dc77 663e b51c c53d
00000140: 27c6 903e 880f 443f 76e6 65bf 59c7 4dbe
00000150: c376 71be 4712 febd 0646 17bf c2e9 40be
00000160: 4687 9dbd c3a7 423f c34e 1abe 0856 2fbf
00000170: b7c0 a1bd 738e 173f 8a4a 393f 6f79 1a3e
0.55515397 0.07267648 -0.8072769 -1.0215708 -1.2127007 -1.0077367 -0.8729511 0.97569895
1.4875585 -0.028741311 -0.61438215 0.5578866 1.2131677 -1.4239506 -0.98481923 0.38005295
-0.48760533 -0.022035576 0.63022673 0.1733327 0.19028798 -0.50968254 0.58942837 0.8300533
0.010548883 1.0070605 -0.25051337 0.52516073 -0.09114391 -0.41478688 0.5612371 -0.2286791
1.3576214 0.22376445 0.068239115 0.76826566 0.95946187 -0.8967477 -1.0984309 0.13221005
-0.0029939532 0.30863404 0.57977057 0.7506811 -0.5449276 0.21705602 -0.009304397 1.4202471
1.3007183 -0.9681167 1.3764621 -1.044547 0.3503825 -0.35002145 -0.057490952 0.35439867
-0.74740213 1.0105457 0.6232268 0.2098694 1.0776654 0.8902511 -0.57104254 -1.1492844
-0.0050683566 -0.35439816 -0.15358286 -0.33827916 -0.32507846 0.09190818 -0.04219854 0.40950704
0.57375836 0.034520604 0.62606275 0.18536112 -0.23461524 0.21811976 0.2250666 0.09624616
0.28276178 0.765862 -0.8980478 -0.20095576 -0.2358046 -0.1240583 -0.5909122 -0.18839172
-0.07691817 0.76037234 -0.15069108 -0.6849065 -0.078980856 0.59201735 0.7237936 0.15085386

fc.bias f4 [6]
00000000: e154 4ebe 63d5 82bd 2c9a bdbd dcca c2bd
00000010: 96e2 69be d1b4 e13d
-0.20149566 -0.063883565 -0.092579216 -0.095113486 -0.22840342 0.11020816
