python_stuffs/model_code/pytorch_models/category_predictor_model.pth (torch, 147911 bytes, 4 tensors)

fc1.weight f4 [64, 560]
-0.30865332 0.34260237 0.042203777 -0.23116793 -0.017413564 -0.013774466 -0.09379802 0.2602939
-0.18336493 -0.090844736 0.018865295 -0.051666718 0.0063255187 0.25955418 -0.037826076 -0.04098642
-0.12702996 0.23508786 0.15770113 -0.110755004 -0.0867556 -0.18352512 0.002365172 -0.053560086
0.24069169 0.0016442053 -0.1672255 -0.17985356 -0.23717123 -0.12678868 -0.0052562235 0.2911639
0.20700791 -0.1666026 -0.094815336 0.12310605 -0.11124251 0.008306682 -0.115094125 -0.07140976
0.2688839 0.3449086 -0.25154376 -0.11591791 -0.10912636 -0.29091072 0.08116375 0.26607248
-0.0064325184 0.010560598 0.20438269 0.2737275 -0.012028959 -0.20925513 0.31823263 0.33110073
0.21578413 -0.10434175 0.2603701 -0.16511713 0.30274448 -0.19871326 0.3935304 0.3035539
-0.25268963 -0.054511726 0.3106336 -0.2939054 -0.06977795 0.34238467 0.20826901 0.220846
-0.025296098 0.10395916 0.26440242 -0.1817219 0.2569 0.25780064 0.003724005 -0.16905268
0.29349104 0.2975195 0.008764081 -0.0014613755 -0.29384574 0.2598348 -0.0020961552 -0.11281667
-0.14153256 -0.025186626 -0.16805139 0.11849773 0.3489139 0.28469527 0.033584535 -0.10024836
-0.109473 0.123493485 0.2198143 0.2740197 0.2722835 0.037846386 0.016624272 0.2629514
0.24664976 -0.24212335 0.2968052 0.26790982 -0.22624408 -2.611056e-05 0.31093982 0.28363264
0.03028629 -0.23825373 0.29909104 -0.33249977 -0.00029416382 0.3145023 0.3216809 -0.19114015
-0.1967445 0.27962115 0.32850966 0.016864654 -0.083344065 0.0028462037 0.28400794 -0.1708566
0.27071467 0.3804511 0.18743642 -0.17223433 0.30665267 0.26319587 0.27506837 0.18607412
-0.12574643 -0.27467483 -0.16774844 0.36609614 0.28100255 -0.30247134 0.18270782 0.25077683
0.08944969 0.3607614 0.31549796 -0.03527539 0.21637197 -0.02035781 -0.22515081 0.031622864
0.28547123 -0.06477488 -0.015836371 -0.17343 -0.22954057 0.28844413 -0.061793406 0.31818902
0.1942281 0.331072 -0.09570059 0.05371453 0.2655546 -0.13846534 -6.605312e-05 0.041883275
-0.16992435 0.32683194 0.23628594 -0.19223684 0.014240108 -0.1610414 0.30192488 0.13297078
0.32054016 0.32267794 -0.14604366 -0.12561461 -0.1553033 0.23755388 0.16606447 0.27391607
0.041891493 -0.18215355 0.30015364 0.29292947 -0.15236257 0.21866807 -0.021112116 0.36711448
-0.2322473 0.1942552 -0.22506952 0.27719408 0.2850599 -0.33840123 0.27480665 0.29000288
0.20013365 -0.1317825 0.30733216 0.23427238 0.34556848 0.2994594 0.3278699 0.33665204
0.2268255 0.37020692 0.29901645 0.28831768 -0.14410923 0.27259025 -0.10333059 0.24615842
-0.21847136 -0.015852505 -0.15739903 0.34830344 0.22380424 -0.27218702 0.040223904 0.3077354
0.32321802 0.017112352 0.2320065 0.3336131 -0.015529107 0.24804519 -0.1559882 0.29393026
0.29618788 -0.2475944 0.31145346 -0.23364915 0.20136516 0.030006938 0.24314381 0.28318006
0.23921856 0.35509354 -0.2294965 0.29943657 0.034556836 0.29734984 0.34438902 -0.0038148835
-0.12089101 -0.26358137 0.26818523 0.036102988 0.27416396 0.32239133 0.31422997 0.304648
00000000: cf07 9ebe 9469 af3e dedd 2c3d 49b7 6cbe
00000010: e4a6 8ebc 4cae 61bc 2d19 c0bd 3e45 853e
00000020: 04c4 3bbe ce0c babd 648b 9a3c 7ba0 53bd
00000030: 4c46 cf3b 49e4 843e 84ef 1abd 60e1 27bd
00000040: 2414 02be dfba 703e 687c 213e 85d3 e2bd
00000050: ecac b1bd 02ee 3bbe 0001 1b3b d261 5bbd
00000060: e277 763e 6082 d73a 293d 2bbe 882b 38be
00000070: 04dd 72be e4d4 01be 663c acbb 6f13 953e
00000080: e2f9 533e df99 2abe 8b2e c2bd 061f fc3d
00000090: 1dd3 e3bd c018 083c 78b6 ebbd 483f 92bd
000000a0: 27ab 893e dc97 b03e 58ca 80be 5f66 edbd
000000b0: a47d dfbd 40f2 94be 2e39 a63d a73a 883e
000000c0: e0c7 d2bb 5c06 2d3c b249 513e 0326 8c3e
000000d0: 1c15 45bc fa46 56be 63ef a23e 0986 a93e
000000e0: 84f6 5c3e 21b1 d5bd 3b4f 853e 7714 29be
000000f0: 5301 9b3e 7d7b 4bbe d17c c93e 6b6b 9b3e
00000100: 8960 81be b047 5fbd 5e0b 9f3e c57a 96be
00000110: bee7 8ebd 0b4d af3e 7944 553e 7425 623e
00000120: c339 cfbc 8ae8 d43d c15f 873e 4e15 3abe
00000130: 6688 833e 72fe 833e 700e 743b 251c 2dbe
00000140: 7544 963e 7a54 983e 3897 0f3c a08b bfba
00000150: f372 96be 1109 853e a65f 09bb 6d0c e7bd
00000160: e9ed 10be 2f54 cebc aa15 2cbe f0ae f23d
00000170: d8a4 b23e 94c3 913e f08f 093d 034f cdbd
00000180: 6133 e0bd 27ea fc3d 0017 613e 4f4c 8c3e
00000190: be68 8b3e d004 1b3d a02f 883c 91a1 863e
000001a0: c191 7c3e 2fef 77be daf6 973e 7a2b 893e
000001b0: 87ac 67be 0008 dbb7 8133 9f3e 4c38 913e
000001c0: f41a f83c c9f8 73be 7622 993e 693d aabe
000001d0: 003a 9ab9 7206 a13e 5cb3 a43e 3eba 43be
000001e0: 6477 49be 812a 8f3e 6b32 a83e be27 8a3c
000001f0: 4bb0 aabd 6087 3a3b 7d69 913e 08f5 2ebe
00000200: 1d9b 8a3e 7dca c23e 55ef 3f3e 325e 30be
00000210: 9401 9d3e 9cc1 863e c3d5 8c3e 378a 3e3e
00000220: acc3 00be 2ea2 8cbe 3fc6 2bbe f470 bb3e
00000230: 91df 8f3e 86dd 9abe c217 3b3e d265 803e
00000240: 6631 b73d b8b5 b83e f388 a13e ed7c 10bd
00000250: 9d90 5d3e 6cc5 a6bc ef8d 66be fa86 013d
00000260: 4929 923e b1a8 84bd 47bb 81bc a297 31be
00000270: af0c 6bbe f3ae 933e 151b 7dbd ace9 a23e
00000280: bbe3 463e 4582 a93e acfe c3bd c403 5c3d
00000290: c6f6 873e dcc9 0dbe 0086 8ab8 cc8d 2b3d
000002a0: a600 2ebe 8456 a73e f1f4 713e bcd9 44be
000002b0: 584f 693c 09e8 24be e695 9a3e 7e29 083e
000002c0: d71d a43e 0b36 a53e 788c 15be 1ea1 00be
000002d0: d407 1fbe 5341 733e ce0c 2a3e ba3e 8c3e
000002e0: 6a96 2b3d 7686 3abe bdad 993e dafa 953e
000002f0: ef04 1cbe 86ea 5f3e 51f3 acbc 6ef6 bb3e
00000300: 3cd2 6dbe d6ea 463e a078 66be 62ec 8d3e
00000310: 5ff3 913e ed42 adbe 75b3 8c3e 427b 943e
00000320: d6ef 4c3e fef1 06be a45a 9d3e 19e5 6f3e
00000330: 5aee b03e be52 993e 90de a73e a85d ac3e
00000340: f244 683e c38b bd3e af18 993e 609e 933e
00000350: 5f91 13be f390 8b3e fd9e d3bd f410 7c3e
00000360: f5b6 5fbe 1ddd 81bc 362d 21be d454 b23e
00000370: f02c 653e 195c 8bbe d2c1 243d 7f8f 9d3e
00000380: d57c a53e 342f 8c3c 1d93 6d3e 56cf aa3e
00000390: cc6d 7ebc 8fff 7d3e 5fbb 1fbe 077e 963e
000003a0: f0a5 973e 6389 7dbe d476 9f3e b941 6fbe
000003b0: ab32 4e3e 1cd1 f53c b1fa 783e fafc 903e
000003c0: b6f5 743e d2ce b53e 2101 6bbe c04f 993e
000003d0: 788b 0d3d 3d3e 983e c253 b03e 2003 7abb
000003e0: b595 f7bd 23f4 86be 934f 893e bae0 133d
000003f0: 385f 8c3e 7a10 a53e c0e2 a03e d3fa 9b3e

fc1.bias f4 [64]
0.25270346 0.25591534 0.29023957 0.29897067 0.26803225 0.24329959 0.2202906 0.36283544
0.2858294 0.27563497 0.25349343 0.26425588 0.35413048 0.28539345 0.2619718 0.25431424
0.23490079 0.2758771 0.27799168 0.27498624 0.26712012 0.320003 0.29207873 0.24886678
0.3111464 0.28483623 0.25533944 0.315537 0.270232 0.24864052 0.28100538 0.25978416
0.25900635 0.29263356 0.2723005 0.26250187 0.28025892 0.30583984 0.266972 0.21041377
0.24500911 0.29370484 0.34067273 0.31353608 0.30122173 0.30466497 0.28972277 0.22791395
0.29601753 0.26624474 0.25723034 0.2551152 0.28580138 0.24310727 0.2916853 0.27412295
0.29520553 0.33079112 0.21032183 0.24274606 0.3139603 0.23499055 0.31951973 0.26173994
00000000: 5962 813e 5607 833e 489a 943e af12 993e
00000010: 863b 893e 8723 793e dc93 613e 91c5 b93e
00000020: 3b58 923e 0720 8d3e e4c9 813e 8c4c 873e
00000030: 9750 b53e 171f 923e 2b21 863e 7a35 823e
00000040: d589 703e c33f 8d3e ed54 8e3e ffca 8c3e
00000050: f8c3 883e 6fd7 a33e 588b 953e efd6 7e3e
00000060: 954e 9f3e 0ed6 913e dabb 823e 118e a13e
00000070: d95b 8a3e 9f9b 7e3e f0df 8f3e 6e02 853e
00000080: 7b9c 843e 11d4 953e f96a 8b3e a566 863e
00000090: 197e 8f3e 0a97 9c3e 8eb0 883e b576 573e
000000a0: abe3 7a3e 7b60 963e a86c ae3e cd87 a03e
000000b0: bc39 9a3e 0cfd 9b3e 8b56 943e 4662 693e
000000c0: 9c8f 973e 3b51 883e b2b3 833e 769e 823e
000000d0: 8f54 923e 1df1 783e c757 953e d859 8c3e
000000e0: 2e25 973e 745d a93e 9b5e 573e 6c92 783e
000000f0: 68bf a03e 5da1 703e 1798 a33e c702 863e

fc2.weight f4 [6, 64]
0.3157621 0.30324948 0.35843247 -0.36762446 0.45899585 -0.39861658 -0.4195526 -0.44769394
-0.45776987 -0.40507913 -0.4136137 0.41258734 -0.41744158 -0.3858424 -0.36085322 -0.43540448
0.39951655 0.46050453 -0.4653444 -0.4199063 -0.33916116 0.27762714 0.37502438 0.38280442
-0.35349813 -0.4269695 -0.3904949 0.32948387 0.39005986 0.28880796 -0.48367444 -0.28102097
-0.33236086 0.28491777 0.33891538 0.31349462 -0.39977932 -0.434813 -0.44710368 -0.5302248
0.3897646 -0.39771438 -0.42764893 0.31599662 0.3898625 -0.40184948 0.39229777 0.40550148
0.3885126 0.41872144 0.36115587 0.2102418 -0.3618687 -0.42984137 0.30053437 -0.33865735
0.37214983 -0.3535697 0.31875592 0.3711228 -0.39624694 -0.3977857 0.4105094 0.414393
-0.40824485 -0.3683336 -0.43782938 -0.32968822 0.43344653 0.033586446 -0.41829202 0.36960754
-0.33580622 -0.36378258 0.37214944 0.37832597 0.25870082 -0.41861397 -0.38811275 -0.27175054
0.30180177 -0.39602098 0.33676302 0.42110643 -0.4602972 0.38496515 -0.39338443 0.42386523
0.41930765 -0.37920675 -0.38194007 0.4239073 -0.34191096 -0.37167528 0.42216623 0.45089105
-0.31778952 0.4062674 0.42258382 0.3391315 -0.3878691 0.4401742 -0.43692634 -0.659653
0.3330182 -0.4228511 0.22578129 -0.42260706 -0.33255258 0.452738 0.42352343 -0.45233765
-0.3394146 0.37156808 -0.28682443 -0.35900834 0.37311605 0.4317297 -0.24972168 -0.3932228
-0.3123763 -0.27968508 -0.55498284 -0.39082658 -0.34251308 -0.40933523 -0.29446426 0.4408704
0.33682936 -0.33695865 -0.39668167 0.33665517 -0.44531655 -0.46281207 0.37816817 -0.44191107
0.3669376 0.35904887 0.37113342 -0.39591187 -0.47196922 -0.39339915 0.46834564 0.34371972
0.31775942 0.3500775 0.33646023 0.3625238 0.32083935 -0.40363637 -0.45468974 0.450332
0.31111276 0.28600043 0.37724873 -0.4404489 -0.38904694 0.38100132 -0.49020636 0.35612094
0.32243857 -0.3968603 -0.47590148 0.33478177 0.37570855 -0.38286746 0.35530144 -0.6036358
-0.49564677 -0.38611317 -0.43248308 0.40031475 -0.3731481 -0.45536128 -0.4502451 -0.44186276
-0.372516 -0.4741474 -0.2912607 -0.38806647 0.39602804 0.39969465 -0.38366348 0.42498243
0.38860017 0.41795108 0.227729 -0.40507847 -0.44100213 0.38784182 -0.41930968 0.39879477
-0.41322798 0.45159394 0.38885266 0.35818374 -0.36337095 -0.3642784 -0.409585 0.2311395
0.25121883 -0.43282446 0.37201405 0.4217036 -0.3506711 0.37855583 0.3884282 0.42277032
-0.44500637 -0.42548332 -0.44136128 -0.38509008 -0.4241146 -0.36986464 0.28762183 -0.38359207
-0.41953662 -0.38800776 0.3823541 -0.31773072 0.3059649 0.39021093 0.4572419 -0.32050338
-0.42141247 -0.4264164 0.4151705 -0.44591987 0.36697584 -0.33119574 0.40706763 -0.49084446
0.43491584 0.33788636 -0.31705663 -0.37835395 -0.4180077 -0.3803628 -0.2857772 -0.42677683
-0.33839014 -0.32183573 0.4096401 -0.3272168 -0.3566349 -0.33264947 0.40792286 -0.3937356
-0.33440578 0.40098312 -0.49270728 0.43071514 -0.36454526 -0.3890816 0.44022477 -0.35391393
00000000: 92ab a13e 8443 9b3e 7684 b73e 4639 bcbe
00000010: 8101 eb3e 7917 ccbe 99cf d6be 2438 e5be
00000020: d060 eabe 8866 cfbe 2dc5 d3be a63e d33e
00000030: e7ba d5be 238d c5be c1c1 b8be 56ed debe
00000040: 6f8d cc3e 40c7 eb3e 9f41 eebe f5fd d6be
00000050: 88a6 adbe 2525 8e3e 3203 c03e f1fe c33e
00000060: b5fd b4be bf9b dabe f3ee c7be 1cb2 a83e
00000070: edb5 c73e a3de 933e 2da4 f7be fbe1 8fbe
00000080: 342b aabe bee0 913e 5186 ad3e 5e82 a03e
00000090: e0af ccbe cf9f debe c6ea e4be d0bc 07bf
000000a0: 3a8f c73e 38a1 cbbe cdf4 dabe 4fca a13e
000000b0: 0f9c c73e 37bf cdbe 41db c83e e49d cf3e
000000c0: 20eb c63e a862 d63e 6ce9 b83e a049 573e
000000d0: db46 b9be 2b14 dcbe a4df 993e 7f64 adbe
000000e0: 6c8a be3e 1607 b5be fa33 a33e cf03 be3e
000000f0: e1e0 cabe 91aa cbbe 4a2e d23e 522b d43e
00000100: 7805 d1be 3996 bcbe 2c2b e0be e5cc a8be
00000110: b4ec dd3e f191 093d 5f2a d6be 333d bd3e
00000120: cbee abbe b641 babe 5f8a be3e f1b3 c13e
00000130: 6f74 843e 9254 d6be b7b6 c6be e322 8bbe
00000140: c385 9a3e 43c3 cabe 346c ac3e 439b d73e
00000150: 13ac ebbe 271a c53e af69 c9be dd04 d93e
00000160: 7eaf d63e 6327 c2be a68d c3be 610a d93e
00000170: f40e afbe 394c bebe 2c26 d83e 31db e63e
00000180: 4fb5 a2be 4802 d03e e85c d83e a5a2 ad3e
00000190: c796 c6be 835e e13e cfb4 dfbe 05df 28bf
000001a0: 5d81 aa3e f07f d8be 3633 673e f45f d8be
000001b0: 5544 aabe 46cd e73e 10d8 d83e cd98 e7be
000001c0: c0c7 adbe 2c3e be3e a7da 92be f1cf b7be
000001d0: 1109 bf3e ad0b dd3e 0ab7 7fbe 8054 c9be
000001e0: c9ef 9fbe e232 8fbe 5b13 0ebf 6c1a c8be
000001f0: e05d afbe 6394 d1be 05c4 96be c4b9 e13e
00000200: e674 ac3e d885 acbe dc19 cbbe 115e ac3e
00000210: 8800 e4be b4f5 ecbe 429f c13e 2b42 e2be
00000220: 3fdf bb3e 41d5 b73e 3305 be3e f6b4 cabe
00000230: f3a5 f1be 9d6b c9be 00cb ef3e 08fc af3e
00000240: 5db1 a23e 5c3d b33e 8444 ac3e b89c b93e
00000250: 0e45 a43e 6da9 cebe 18cd e8be ea91 e63e
00000260: 2c4a 9f3e a66e 923e bf26 c13e 8582 e1be
00000270: 2931 c7be 9b12 c33e 54fc fabe 7c55 b63e
00000280: ab16 a53e 4631 cbbe 5ca9 f3be 8468 ab3e
00000290: df5c c03e 3407 c4be 12ea b53e e087 1abf
000002a0: 6ac5 fdbe a0b0 c5be 6c6e ddbe 0ef6 cc3e
000002b0: 450d bfbe 1d25 e9be 8786 e6be d63b e2be
000002c0: 6bba bebe 73c3 f2be 1f20 95be a6b0 c6be
000002d0: 30c4 ca3e c7a4 cc3e 8a6f c4be 4c97 d93e
000002e0: 9af6 c63e affd d53e ca31 693e 7266 cfbe
000002f0: 08cb e1be 3493 c63e c2af d6be d42e cc3e
00000300: 9e92 d3be 5237 e73e b217 c73e dc63 b73e
00000310: c20b babe b382 babe 20b5 d1be d5af 6c3e
00000320: c19f 803e 2b9b ddbe a078 be3e 89e9 d73e
00000330: 2a8b b3be 12d2 c13e 10e0 c63e 5a75 d83e
00000340: e0d7 e3be f3d8 d9be 1bfa e1be 872a c5be
00000350: 8d25 d9be e65e bdbe 2b43 933e 2e66 c4be
00000360: 81cd d6be f4a8 c6be ebc3 c33e 9aad a2be
00000370: 6ea7 9c3e bac9 c73e 9c1b ea3e 0519 a4be
00000380: 60c3 d7be 4053 dabe 3a91 d43e 9c4f e4be
00000390: 42e4 bb3e 7d92 a9be 2b6b d03e f74f fbbe
000003a0: 4aad de3e 71ff ac3e 3f55 a2be 9cb7 c1be
000003b0: 1b05 d6be eabe c2be 6451 92be 7e82 dabe
000003c0: 7941 adbe a7c7 a4be 59bc d13e f688 a7be
000003d0: da98 b6be 0851 aabe 44db d03e b697 c9be
000003e0: 3c37 abbe a94d cd3e 2144 fcbe b286 dc3e
000003f0: ada5 babe b435 c7be 2465 e13e 3534 b5be

fc2.bias f4 [6]
-0.26045933 0.005631673 -0.18744396 0.038800996 -0.16144533 0.055789568
00000000: ed5a 85be e689 b83b 4ff1 3fbe cbed 1e3d
00000010: ed51 25be 9a83 643d
