python_stuffs/model_code/pytorch_models/category_predictor_model.pth (torch, 148679 bytes, 4 tensors)

fc1.weight f4 [64, 563]
0	0xbe2cc6d2	-0.16872719
1	0x3eabd05b	0.335574
2	0x3c03b638	0.00803905
3	0x3eae2eda	0.3402012
4	0x3e76690b	0.24063508
5	0xbd99adcc	-0.07503852
6	0xbdc634b3	-0.0967802
7	0x3ecaa93d	0.39582244
8	0x3e3ece5d	0.18633409
9	0xbcee7d39	-0.029112445
10	0xbd8e1b47	-0.069387965
11	0xbd3c3ae9	-0.04595462
12	0xbd4e6da0	-0.050397515
13	0x3ea7e4f2	0.3279186
14	0x3e69da0d	0.22837086
15	0xbdac00f6	-0.08398621
16	0xbbf30d48	-0.0074173547
17	0x3ddab7b9	0.106795736
18	0x3ea517e2	0.32244784
19	0x3e7c4114	0.246342
20	0xbc3b1326	-0.01141814
21	0x3e78b53e	0.24287888
22	0xbe79418a	-0.24341407
23	0xbeba3874	-0.36371195
24	0x3e9c4f88	0.30529428
25	0x3e9d4fc9	0.30724934
26	0x3b87a648	0.0041396953
27	0xbc86fc07	-0.016477598
28	0xbe2057ed	-0.15658541
29	0x3ec21889	0.37909344
30	0x3e6db2c5	0.23212726
31	0x3ea8fd1d	0.3300561
32	0x3eade2ab	0.33961996
33	0x3eb969ef	0.36213633
34	0x3ea820a4	0.32837403
35	0xbe7157d3	-0.23568659
36	0xbdb0db9f	-0.086356394
37	0x3d4ad699	0.049521063
38	0xbd1dbd24	-0.038510457
39	0x3e8688b4	0.2627617
40	0xbd3c17ca	-0.045921125
41	0x3eab94bd	0.33511916
42	0x3eaecf9b	0.34142765
43	0x3eae5a23	0.34053144
44	0xbe18700e	-0.14886495
45	0x3ec1db4a	0.37862617
46	0xbda24b9c	-0.079245776
47	0x3db3770f	0.08762943
48	0x3e95b15b	0.29236874
49	0x3cab6db8	0.020926341
50	0xbcea316c	-0.02858802
51	0x3e8b0ecf	0.27159736
52	0x3ed6470b	0.41851076
53	0x3c9c5136	0.019081693
54	0xbbe43b16	-0.0069650514
55	0x3eaae3e5	0.33376995
56	0x3e850327	0.25978968
57	0x3ec5d220	0.38636875
58	0xbea5aa7d	-0.32356635
59	0x3e9211f8	0.28529334
60	0xbe24f713	-0.16109876
61	0x3e19648c	0.14979762
62	0xbe8271c1	-0.25477412
63	0x3e8f2d8f	0.27964446
64	0x3e726b5b	0.23673765
65	0x3e93fcb2	0.2890373
66	0xbc797966	-0.015226698
67	0x3ec1ffc5	0.3789045
68	0x3e936c37	0.287935
69	0x3e8c7dfc	0.27439868
70	0x3eb514cb	0.35367426
71	0x3e8fca16	0.28083867
72	0x3e874a1a	0.26423723
73	0xbc848d70	-0.016180724
74	0x3e6e3d8e	0.23265669
75	0x3e6c7156	0.23090109
76	0xbd248233	-0.04016323
77	0x3e071c9c	0.13194507
78	0x3e937eca	0.2880767
79	0xbd29781a	-0.041374303
80	0xbe53c4ae	-0.20680496
81	0x3ea7fa67	0.3280823
82	0x3e3ce5fa	0.18447104
83	0x3d2ba992	0.04190976
84	0xbd7bf494	-0.061512545
85	0x3e9ac1d2	0.30225998
86	0x3e8e1e6c	0.27757585
87	0xbdec497c	-0.115374535
88	0xbde54757	-0.111952476
89	0xbe5ff196	-0.21869501
90	0xbda31847	-0.07963615
91	0xbe8c4184	-0.27393734
92	0x3e92bf25	0.28661457
93	0x3e65fdd0	0.22460103
94	0x3e61c970	0.22049499
95	0x3d2c8208	0.042116195
96	0xbe488181	-0.19580652
97	0x3ccdb28c	0.025109552
98	0x3e344eed	0.17608233
99	0xbc70499c	-0.014665987
100	0x3e285aa0	0.1644082
101	0x3ea092b1	0.31361917
102	0x3e97e5d8	0.29667544
103	0x3e95c010	0.29248095
104	0x3e7db646	0.24776563
105	0x3e95f932	0.29291683
106	0xbea98d43	-0.33115587
107	0x3e2cd11f	0.16876648
108	0x3ea7ed03	0.32798013
109	0x3eae06d1	0.33989576
110	0x3eeba280	0.46022415
111	0x3e93fd29	0.28904083
112	0x3c99c762	0.018771831
113	0x3ed286e7	0.41118547
114	0x3e6eb097	0.23309551
115	0xbe94f973	-0.29096565
116	0x3e9f4890	0.31110048
117	0x3ea8434a	0.32863837
118	0x3e9d60f7	0.3073804
119	0x3edb7483	0.4286233
120	0x3eb8ea04	0.3611604
121	0xbe8841bd	-0.26612654
122	0xbe7daa22	-0.24771932
123	0x3e4e60fb	0.20154183
124	0x3e304b40	0.17216206
125	0xbcfcf538	-0.030878648
126	0x3e7b4dae	0.24541351
127	0x3adf0700	0.0017015636
128	0x3e781fbb	0.24230854
129	0x3e8d124e	0.27553028
130	0x3e5fa19b	0.21838991
131	0x3ec677c3	0.38763246
132	0x3e8e6450	0.27810907
133	0x3eab9136	0.33509225
134	0x3e95eee9	0.29283836
135	0x3e2209a7	0.15823995
136	0x3e8d8803	0.2764283
137	0x3e58962e	0.21151039
138	0xbe920789	-0.28521374
139	0xbe07e996	-0.132727
140	0x3eafa44e	0.34305042
141	0x3e8032d4	0.2503878
142	0x3e670520	0.22560549
143	0xbe22e2e2	-0.15906861
144	0x3e85ab82	0.26107413
145	0x3ecd3509	0.40079525
146	0x3ebaae2a	0.36461002
147	0x3eae28fa	0.34015638
148	0x3ed7c132	0.42139584
149	0x3e9c7f0f	0.30565688
150	0x3e7fb930	0.24972987
151	0x3d12a220	0.035799146
152	0x3eba13c5	0.36343208
153	0xbce3314e	-0.027733471
154	0x3e5433ec	0.20722932
155	0x3ea47ccb	0.3212646
156	0xbe878970	-0.26472044
157	0x3e9a55bb	0.30143532
158	0xbe85146f	-0.25992152
159	0x3ea3a252	0.31959778
160	0xbde749dd	-0.11293385
161	0x3e9fc3f3	0.31204185
162	0x3e803024	0.25036728
163	0x3e6b5a73	0.22983722
164	0xbe6e5e08	-0.23278058
165	0xbe9eea5c	-0.31038177
166	0xbc820f27	-0.015876366
167	0x3ea9f71a	0.33196336
168	0x3cc97b38	0.024594888
169	0x3caf3858	0.021389171
170	0x3ea00bc7	0.31258985
171	0x3ec54dad	0.38535824
172	0x3e533c70	0.20628524
173	0x3eb60af8	0.35555243
174	0xbd0c8515	-0.034306604
175	0xbe587763	-0.21139292
176	0x3e976bcc	0.2957443
177	0x3e43444b	0.1906902
178	0x3e9916f5	0.29900327
179	0x3ea84aa2	0.3286944
180	0x3eaffcd6	0.34372586
181	0x3e7fc805	0.24978645
182	0x3eb494c5	0.35269752
183	0xbc511f2e	-0.0127637815
184	0x3e0f281c	0.13980144
185	0x3e970bcb	0.29501185
186	0x3eb1fae3	0.34761724
187	0xbe8d2b78	-0.27572227
188	0x3ec370a8	0.38171887
189	0x3e399a9b	0.18125384
190	0xbe5c89ab	-0.21536891
191	0x3e64fe3c	0.22362608
192	0x3eb9d1ad	0.36292782
193	0x3ec74414	0.38919127
194	0x3e90121c	0.28138816
195	0x3ebbc614	0.3667456
196	0xbe537fe9	-0.20654263
197	0x3ec19e46	0.37816066
198	0x3e960396	0.2929961
199	0xbeab0deb	-0.33409056
200	0x3eb14025	0.3461925
201	0x3ead753f	0.33878514
202	0x3e6e241c	0.23255962
203	0x3e6466ce	0.22304842
204	0x3e84b78c	0.25921285
205	0x3ec19b8e	0.3781399
206	0x3ea75a44	0.32686055
207	0xbc44ff1a	-0.012023712
208	0x3e9ffaa6	0.31245917
209	0x3eb0c3fa	0.34524518
210	0x3e4f31c6	0.20233831
211	0x3eb775a2	0.35831934
212	0x3e7ff958	0.24997461
213	0x3e84b4c8	0.25919175
214	0x3eb96ecb	0.3621734
215	0x3eac9482	0.33707052
216	0x3ea89d41	0.32932475
217	0x3e97397f	0.29536054
218	0xbe69780b	-0.22799699
219	0xbbca2df0	-0.006170027
220	0xbcb6fa54	-0.022336163
221	0xbd18c644	-0.037298456
222	0x3e31fa4e	0.1738064
223	0xbe675c86	-0.22593889
224	0x3c97aa7c	0.01851391
225	0x3ebba83e	0.36651796
226	0x3c75b184	0.014995936
227	0x3ee74542	0.45170027
228	0x3e5a58d6	0.2132295
229	0x3eb8b138	0.36072707
230	0x3e3f0bdb	0.18656866
231	0x3eb1539e	0.34634107
232	0xbe66b7ad	-0.22531004
233	0x3ed46876	0.41485947
234	0x3ea69641	0.3253651
235	0xbe9d32d9	-0.30702856
236	0x3ebcb9fa	0.3686064
237	0x3ea2d7d4	0.3180529
238	0x3ea62755	0.32451883
239	0x3b596890	0.0033173896
240	0x3e830bd8	0.25594974
241	0x3ecf89e4	0.4053489
242	0x3e9b625b	0.30348477
243	0x3ed00e83	0.40636072
244	0x3e6f478b	0.23367135
245	0x3e83f868	0.25775456
246	0xbbdf6c70	-0.0068183467
247	0x3e3749cb	0.17899244
248	0x3e8bb248	0.27284455
249	0xbd0c87c6	-0.03430917
250	0xbea60d60	-0.3243208
251	0xbe7a4d89	-0.2444364
252	0x3ebae54c	0.36503065
253	0x3ef7fb32	0.48433834
254	0x3eb2f847	0.34955046
255	0x3ea17037	0.31530926

fc1.bias f4 [64]
0	0x3e9bdeba	0.30443364
1	0x3e98834e	0.29787678
2	0x3e8712ec	0.26381624
3	0x3e987ff6	0.29785126
4	0x3ea952e5	0.33071056
5	0x3e64cfe7	0.22344933
6	0x3e855dfc	0.26048267
7	0x3e8be7e2	0.2732535
8	0x3ea66df7	0.32505772
9	0x3e9fdf06	0.3122484
10	0x3e777b66	0.24168167
11	0x3e9465f4	0.28984034
12	0x3e92faef	0.28707072
13	0x3e9d57cc	0.30731046
14	0x3e80ac76	0.25131577
15	0x3e8eab7c	0.27865207
16	0x3e6dac5a	0.23210278
17	0x3e6be4af	0.23036455
18	0x3e994c6c	0.29941118
19	0x3e921905	0.28534713
20	0x3e808eee	0.25109047
21	0x3e7e1c85	0.24815567
22	0x3e9945fc	0.29936206
23	0x3e9a11e1	0.30091766
24	0x3e8546f4	0.26030695
25	0x3e88961b	0.2667702
26	0x3e9c26b3	0.30498275
27	0x3e8cdd34	0.27512515
28	0x3e6512a7	0.22370397
29	0x3e82551b	0.25455555
30	0x3e8ac60c	0.27104223
31	0x3e8615c8	0.26188493
32	0x3e738f09	0.23785032
33	0x3eafb7cc	0.34319913
34	0x3ebae5c3	0.3650342
35	0x3ea6f330	0.32607412
36	0x3e860097	0.26172325
37	0x3e878bff	0.26473996
38	0x3e933293	0.28749523
39	0x3e86c02c	0.2631849
40	0x3e8cd0b7	0.27502987
41	0x3e9c406f	0.3051791
42	0x3e4cde27	0.2000662
43	0x3e80d39c	0.25161445
44	0x3e9a91aa	0.30189258
45	0x3ebd7f46	0.37011164
46	0x3e84186c	0.25799882
47	0x3e912b4d	0.28353348
48	0x3e9eb5e6	0.30998152
49	0x3eb4d118	0.35315776
50	0x3e869bb5	0.2629067
51	0x3e80bb5f	0.25142953
52	0x3e870d76	0.26377457
53	0x3e95e4b0	0.29276037
54	0x3e6d800c	0.23193377
55	0x3e97b826	0.29632682
56	0x3e8239a0	0.2543459
57	0x3e99c009	0.30029324
58	0x3e981851	0.29706052
59	0x3e981b26	0.29708213
60	0x3e9f9c8c	0.31174123
61	0x3e94a532	0.29032284
62	0x3e56ae08	0.20964825
63	0x3e7e8a99	0.24857558

fc2.weight f4 [6, 64]
0	0x3eb456c0	0.35222435
1	0x3eb77f0a	0.3583911
2	0xbecc7edd	-0.3994054
3	0x3ec03ec7	0.37547895
4	0xbeec653c	-0.46170986
5	0xbef3541a	-0.47525102
6	0xbeec8ef6	-0.4620282
7	0xbeda5648	-0.42643952
8	0xbeec49b3	-0.46149978
9	0xbeb3719f	-0.35047624
10	0xbef36842	-0.4754048
11	0xbe7d751d	-0.24751706
12	0xbef65dc3	-0.4811841
13	0xbebd262f	-0.36943194
14	0xbec0868a	-0.37602645
15	0x3eab861b	0.33500752
16	0x3ed91ef3	0.42406425
17	0xbec9f394	-0.39443648
18	0xbebad635	-0.36491552
19	0x3eaccfb9	0.3375223
20	0x3eaee974	0.34162486
21	0xbeebeb79	-0.4607809
22	0x3ed6cf9e	0.41955274
23	0xbecffccc	-0.40622556
24	0xbedbfd7e	-0.42966837
25	0x3ea8d96b	0.32978377
26	0x3eab6625	0.33476368
27	0x3ec2265e	0.37919897
28	0x3ef3be62	0.47606188
29	0x3eb3bce2	0.35105044
30	0x3eda0d68	0.42588353
31	0x3eb78aca	0.35848075
32	0x3ec0c7a2	0.37652308
33	0xbedb8e1c	-0.42881858
34	0x3eaa8e97	0.33311912
35	0x3ed1fbe3	0.41012487
36	0x3eddb470	0.43301725
37	0xbec1eb99	-0.3787506
38	0x3e8cc1cf	0.27491614
39	0xbed6a527	-0.41922876
40	0x3ed1f8de	0.41010183
41	0x3e2c997b	0.16855423
42	0xbee38d4c	-0.44443738
43	0xbf036481	-0.5132523
44	0xbef4159e	-0.47672743
45	0xbedcd6d7	-0.4313266
46	0x3ead2154	0.3381449
47	0x3ecd35f0	0.40080214
48	0xbeaf7e03	-0.34275827
49	0xbed074e4	-0.4071418
50	0x3ed9d0f6	0.42542237
51	0xbec11eb5	-0.3771874
52	0xbef00094	-0.4687544
53	0xbed1f6c8	-0.41008592
54	0x3f20fb0b	0.6288306
55	0x3eb6d523	0.35709485
56	0xbed1bebc	-0.4096583
57	0xbee2297a	-0.4417227
58	0x3e7c7337	0.24653326
59	0xbede6f31	-0.43444207
60	0x3ec47907	0.38373587
61	0x3ea051d7	0.3131244
62	0xbec3e8db	-0.38263592
63	0xbec7ad21	-0.38999274
64	0x3eadbee4	0.339347
65	0x3ec35660	0.38151836
66	0x3ec0a0d2	0.37622696
67	0xbebeecaf	-0.3728995
68	0x3ea185fe	0.3154754
69	0xbeb5a7be	-0.3547954
70	0x3eafacd5	0.34311548
71	0xbee9f5d5	-0.45695367
72	0xbeed6eed	-0.46373692
73	0x3ea5bbe6	0.32369918
74	0x3e5452f5	0.2073477
75	0xbe9889a0	-0.297925
76	0x3ed39dae	0.41331238
77	0xbebe29b7	-0.371412
78	0x3e970c55	0.29501596
79	0x3eaad070	0.3336215
80	0xbebb8cbd	-0.36630812
81	0xbeb1893d	-0.34675017
82	0xbeb16932	-0.3465057
83	0x3e5c9713	0.21542005
84	0xbede5caf	-0.43430087
85	0xbe84a7ad	-0.25909176
86	0xbec1bea3	-0.37840757
87	0x3e96f453	0.2948328
88	0xbec93fbf	-0.39306447
89	0xbed05bec	-0.4069513
90	0x3ee2e296	0.44313496
91	0xbecf3e00	-0.4047699
92	0x3ebd5c21	0.3698435
93	0xbeb6231c	-0.3557366
94	0xbee8147d	-0.4532813
95	0x3ecb530b	0.39711794
96	0xbee425fd	-0.44560233
97	0xbed54c08	-0.4165957
98	0x3eb9eeb3	0.36314926
99	0x3e8e95f8	0.27848792
100	0xbed4ac0a	-0.41537505
101	0xbe9351be	-0.28773302
102	0xbef331da	-0.4749897
103	0xbeadbbb9	-0.33932284
104	0x3ed8e751	0.4236398
105	0x3eb24fe4	0.34826577
106	0x3e9c3628	0.30510068
107	0x3eba3f5c	0.36376464
108	0x3ee82fac	0.4534887
109	0x3ec74ba8	0.3892491
110	0xbef54d0d	-0.47910348
111	0x3eba887b	0.3643225
112	0x3ede32e7	0.4339821
113	0xbe906528	-0.28202176
114	0xbebcc19c	-0.36866462
115	0xbecc1532	-0.3985992
116	0xbed669c9	-0.41877583
117	0xbecae648	-0.39628816
118	0x3ec14740	0.37749672
119	0xbecac507	-0.39603445
120	0xbeab6055	-0.33471933
121	0x3edb6fc3	0.42858705
122	0xbeea7f0c	-0.45800054
123	0x3ee5ffd9	0.4492176
124	0xbecc4d13	-0.39902553
125	0x3eae8d30	0.34092093
126	0xbebacdbb	-0.36485085
127	0xbeee01ae	-0.46485656
128	0x3ef114c5	0.47086158
129	0xbef0e348	-0.47048402
130	0xbeaf5c01	-0.3424988
131	0x3ec74a00	0.38923645
132	0x3eb602ca	0.35549003
133	0xbea7ecfb	-0.3279799
134	0x3eaa1754	0.33220923
135	0x3ee5196b	0.44745955
136	0x3eb6be0b	0.35691866
137	0xbea46054	-0.32104743
138	0xbea30193	-0.3183714
139	0xbe95ac81	-0.29233173
140	0xbe7c451b	-0.24635737
141	0xbed21949	-0.41034916
142	0xbeea3ff8	-0.4575193
143	0xbed72a21	-0.4202433
144	0xbed14e82	-0.4088021
145	0xbe7ad41f	-0.2449498
146	0x3ec4cede	0.38439077
147	0xbebbd4d3	-0.3668581
148	0x3ebc0680	0.3672371
149	0xbe836c2c	-0.25668466
150	0x3ecf0203	0.40431222
151	0x3c49d25d	0.012318221
152	0xbed199a8	-0.40937543
153	0xbeda4dda	-0.4263752
154	0x3ec69815	0.38787904
155	0x3ed66cff	0.41880032
156	0xbf010c0a	-0.50408995
157	0xbecd1db1	-0.40061715
158	0xbeb8d2a2	-0.360982
159	0xbee54c33	-0.44784698
160	0xbedb5f31	-0.42846063
161	0x3ee6f657	0.45109817
162	0x3ec0141c	0.37515342
163	0xbed35af7	-0.41280338
164	0xbee699a7	-0.45039102
165	0xbeaf9dc7	-0.34300062
166	0x3eb7ab7e	0.35873026
167	0xbe922463	-0.28543386
168	0xbee5de49	-0.44896153
169	0xbeaad98f	-0.3336911
170	0xbf38df41	-0.7221566
171	0x3eb93ccf	0.36179206
172	0xbed835c5	-0.42228523
173	0x3eae5506	0.34049243
174	0x3eb79fcf	0.35864112
175	0xbea58132	-0.3232513
176	0xbed2adda	-0.41148263
177	0x3ebbecb1	0.3670402
178	0xbec0eef6	-0.37682313
179	0xbed56fbd	-0.41686812
180	0x3ee76825	0.45196643
181	0xbeabb39a	-0.33535463
182	0xbf125310	-0.57157993
183	0xbeb67e78	-0.35643363
184	0x3ebab6ff	0.3646774
185	0xbeeca45d	-0.4621915
186	0x3ece9c60	0.4035368
187	0xbebd8dcb	-0.37022242
188	0xbeab9f53	-0.33519992
189	0x3ed6ac30	0.41928244
190	0xbd93dccb	-0.07219847
191	0x3ec5b7d8	0.38616824
192	0xbeafd3d7	-0.34341308
193	0xbec2e83e	-0.38067812
194	0xbeaa6856	-0.33282727
195	0x3eb73eb7	0.35790035
196	0xbed6dfa2	-0.41967493
197	0x3ed91f4e	0.42406696
198	0xbec231d3	-0.37928638
199	0x3eab7b0a	0.3349231
200	0xbed0e869	-0.40802315
201	0xbeaa1097	-0.33215782
202	0x3ec7d957	0.39033005
203	0xbe85abbd	-0.26107588
204	0x3ed6b1a7	0.41932413
205	0xbeceb654	-0.4037348
206	0xbe9c0e5e	-0.3047971
207	0x3e9f2915	0.3108603
208	0x3e6d9cbc	0.2320432
209	0x3eeca6ad	0.46220914
210	0xbea9a678	-0.33134818
211	0x3eaf80c8	0.3427794
212	0x3ea24d22	0.31699473
213	0x3ef1b430	0.47207785
214	0xbecd189b	-0.40057835
215	0x3ed002ef	0.40627238
216	0xbec885c1	-0.39164546
217	0xbefe771a	-0.49700242
218	0xbed6c8d7	-0.41950104
219	0xbee46e37	-0.44615337
220	0xbed10a4f	-0.40828177
221	0x3ed6936e	0.41909355
222	0x3eceb549	0.40372685
223	0x3eaaf8bf	0.33392903
224	0x3e88f3ea	0.26748592
225	0xbea4cade	-0.32186025
226	0xbee7e45f	-0.4529142
227	0xbed5f154	-0.4178568
228	0x3ecdcc28	0.4019482
229	0x3e9a8626	0.30180472
230	0x3ea844b2	0.3286491
231	0x3ec2c297	0.38039085
232	0xbee0acfe	-0.43881983
233	0x3eadd2b9	0.3394983
234	0xbec003ae	-0.37502807
235	0xbea85527	-0.32877466
236	0x3ec28209	0.37989834
237	0xbecc5a2a	-0.3991254
238	0x3ea2b85b	0.31781277
239	0x3ebae00a	0.36499053
240	0xbeb21b14	-0.34786284
241	0x3ec891bd	0.3917369
242	0x3ec299f2	0.38008076
243	0xbeb0a296	-0.34499043
244	0xbec4711f	-0.38367555
245	0x3ea04adf	0.31307122
246	0xbed91501	-0.42398837
247	0x3ec24fcb	0.37951502
248	0xbea3b034	-0.3197037
249	0xbea926a4	-0.33037293
250	0x3eb36576	0.35038346
251	0x3ebb6164	0.3659774
252	0xbece78a9	-0.4032643
253	0xbef57fcd	-0.47949067
254	0x3ec3d8b7	0.38251278
255	0xbeb2a051	-0.34887937

fc2.bias f4 [6]
0	0xbdc58d61	-0.096461065
1	0x3c0ae790	0.00847806
2	0x3e26b643	0.16280465
3	0xbec28f3d	-0.37999907
4	0x3da963ed	0.082710125
5	0xbe52e34e	-0.20594522
