python_stuffs/model_code/pytorch_models/category_predictor_model.pth (torch, 294599 bytes, 4 tensors)

fc1.weight f4 [128, 563]
000000 fb 50 13 be 71 11 45 be 2f 3a 14 be b9 3b 20 3e
       -0.1438636 -0.19244935 -0.1447532 0.15647782
000010 01 8f 5b be b5 d5 b8 bd 39 af ff bc 64 58 8a be
       -0.2144127 -0.090251364 -0.031211482 -0.27020562
000020 8c 93 0b 3d 4d 55 0b be 04 c6 87 3e 6d a7 39 be
       0.03407626 -0.13606758 0.2651826 -0.18130274
000030 1b e6 69 3e 84 3f fc bd 40 e1 b3 be c5 7a 47 3e
       0.22841685 -0.12316802 -0.3513279 0.19480427
000040 e4 d7 ef bd a0 cb 7d 3c 2f d8 85 3e 5a a6 ba bc
       -0.117111 0.0154904425 0.26141497 -0.0227844
000050 d6 7d 7c bc 14 0b db bd 42 4e 9d 3e 9c 09 18 be
       -0.015410861 -0.10695472 0.30723768 -0.14847416
000060 cc e5 39 3c b2 1b 1c be 53 ea da be 2b 20 1f be
       0.011346292 -0.1524494 -0.427569 -0.15539615
000070 60 9c 7a 3b 31 df 4f be 8f 89 27 bd 46 4c 9e 3e
       0.003824018 -0.20299985 -0.04090267 0.30917567
000080 7a 7f 25 3d 90 8c 9d 3e c9 9e 45 3e 7d dd 23 3e
       0.040404774 0.30771303 0.19298853 0.1600246
000090 95 72 84 3e 34 65 90 3e 17 ad 2e be aa c2 25 3e
       0.2586867 0.28202212 -0.17058216 0.1618754
0000a0 3b e1 67 3e e8 d6 97 bb 7a b0 6c 3e fd 07 3d 3e
       0.22644512 -0.004633773 0.23114195 0.18460079
0000b0 db 19 61 be 94 24 33 3e 30 ad 5a 3e be 68 12 be
       -0.2198252 0.17494422 0.21355128 -0.14297768
0000c0 cd c0 65 3e ac fb 37 3e 3b 6a 36 3e 34 51 af be
       0.22436829 0.17967099 0.17813961 -0.3424164
0000d0 71 c3 12 be 76 14 3d be 1a 47 87 3e 7b d3 05 be
       -0.14332367 -0.18464836 0.26421434 -0.13068955
0000e0 90 74 d7 bc f1 fe 91 3e 06 3c 8b bd ce cd 94 3e
       -0.026300699 0.28514817 -0.06798558 0.29063267
0000f0 3f 47 8a 3e 1e 4e a3 3c 8d fa 66 3e df 8e a4 3e
       0.2700748 0.01993471 0.22556515 0.32140252
000100 ea c8 9c 3e 60 a5 45 be 27 7f a0 3e fc d1 4a be
       0.30622035 -0.19301367 0.3134701 -0.19806665
000110 0f 0b 35 3e 74 bc 9f 3e f3 38 64 be 13 e1 5f be
       0.1768 0.31198466 -0.2228735 -0.21863203
000120 8a f0 1b be 03 8c 94 3e 3e 84 75 3e d6 77 45 be
       -0.15228477 0.2901307 0.23976228 -0.19283995
000130 50 29 3d 3e 54 ff f9 bc c6 0b b7 bd c6 07 36 be
       0.1847279 -0.030517258 -0.089377925 -0.17776403
000140 db df d7 be c6 be 13 be c8 c6 2d 3e 9b 7b a3 3e
       -0.42162976 -0.14428243 0.1697036 0.3193024
000150 dc 6a 62 3e 75 c5 94 3e 59 30 d8 bd e0 0c aa 3e
       0.22111076 0.29056898 -0.105560966 0.33212948
000160 4a 4c 62 3e 8f df 40 3e db a0 3c 3e 2f 79 4e 3e
       0.22099414 0.18835281 0.18420736 0.20163415
000170 44 f1 31 3e cc bb 9f bd 77 4a 9f 3e a2 02 75 be
       0.17377192 -0.07799491 0.311115 -0.23926786
000180 c8 35 9a 3e 4f ef 7e 3e 64 64 a6 3e 1b ef 8c 3e
       0.30119157 0.24895976 0.32498467 0.27526173
000190 32 a9 90 3e ca bf 2a be f7 4c 1e be ee 43 9a 3e
       0.28254086 -0.16674724 -0.15459047 0.3012995
0001a0 7c ea 6d 3e ad 8e 58 3e c2 ee 21 3d 2a 71 93 3e
       0.2323398 0.21148176 0.039534338 0.28797275
0001b0 89 aa 09 be 80 22 4f be 0a 89 17 be 80 a2 4e 3e
       -0.1344396 -0.20228004 -0.1479837 0.20179176
0001c0 fb cb c0 bd 65 83 9c 3e fb f2 87 3e 52 ed 4a be
       -0.09413906 0.30568996 0.26552567 -0.19817093
0001d0 ce 84 89 3e 5e a5 18 3d 74 63 aa bd 9b 4b 4e 3e
       0.26859134 0.03726708 -0.083197504 0.20146029
0001e0 df 6c 8a 3e 8b 68 10 be 6f 67 49 be c0 ad 2c 3e
       0.27036187 -0.1410238 -0.19668363 0.16863155
0001f0 13 25 0a be e8 54 f9 3c c5 83 89 3e 1a 80 8a 3c
       -0.13490705 0.030435994 0.26858345 0.016906787
000200 77 ae 61 3e b8 82 9f 3e b7 37 4f be 31 64 e2 bd
       0.2203921 0.31154418 -0.20236097 -0.11054266
000210 52 46 90 3e b5 ee 71 be 04 17 ba bc 05 ae 8f 3e
       0.2817865 -0.23626216 -0.022716053 0.28062454
000220 dc cc 4b 3c 8a cc 8d 3e 58 94 c8 bd 68 f4 a2 3e
       0.012438979 0.27695113 -0.09793919 0.31827092
000230 30 61 54 bc 95 68 9d 3e 89 6e e2 bc d4 2f 37 3e
       -0.012962624 0.30743852 -0.027640598 0.17889339
000240 9a 57 1c 3d 9d 4c 98 3e 22 fe a4 3e ef 65 5e 3e
       0.03816948 0.2974595 0.32225138 0.21718572
000250 c2 40 df bc 7a 80 ae be e7 b4 80 3e b6 b5 1d bd
       -0.027252559 -0.34082395 0.25138018 -0.03850337
000260 85 64 be bd 58 58 97 bd da d9 23 be 1c ab 5f be
       -0.09296516 -0.07389897 -0.16001073 -0.21842617
000270 31 67 47 3e 78 da 86 be f5 30 a5 be 0e 9c 5a be
       0.19472958 -0.26338553 -0.32263914 -0.21348593
000280 2f d8 ae 3d 72 37 33 be 14 a6 e4 bd ae 61 31 be
       0.085373275 -0.1750162 -0.111644894 -0.17322418
000290 62 11 6d 3e 81 bf 96 be ba ff e5 bc 18 66 d6 3c
       0.23151162 -0.2944298 -0.028076041 0.026171729
0002a0 93 67 21 3e 04 09 59 3e 8f 4d 37 3e ee 56 c8 bc
       0.15762167 0.21194845 0.1790068 -0.024455514
0002b0 de fb 89 3c 38 9c e6 3b 9b e3 4b be 48 6f 7d 3c
       0.016843732 0.0070376657 -0.19911043 0.015468426
0002c0 df ad 3d 3e db a2 99 3e ff 23 a9 3e 9e 3b 1d 3d
       0.18523358 0.3000706 0.33035275 0.038386934
0002d0 cb 99 17 bd f2 3f a9 bc 04 51 b1 3e 6a 6c 96 3e
       -0.037011903 -0.020660374 0.34632123 0.29379588
0002e0 e4 09 10 be 7a 46 8a 3e 02 67 0f 3d 1c 5c 03 be
       -0.14066273 0.27006894 0.035010345 -0.12828106
0002f0 83 ed c6 bd 18 d9 d3 bd fc e6 d7 bd 92 bd 20 be
       -0.097132705 -0.10344142 -0.10542104 -0.15697315
000300 09 f2 42 3e 48 07 c9 3c d6 83 bb bd a3 7c a5 bd
       0.19037642 0.024539605 -0.09156005 -0.08080413
000310 09 9d 58 bd 71 01 70 be 6d 22 48 be cd 0f 0e be
       -0.052884135 -0.2343805 -0.19544382 -0.13873215
000320 f9 62 60 be a6 30 96 bd e8 e3 69 3e c8 73 25 3e
       -0.21912755 -0.07333498 0.22840846 0.16157448
000330 61 6a 05 3e d1 56 20 be 10 da 82 be ba ec 9d 3e
       0.13028862 -0.15658118 -0.25556993 0.3084467
000340 02 cd 2f be 3c 88 f3 3c 27 e6 53 3e 17 19 22 be
       -0.17168048 0.029728048 0.20693265 -0.15829884
000350 4c b1 cd bd 93 a4 9f be 31 b8 5c 3e 88 95 23 bd
       -0.10043582 -0.31180248 0.21554638 -0.039937526
000360 83 97 72 be 27 3c be 3e 8c ef 32 3e ed d6 70 3e
       -0.2369061 0.37155268 0.17474192 0.23519488
000370 ac 6a bb 3e ca 4a dc 3e da ea 97 3e 43 d0 96 3e
       0.36604822 0.4302581 0.29671365 0.29455766
000380 2b 0c 90 bc 80 b2 aa 3e 80 a0 89 3e e4 71 b5 bd
       -0.017583927 0.3333931 0.26880264 -0.088596135
000390 2c 0c d2 bd 48 7c ac 3e c8 2e 85 3e b8 ac 6b be
       -0.10256228 0.3368857 0.26012254 -0.23015106
0003a0 a6 49 40 3e 22 0f b2 bc 6f 58 4a be 13 cf bc bd
       0.18778095 -0.021735732 -0.19760297 -0.09219184
0003b0 c0 3a 84 3e ce ca 71 3e cb 6f 3f be 79 80 9b be
       0.25826073 0.2361252 -0.1869499 -0.30371454
0003c0 00 18 98 3e 3f 3a 9b 3e 17 f8 23 be 48 72 75 3c
       0.2970581 0.30317876 -0.16012608 0.01498086
0003d0 2c 2b 5a be 51 fd 6d be fa ac 95 3e 3a 2c 1d 3e
       -0.21305531 -0.23241164 0.29233533 0.15348902
0003e0 dc 4e 40 be 2b df 87 be e7 25 75 3e 12 c0 5b be
       -0.18780082 -0.2653745 0.2394024 -0.21459988
0003f0 78 a2 8b 3e 59 14 a1 be 90 70 b3 bd ab b6 91 3e
       0.2727239 -0.31460837 -0.08761704 0.28459677

fc1.bias f4 [128]
000000 87 7f 60 3e 3a 7d 2f 3e 1f fb 4f 3e bc eb 74 3e
       0.21923648 0.17137614 0.20310639 0.2391805
000010 60 2b 57 3e 73 a8 74 3e 4a c4 6d 3e 1c 14 90 3e
       0.2101264 0.23892383 0.2321941 0.28140342
000020 5a 3b 78 3e a7 08 84 3e 14 c1 7c 3e 60 ef 57 3e
       0.24241391 0.2578785 0.24683028 0.21087408
000030 41 c0 90 3e 32 01 98 3e 31 ec 66 3e d4 01 92 3e
       0.28271678 0.29688412 0.22551037 0.2851702
000040 c0 2c 52 3e 97 21 63 3e 81 26 8f 3e a0 68 d0 bd
       0.20524883 0.22180782 0.27959064 -0.10176206
000050 45 34 63 3e 93 cb 84 3e 49 b7 4d 3e cf e3 85 3e
       0.22187908 0.25936565 0.20089449 0.26150367
000060 cb 95 30 3e 22 67 8d 3e 4e 25 98 3e 2b 72 88 3e
       0.17244641 0.27617747 0.2971596 0.26649603
000070 78 9d 99 3e 93 78 85 3e 33 07 a6 3e d7 28 6e 3e
       0.30002952 0.26068553 0.32427368 0.23257767
000080 ad 77 83 3e d5 49 59 3e 13 62 87 3e a3 4d 78 3e
       0.25677243 0.21219571 0.26442012 0.24248366
000090 a4 ba 50 3e 94 6b 97 3e 61 cf 88 3e c0 81 8b 3e
       0.20383698 0.29574263 0.26720718 0.2724743
0000a0 0d 9a 73 3e 77 be 88 3e b1 1d a2 3e e8 85 7f 3e
       0.23789234 0.26707813 0.31663278 0.24953425
0000b0 7f a7 99 3e 2a 36 7f 3e 80 32 82 3e 1c 42 3e 3e
       0.30010602 0.24923006 0.25429153 0.18579906
0000c0 0e 1d b6 3e 64 3b 27 3e 6b e8 59 3e ee 56 60 3e
       0.35569042 0.1633125 0.21280067 0.21908161
0000d0 53 7e 6b 3e 6d f9 80 3e cf ef 65 3e 3b 75 81 3e
       0.22997408 0.25190297 0.22454761 0.25284752
0000e0 51 20 90 3e 94 58 87 3e d3 b2 71 3e 69 27 88 3e
       0.28149655 0.26434767 0.23603372 0.26592568
0000f0 9b f6 6c 3e 73 40 49 3e d7 61 83 3e 26 de 91 3e
       0.23140948 0.19653492 0.25660583 0.28489798
000100 32 85 58 3e 7c 04 57 3e a1 8a 46 3e 40 d7 45 3e
       0.2114456 0.20997804 0.1938882 0.19320393
000110 80 33 7d 3e 18 e1 67 3e 35 d6 1c 3e a0 60 85 3e
       0.24726677 0.2264446 0.15316088 0.26050282
000120 1b 55 73 3e 77 be 88 3e 16 d2 8d 3e 40 22 67 3e
       0.23762934 0.26707813 0.27699345 0.22571659
000130 a5 b3 7c 3e bc 3b 82 3e 4c 12 b7 3e 3a ed 65 3e
       0.24677904 0.254362 0.35756147 0.22453776
000140 c8 43 3d 3e b2 b4 5f 3e 30 32 2d 3e 92 83 89 3e
       0.18482888 0.21846274 0.16913676 0.26858193
000150 5f fa 97 3e f5 3b 68 3e 17 ed 84 3e ee 34 8c 3e
       0.29683205 0.22679122 0.25962135 0.27384132
000160 b2 68 87 3e 63 4e 70 3e bb ab 28 3e 4e 8d 79 3e
       0.26447064 0.23467402 0.1647176 0.2437031
000170 ac 3b 36 3e 6c e2 5c 3e 63 3d 81 3e 32 8c 56 3e
       0.177962 0.21570748 0.25242147 0.20951918
000180 75 b7 70 3e 5a 72 ad 3e c5 4f ab 3e f7 7a 37 3e
       0.23507483 0.33876306 0.33459297 0.17918001
000190 4c cb 59 3e fa 22 6e 3e 5e 5b 60 3e 3f 6c 71 3e
       0.21268958 0.2325553 0.21909854 0.23576449
0001a0 2f bf 2e 3e 8c 50 62 3e 46 1d 7c 3e fe 70 4d 3e
       0.17065118 0.22101039 0.24620542 0.20062634
0001b0 f4 1b 83 3e a4 ca 7b 3e 1f 84 87 3e fe 3e 52 3e
       0.25607264 0.2458902 0.26467988 0.20531842
0001c0 62 25 42 3e 07 b5 78 3e a3 fb 63 3e 4b 9d 28 3e
       0.18959573 0.24287806 0.2226396 0.16466253
0001d0 f1 c2 9e 3e 21 4d 5f 3e 4a 09 74 3e 1a bb 50 3e
       0.31008103 0.21806766 0.23831668 0.20383874
0001e0 e2 56 8b 3e 32 0d 5d 3e 22 c9 51 3e 2c 02 92 3e
       0.27214724 0.21587065 0.20486882 0.28517282
0001f0 5b 34 48 3e 37 65 61 3e 48 21 44 3e fa f0 7b 3e
       0.19551222 0.22011267 0.19153321 0.24603644

fc2.weight f4 [6, 128]
000000 c0 8b a2 be 7e 4a 84 3e b8 40 b2 be 89 8d 9e 3e
       -0.31747246 0.25838083 -0.34815 0.30967358
000010 e5 77 a2 3e 8b eb 98 3e 19 25 ae 3e 68 ab a0 3e
       0.31732097 0.29867205 0.34012678 0.31380773
000020 97 de a6 3e 79 1c ab 3e 60 6c ad be f6 e3 97 be
       0.32591698 0.3342016 -0.33871746 -0.29666108
000030 25 27 98 3e 17 1b ba be 5e 0a c8 3e b7 88 aa be
       0.29717365 -0.36348793 0.3907041 -0.3330743
000040 7a 84 b6 be 21 1c b0 3e c3 37 96 3e 9f 34 0d be
       -0.35647947 0.3439646 0.29339418 -0.13789605
000050 aa 52 ac 3e 6f 7d 9a be aa 98 97 be 9f d1 93 3e
       0.33656818 -0.30173823 -0.2960866 0.28870866
000060 3d 33 af 3e 4e 9f 8a 3e 88 21 98 3e bd b0 bd be
       0.3421878 0.27074665 0.29713082 -0.37048903
000070 19 76 9f be 1a c5 9e be c9 ed 95 3e 3c e1 b3 be
       -0.3114479 -0.31009752 0.29282978 -0.35132778
000080 67 5d aa 3e 20 c2 9d 3e 74 93 99 be d9 a1 ae 3e
       0.33274385 0.30812168 -0.2999531 0.34107855
000090 b6 33 c2 be 4d 03 9d 3e 92 18 93 3e f1 25 9b be
       -0.37930077 0.3066658 0.28729683 -0.30302384
0000a0 40 f8 a8 be 22 91 9b 3e f7 e7 a6 be 92 04 a6 be
       -0.330019 0.30384165 -0.3259885 -0.32425362
0000b0 96 8e ab 3e b6 2a ba be 6c f6 b4 3e 36 15 92 3e
       0.33507222 -0.3636071 0.35344255 0.28531808
0000c0 c3 ea c0 be 27 ba a0 be a0 cc 9f 3e e0 55 97 be
       -0.3767911 -0.31392023 0.31210804 -0.29557705
0000d0 a6 43 b5 3e 0a c6 b6 be cc 2b 91 be d1 b6 a7 3e
       0.35403174 -0.35697967 -0.28353727 0.32756665
0000e0 d7 4b a0 be fb 28 86 3e ae 09 8a 3e 06 56 bd be
       -0.3130786 0.2620314 0.2696051 -0.36979693
0000f0 a1 6c 98 3e 59 31 a6 be 24 63 b1 be 5e 20 9d be
       0.29770377 -0.32459524 -0.3464595 -0.30688757
000100 a4 19 aa 3e 76 02 8e 3e 19 54 c6 be 96 da 99 be
       0.33222687 0.27736253 -0.38736036 -0.3004958
000110 49 73 a5 be ab c2 93 be 5d c3 bc 3e 2f e8 9e be
       -0.32314518 -0.28859457 0.368678 -0.31036517
000120 12 f6 aa be a3 bb 8f 3e bc 73 a2 3e fe a5 88 be
       -0.33390862 0.28072843 0.31728923 -0.26689142
000130 77 4a 9d be 5d ed a0 be b0 83 98 be b2 51 98 3e
       -0.30720875 -0.31431094 -0.2978797 0.2974983
000140 fc db ab be b9 98 8e 3e 36 e1 a3 be e8 51 b3 be
       -0.33566272 0.27850893 -0.3200776 -0.35023427
000150 e7 b1 c1 be 45 52 a5 be f1 e6 8a 3e df 1f a4 be
       -0.3783104 -0.3228933 0.2712932 -0.32055566
000160 1d 28 91 3e e1 76 89 be 2f 7a 92 be b9 24 aa 3e
       0.28350917 -0.2684851 -0.28608844 0.33231142
000170 be 53 b1 be de 91 a7 3e cf 9e bc be f2 17 b7 be
       -0.34634203 0.32728475 -0.3683991 -0.35760456
000180 55 cc bc be 83 85 b6 be c3 32 af be 42 29 ab 3e
       -0.36874643 -0.35648736 -0.34218416 0.33429915
000190 ca 88 d0 be 20 cf 9c be 14 2e 91 3e 88 bb a2 be
       -0.40729362 -0.30626774 0.28355467 -0.317837
0001a0 ba 5f 98 3e ae e5 9a 3e f6 b3 a3 be db bf 83 3e
       0.29760534 0.30253357 -0.31973237 0.25732312
0001b0 49 30 a9 be 24 56 ad 3e c5 a6 80 be 94 3f a5 be
       -0.3304465 0.33854783 -0.25127235 -0.3227507
0001c0 66 e5 af be 66 fc 93 3e 20 20 a2 be 2c 33 80 3e
       -0.34354705 0.28903502 -0.31665134 0.2503904
0001d0 0a 34 87 be 14 45 91 be 7e 0f 9b 3e 46 a4 8e be
       -0.2640689 -0.28373015 0.30285257 -0.27859706
0001e0 70 ec 8c be cf cd 93 be a3 25 b4 be 96 2f 9b be
       -0.27524137 -0.28867957 -0.35184965 -0.30309743
0001f0 71 de ad 3e 72 af ae 3e ed d9 9e 3e 47 38 b3 be
       0.33958772 0.3411823 0.3102564 -0.35003874
000200 52 50 a9 3e 59 b7 91 be 7f cb 7e be a2 60 99 be
       0.33069092 -0.28460196 -0.24882315 -0.29956537
000210 28 cf 7f be 75 22 88 be 91 5e 71 be b1 39 b6 be
       -0.24981368 -0.2658879 -0.2357123 -0.3559089
000220 54 7b a5 be 0d 69 a9 3e dd 05 74 be d7 d9 a7 be
       -0.32320654 0.3308796 -0.23830362 -0.32783386
000230 07 5f a5 3e 95 06 a7 3e a1 0e ad 3e e3 af a5 3e
       0.32299063 0.3262221 0.33800223 0.32360753
000240 0c b1 6d 3e e5 c8 9b be a3 6d b0 be c0 be 07 be
       0.2321207 -0.30426708 -0.34458646 -0.13256359
000250 8f f5 82 3e 5c 79 a9 be f4 c8 ad 3e bd 52 87 be
       0.2557797 -0.33100402 0.33942378 -0.26430312
000260 f0 ca 99 be 93 6a bd be dd c7 5a be 8d bd a1 be
       -0.30037642 -0.36995372 -0.21365304 -0.31589928
000270 67 ad b0 3e 26 b0 84 3e 41 f9 9d be 47 00 8d 3e
       0.34507295 0.2591564 -0.30854228 0.27539274
000280 76 8e ae be eb 3f 9c be ad 06 97 3e 12 44 71 3e
       -0.34093064 -0.30517516 0.2949728 0.23561123
000290 bf 49 a6 be ac 06 ad 3e 7b 59 bd 3e 85 cf 8f be
       -0.3247814 0.33794153 0.3698233 -0.28088012
0002a0 95 7f a6 3e 76 8c a4 3e 75 8e 9f 3e d7 b1 aa be
       0.32519212 0.32138413 0.31163374 -0.33338806
0002b0 27 5b 39 be a5 ae 8e be 23 8b b3 be ea cb a9 3e
       -0.18101178 -0.27867618 -0.3506709 0.33163387
0002c0 83 ee 99 be e8 19 a8 be e3 1a 8f be 97 42 9b 3e
       -0.30064783 -0.32832265 -0.279502 0.30324242
0002d0 36 92 86 be 15 72 9d 3e a6 df a0 be 10 f5 8c be
       -0.26283425 0.307511 -0.3142063 -0.27530718
0002e0 9b 0b 9e be e7 1c 88 be cc 17 a6 be 20 23 90 3e
       -0.3086823 -0.2658455 -0.3244003 0.28151798
0002f0 20 f3 b3 be 6b 83 8b be ac bc a0 3e 2a 1f 91 be
       -0.35146427 -0.272487 0.31393945 -0.2834409
000300 6a 88 8f 3e 71 f2 b6 be 7e 9b 9c be ca 66 89 3e
       0.28033763 -0.35731843 -0.3058738 0.26836234
000310 3f 72 7f 3e 0e b7 95 be 26 90 9a be f5 2e ba be
       0.24945925 -0.29241222 -0.30188102 -0.3636395
000320 f0 a5 94 3e 1f f0 9d 3e 09 a6 a9 be 98 ba 84 be
       0.2903285 0.3084726 -0.33134487 -0.2592361
000330 ad cc 9e 3e 2c 5b b3 be c3 92 92 3e 91 ac a2 3e
       0.3101553 -0.35030496 0.28627595 0.31772283
000340 47 b0 c0 be 3f 72 a0 be db fc 73 be be a4 a9 3e
       -0.3763449 -0.31337163 -0.23826925 0.331335
000350 d5 26 7a 3e 38 81 ab be cc 7e 93 3e 2b 38 a5 3e
       0.24428876 -0.33497024 0.28807676 0.32269415
000360 8d a1 ac 3e 2d 59 8c 3e 3a 2c ae 3e 82 c0 b0 3e
       0.33717003 0.27411786 0.34018117 0.34521872
000370 1a ef 92 be dd 91 af be 42 e8 72 be e7 cb b1 be
       -0.28698045 -0.34290972 -0.23721412 -0.34725878
000380 25 66 8f 3e 99 27 8c be 1b 41 92 3e ff 2d 89 be
       0.28007618 -0.2737396 0.28565297 -0.26792905
000390 2f 24 a0 be 19 15 8b 3e 56 7b 9b be 5a 41 85 be
       -0.31277606 0.27164534 -0.30367535 -0.26026422
0003a0 3f 2b 9a 3e dd 02 84 be 4c 21 7b 3e fc 97 95 be
       0.3011112 -0.25783435 0.2452442 -0.29217517
0003b0 74 0a a3 3e 11 71 ac 3e 8a 97 56 be 22 b6 ce be
       0.31843913 0.33680013 -0.20956245 -0.4037333
0003c0 09 0f 77 be 1b ca a9 3e 55 d2 ac 3e c7 d2 9a be
       -0.24126829 0.33162007 0.3375422 -0.30238935
0003d0 5d a1 bb 3e 79 2d 8b be ba bc 90 be 6d d3 94 3e
       0.36646548 -0.2718313 -0.28268987 0.29067555
0003e0 89 e1 b1 3e 29 1c bf be 4f 60 a5 3e c1 5a b5 be
       0.34742382 -0.37326172 0.3230004 -0.35420802
0003f0 71 bb ac 3e b5 a0 91 3e 3f 04 7e be 77 f4 9f be
       0.33736756 0.28442922 -0.24806307 -0.312412

fc2.bias f4 [6]
000000 f1 b4 70 3c 71 4c 05 3e af e3 47 3e 34 b7 61 be
       0.014691577 0.13017441 0.19520448 -0.22042543
000010 a7 d5 a7 3d b6 23 2c be
       0.08195048 -0.16810498
