python_stuffs/model_code/pytorch_models/category_predictor_model.pth (torch, 293575 bytes, 4 tensors)

fc1.weight f4 [128, 561]
0	0x3e5ea10f	0.21741126
1	0x3e3a300d	0.18182392
2	0x3e2507ae	0.16116211
3	0xbe5ffb97	-0.21873318
4	0xbe50c6fe	-0.2038841
5	0x3d816bf3	0.06319418
6	0xbe5179e7	-0.20456658
7	0xbe81fbc7	-0.25387403
8	0x3ce01cfc	0.02735757
9	0x3e2d23f7	0.16908251
10	0xbd095ef2	-0.033537813
11	0xbe4c2dd4	-0.19939357
12	0xbcf198b2	-0.029491756
13	0xbd8a8d03	-0.06765177
14	0x3cf4bf03	0.029876238
15	0xbe0d5069	-0.13800205
16	0x3e698c76	0.22807488
17	0x3d17bc2c	0.03704469
18	0xbdf5101b	-0.119659625
19	0x3e9db9d2	0.30805832
20	0xbad40000	-0.0016174316
21	0x3e23c940	0.1599474
22	0x3e69a689	0.22817434
23	0x3e2d767d	0.16939731
24	0x3eb971ad	0.3621954
25	0x3e773105	0.24139793
26	0x3ea1178e	0.31463283
27	0x3e8eec02	0.27914435
28	0x3e41956c	0.18904656
29	0xbe4911ef	-0.19635747
30	0xbd03a932	-0.03214378
31	0xbdec2ad8	-0.11531609
32	0xbe72dfdb	-0.23718207
33	0xbe668eba	-0.22515383
34	0xbe667a24	-0.2250753
35	0x3e32305a	0.17401257
36	0xbe5a3223	-0.21308188
37	0xbe3b318a	-0.18280616
38	0xbcfd34ba	-0.030908931
39	0x3e8a4ecc	0.27013242
40	0xbe87146d	-0.2638277
41	0xbe9baed8	-0.30406833
42	0x3e0da32c	0.13831776
43	0x3e2b2f4c	0.16717261
44	0x3eb70a55	0.3575007
45	0xbe196696	-0.1498054
46	0x3e882787	0.26592657
47	0xbe050872	-0.12991503
48	0xbc0c66f4	-0.008569468
49	0xbe4cb286	-0.19989976
50	0xbe48708d	-0.19574185
51	0x3d7df15b	0.061997753
52	0x3e318942	0.17337516
53	0x3e565f80	0.20934868
54	0x3e8383e8	0.25686574
55	0xbdaa6913	-0.083208226
56	0xbc7ad516	-0.015309593
57	0xbddc4343	-0.10755017
58	0xbdba85a9	-0.09107525
59	0x3e0d0aae	0.13773605
60	0x3e608846	0.21926984
61	0x3e8d4bc8	0.2759688
62	0xbe652dbc	-0.22380728
63	0x3e89f396	0.26943654
64	0x3ce14f58	0.027503654
65	0x3e8a440f	0.2700505
66	0x3e90b865	0.28265682
67	0x3e93c0d8	0.28858066
68	0x3ea0de7a	0.31419736
69	0xbe2c9fe0	-0.16857862
70	0xbd1fde3a	-0.03903029
71	0x3e2415d0	0.16023946
72	0x3e1f5948	0.15561402
73	0xbe55b6e9	-0.20870556
74	0xbe6291fd	-0.22126003
75	0xbe4342bb	-0.19068424
76	0x3aa23080	0.0012374073
77	0x3d87b704	0.06626704
78	0x3e451302	0.19245532
79	0xbea0ad8e	-0.31382412
80	0xbe0ffb92	-0.1406081
81	0x3e78fafb	0.24314491
82	0x3e4aba11	0.19797541
83	0xbcff6cc0	-0.031179786
84	0x3e8c08ca	0.27350456
85	0x3e900593	0.28129253
86	0x3e8e0580	0.2773857
87	0xbe9cb4d5	-0.30606714
88	0x3e85557a	0.26041776
89	0xbd9b47a7	-0.07582026
90	0xbe64739c	-0.22309726
91	0xbea856fd	-0.32878867
92	0xbe17b626	-0.14815578
93	0xbe185938	-0.14877784
94	0x3e6a0f97	0.2285751
95	0x3ee02b22	0.43782908
96	0x3e914b86	0.28377932
97	0xbc9f350c	-0.019434474
98	0xbbb5f7c8	-0.0055532195
99	0x3e63962f	0.22225259
100	0xbcb91e65	-0.022597501
101	0x3e3a3a54	0.18186313
102	0x3e5625e5	0.20912893
103	0xbe6f7cb5	-0.23387416
104	0xbe4322c3	-0.1905623
105	0xbc445620	-0.011983424
106	0xbc1c05cc	-0.009522866
107	0xbe4b1484	-0.19832045
108	0x3e55b73f	0.20870684
109	0x3e73802f	0.23779367
110	0x3e8f44db	0.2798222
111	0x3e914d63	0.28379354
112	0x3e5bd46d	0.21467753
113	0x3e2d6220	0.16931963
114	0x3d14573c	0.036216006
115	0x3eecbc84	0.46237576
116	0xbdd9e9f9	-0.1064033
117	0x3e279077	0.16363703
118	0x3e8419c5	0.2580091
119	0xbe48da78	-0.19614589
120	0xbd9ced5c	-0.0766246
121	0xbe3df8ba	-0.18551913
122	0xbe0fa48c	-0.14027613
123	0xbd13ef9c	-0.03611718
124	0x3e616ec2	0.22014907
125	0x3d2ad722	0.041709073
126	0xbc86a625	-0.016436646
127	0x3e8a81e3	0.2705222
128	0x3e886a77	0.26643726
129	0xbe87b617	-0.2650611
130	0xbe333c22	-0.17503408
131	0x3e60c7be	0.21951196
132	0xbe4c7143	-0.19965081
133	0x3e939fb9	0.28832796
134	0xb80e9400	-3.3993274e-05
135	0xbe3ee299	-0.18641128
136	0xbe5932dc	-0.21210808
137	0xbe522ccf	-0.20524906
138	0x3c82b08c	0.015953325
139	0x3e548674	0.20754415
140	0xbd1023c0	-0.035190344
141	0x3e27527f	0.16340064
142	0xbea7f175	-0.32801405
143	0xbe7de0e7	-0.24792825
144	0x3c67185c	0.014104929
145	0x3cd6d86c	0.026226245
146	0xbe32bb76	-0.17454323
147	0xbe857637	-0.26066753
148	0xbdce604c	-0.10076961
149	0xbe59d6e3	-0.21273379
150	0x3cd8963c	0.026438825
151	0xbe1897ae	-0.14901611
152	0x3e5576d0	0.20846105
153	0x3e52d325	0.20588358
154	0xbe3add5e	-0.18248507
155	0xbe4cf53b	-0.20015423
156	0xbe8ba87b	-0.27276978
157	0x3e59f0b6	0.2128323
158	0x3e6f8155	0.2338918
159	0xbe4a6cbf	-0.19768046
160	0x3e4b6efa	0.19866553
161	0x3e48e7e0	0.19619703
162	0x3e85d454	0.26138556
163	0xbe0ab6ab	-0.13546245
164	0xbe0bc8e3	-0.13650851
165	0xbd908bec	-0.07057938
166	0x3c28c8b4	0.010301758
167	0x3cbedfe8	0.023300126
168	0x3e7999b5	0.24375041
169	0xbe85e419	-0.26150587
170	0x3e608af1	0.21928002
171	0x3cee560c	0.029093765
172	0x3d1c68b4	0.03818579
173	0x3e6899fe	0.22714993
174	0xbe632f54	-0.22186023
175	0x3e3d7550	0.18501782
176	0xbcca5cdc	-0.024702482
177	0xbe4a554f	-0.19759105
178	0x3cfb7ce0	0.030699193
179	0xbe6f3162	-0.23358682
180	0xbe3f6c2d	-0.1869361
181	0xbbcfeaf8	-0.006345149
182	0xbe5a6932	-0.21329191
183	0xbe9a318d	-0.3011593
184	0xbe1c8b4e	-0.15287516
185	0xbe4c8ab4	-0.19974786
186	0x3e85f7bb	0.26165566
187	0xbde076d6	-0.10960166
188	0x3e82669e	0.25468916
189	0x3e2aa073	0.16662769
190	0x3e638bf5	0.22221358
191	0x3e4e876b	0.20168845
192	0xbe48ee19	-0.19622077
193	0xbde82e4b	-0.11336955
194	0x3e477805	0.19479378
195	0xbddc82b7	-0.107671194
196	0x3e24982a	0.16073671
197	0xbe226fbd	-0.15862937
198	0x3e5c57b7	0.21517836
199	0x3e3ee1a2	0.1864076
200	0x3e7722dc	0.24134392
201	0x3e52319c	0.20526737
202	0x3c54c6b4	0.012986828
203	0xbe4fa24c	-0.20276755
204	0xbb991388	-0.0046715178
205	0xbe04163e	-0.1289911
206	0xbe88b68b	-0.2670177
207	0xbe01435a	-0.12623349
208	0x3e4040b5	0.18774684
209	0xbe4d8bfa	-0.20072928
210	0x3e6c4466	0.23072967
211	0xbdf8830e	-0.12134372
212	0x3e00bcf8	0.12572086
213	0x3ebd72fb	0.37001786
214	0x3e91c3e6	0.2846977
215	0x3e41c073	0.1892107
216	0x3e3bfe32	0.18358687
217	0xbe301531	-0.17195584
218	0xbe61f36b	-0.22065513
219	0xbe58d5aa	-0.21175256
220	0xbe914621	-0.28373817
221	0xbead0e86	-0.33800143
222	0x3d12079c	0.035651788
223	0xbdf94f9d	-0.12173388
224	0xbe74cd7d	-0.23906513
225	0xbea2b0b1	-0.3177543
226	0xbded44b9	-0.115853734
227	0x3d27437a	0.040835835
228	0x3e4a836b	0.19776694
229	0xbe92c431	-0.28665307
230	0xbe4ae9f9	-0.19815816
231	0xbe34b17b	-0.17645828
232	0xbe60ccc2	-0.21953109
233	0xbb27fba0	-0.0025632158
234	0x3e88bbae	0.26705688
235	0x3e530d1b	0.20610468
236	0x3e8d8f70	0.27648497
237	0x3e652f42	0.22381309
238	0x3e766c20	0.24064684
239	0x3e9eb382	0.3099633
240	0xbe75431a	-0.23951378
241	0xbe0985f3	-0.13430004
242	0x3e9292e0	0.28627682
243	0xbde2bfe6	-0.11071758
244	0xbe34a795	-0.17642052
245	0x3ce3a154	0.027786888
246	0xbe4c96a3	-0.19979338
247	0xbe594f5b	-0.21221678
248	0x3e7b5cd7	0.24547134
249	0xbe27e1ed	-0.16394778
250	0xbe4c425a	-0.19947186
251	0x3e1d3f5c	0.15356201
252	0xbe44ce85	-0.19219406
253	0x3c06a398	0.008217715
254	0xbdf50c30	-0.11965215
255	0x3ce24e38	0.027625188

fc1.bias f4 [128]
0	0x3e50ddf4	0.20397168
1	0x3e84ff0f	0.25975844
2	0x3e8a5904	0.2702104
3	0x3e5017b7	0.20321546
4	0x3e63d158	0.22247827
5	0x3e4ddea1	0.20104457
6	0x3e7a85f7	0.24465166
7	0x3e99a3fe	0.3000793
8	0x3e75d6e9	0.24007763
9	0x3e49f587	0.19722567
10	0x3e75a099	0.23987044
11	0x3e6c6265	0.2308441
12	0x3e56583d	0.20932098
13	0x3e77d399	0.24201812
14	0x3e66c3cd	0.2253563
15	0x3e81d967	0.25361177
16	0x3e59aa56	0.21256384
17	0x3e6d1a10	0.23154473
18	0x3e8827aa	0.2659276
19	0x3e3cd65a	0.18441144
20	0x3e797a84	0.24363142
21	0x3e8814dc	0.26578414
22	0x3e5eec7d	0.217699
23	0x3e807dec	0.2509607
24	0x3e836c64	0.25668633
25	0x3e82d37d	0.25551978
26	0x3e5413d4	0.20710689
27	0x3e7e5ebb	0.24840824
28	0x3e5a7a41	0.21335699
29	0x3e836072	0.2565952
30	0x3e87caec	0.26522005
31	0x3e5a9f44	0.21349818
32	0x3e6f0400	0.2334137
33	0x3e843a48	0.25825715
34	0x3e5e546b	0.2171189
35	0x3e93b716	0.2885062
36	0x3e596fc7	0.21234046
37	0x3e9bee6b	0.30455336
38	0x3e4bd105	0.19903953
39	0x3e8d1215	0.27552858
40	0x3e86f153	0.2635599
41	0x3e9f9f87	0.31176397
42	0x3e3f81bf	0.18701838
43	0x3e7ae527	0.24501477
44	0x3e72fdfb	0.23729698
45	0x3e842299	0.25807646
46	0x3e920d64	0.2852584
47	0x3e8fe2e0	0.2810278
48	0x3e7a2ec1	0.24431898
49	0x3e40a44c	0.18812674
50	0x3e8f058b	0.27933916
51	0x3e75e817	0.24014316
52	0x3e98dd29	0.29856232
53	0x3e7a2165	0.24426802
54	0x3e654d06	0.22392663
55	0x3e7ad778	0.24496257
56	0x3e40081c	0.18753093
57	0x3e46f333	0.1942871
58	0x3e8d3242	0.27577406
59	0x3e5eaf1b	0.21746485
60	0x3e75f2c7	0.24018393
61	0x3e721a90	0.23642945
62	0x3e551467	0.20808564
63	0x3e7847f8	0.24246204
64	0x3e824152	0.2544046
65	0x3e821c2c	0.25412118
66	0x3e783a25	0.2424093
67	0x3e5f35d5	0.21797879
68	0x3e8e33ac	0.27773798
69	0x3e8a4136	0.27002877
70	0x3e826d7e	0.2547416
71	0x3e92552c	0.28580606
72	0x3e97a968	0.29621434
73	0x3e546d44	0.20744807
74	0x3e7a84d3	0.24464731
75	0x3e391535	0.18074496
76	0x3e41a43b	0.18910305
77	0x3e815f93	0.2526823
78	0x3e6d1f5a	0.23156491
79	0x3e8430a0	0.25818348
80	0x3e756cfb	0.23967354
81	0x3e9d97cc	0.30779874
82	0x3e6eb2af	0.2331035
83	0x3e79e57d	0.24403949
84	0x3e8f7b98	0.28023982
85	0x3e90e258	0.28297687
86	0x3e5defe6	0.21673545
87	0x3e65d1e5	0.2244335
88	0x3e779cac	0.2418086
89	0x3e682a67	0.22672425
90	0x3e6e128b	0.23249261
91	0x3e64c76a	0.22341695
92	0x3e8986ce	0.2686066
93	0x3e622d27	0.22087537
94	0x3e80cef4	0.25157893
95	0x3e5b9fbd	0.21447654
96	0x3e94c0b0	0.2905326
97	0x3e74b2d9	0.2389635
98	0x3e5f4680	0.21804237
99	0x3e3cefc4	0.18450838
100	0x3e82d343	0.25551805
101	0x3e5caea6	0.21550998
102	0x3e9a7e39	0.30174425
103	0x3e837f7b	0.25683197
104	0x3e89ccb4	0.2691399
105	0x3e5499e9	0.20761837
106	0x3e8387a9	0.25689438
107	0x3e99b43c	0.3002032
108	0x3e4fdde3	0.20299487
109	0x3e86db62	0.2633925
110	0x3e6a02ff	0.22852705
111	0x3e81d5b0	0.25358343
112	0x3e609d9d	0.21935125
113	0x3e9c5e37	0.3054063
114	0x3e683399	0.22675933
115	0x3e82aea3	0.25523862
116	0x3e801e1a	0.25022966
117	0x3e707956	0.23483786
118	0x3e31cd7e	0.17363545
119	0x3e9951f3	0.29945335
120	0x3e87953f	0.26481053
121	0x3e816f64	0.25280297
122	0x3e9a36de	0.30119985
123	0x3e868a0f	0.26277205
124	0x3e920490	0.28519106
125	0x3e8602da	0.2617405
126	0x3e5b0e24	0.21392113
127	0x3e824ac3	0.25447664

fc2.weight f4 [6, 128]
0	0x3e922540	0.28544044
1	0xbe97d654	-0.29655707
2	0x3e80d3ab	0.2516149
3	0xbe9a5658	-0.30144
4	0x3e950faa	0.29113513
5	0x3e8fc723	0.28081617
6	0x3eb617d1	0.35565045
7	0xbea8a792	-0.32940346
8	0x3e95e521	0.29276374
9	0xbeb1cac3	-0.34725007
10	0xbe8457b0	-0.2584815
11	0xbea450c0	-0.32092857
12	0xbeb1b55e	-0.34708685
13	0xbeb463c9	-0.3523238
14	0x3e8d6da8	0.27622724
15	0x3e9515ea	0.29118282
16	0x3e8981f2	0.26856953
17	0xbea8c89f	-0.32965562
18	0xbe9e68c2	-0.309393
19	0xbe937b75	-0.28805128
20	0xbe962504	-0.29325116
21	0xbe8c4958	-0.27399707
22	0x3e9d429d	0.30714884
23	0xbe94b7e5	-0.2904655
24	0xbeb6bac1	-0.35689357
25	0xbeac8580	-0.33695602
26	0xbe8a442a	-0.2700513
27	0xbe9cbe0b	-0.3061374
28	0x3e9bda4f	0.30439994
29	0x3e917c85	0.28415313
30	0xbe94be5f	-0.29051492
31	0xbea29cb2	-0.31760174
32	0x3eae24c7	0.34012434
33	0xbea376be	-0.3192653
34	0x3eb8933e	0.36049837
35	0xbeb98a7a	-0.36238462
36	0x3e992bd8	0.29916263
37	0x3e835faf	0.25658938
38	0x3e783485	0.24238785
39	0xbe700088	-0.23437703
40	0xbeb4519c	-0.35218513
41	0x3e9d0fce	0.3067612
42	0xbea528e2	-0.32257754
43	0x3eb342e0	0.3501196
44	0x3e93d211	0.28871205
45	0x3e9c4199	0.30518797
46	0xbe883538	-0.26603103
47	0xbe905aa1	-0.28194144
48	0xbeaafe3f	-0.333971
49	0xbea89489	-0.32925823
50	0xbe78be27	-0.24291287
51	0xbeb0082a	-0.3438123
52	0xbe9beb7b	-0.30453095
53	0x3e93fba3	0.2890292
54	0x3e819a79	0.25313166
55	0x3eb9f856	0.36322278
56	0x3e9a181c	0.3009652
57	0x3e9ff9d8	0.31245303
58	0xbea0ab81	-0.31380847
59	0x3e98ad13	0.29819545
60	0x3e8a7de7	0.2704918
61	0x3eaca25c	0.3371762
62	0xbe9c1d17	-0.30490944
63	0x3ea30ea8	0.3184712
64	0x3ea52b37	0.32259533
65	0xbe93a7f7	-0.28839085
66	0xbea0844c	-0.31350935
67	0xbe94c059	-0.29053
68	0xbea570ae	-0.3231253
69	0x3e9464bc	0.28983104
70	0x3e9324db	0.28739056
71	0xbe95cbac	-0.29256952
72	0xbe9194bb	-0.28433785
73	0xbea76c52	-0.3269983
74	0xbeb26330	-0.348413
75	0xbeb0f8fe	-0.34564966
76	0xbea4072b	-0.3203672
77	0x3e93a9ef	0.28840587
78	0xbe92c183	-0.28663263
79	0xbeaf05f4	-0.3418423
80	0x3e9a0914	0.3008505
81	0x3e77944c	0.24177665
82	0xbeae7e06	-0.34080523
83	0xbe9ce10f	-0.30640456
84	0x3ea683e7	0.32522509
85	0x3e8aefd5	0.27136102
86	0x3eb2ef2f	0.34948108
87	0x3e649a93	0.2232459
88	0xbeb345ba	-0.35014135
89	0x3e948a10	0.29011583
90	0xbe7886a0	-0.24270105
91	0xbe9fec7d	-0.31235114
92	0x3eb6ca11	0.3570104
93	0x3e959ee6	0.29222792
94	0xbe8eb922	-0.2787562
95	0x3e9493e3	0.2901908
96	0xbeab5f1d	-0.33471003
97	0x3ea11de7	0.31468126
98	0x3e9f773f	0.31145665
99	0x3e96e6e8	0.29473042
100	0x3e83015f	0.25586984
101	0x3ebbb740	0.36663246
102	0x3e8d9a96	0.27657002
103	0x3e91f8ff	0.2851028
104	0x3e8f25d3	0.27958545
105	0x3eb7a676	0.35869187
106	0x3e9972b2	0.29970318
107	0xbea5fbc6	-0.3241865
108	0x3eb879e0	0.36030483
109	0x3ea03c3a	0.3129595
110	0xbea82a29	-0.32844666
111	0xbea03ccd	-0.31296387
112	0x3eb6abaa	0.35677844
113	0xbe944981	-0.2896233
114	0xbe9b2995	-0.30305162
115	0x3e91c9a3	0.2847415
116	0xbeb8ee58	-0.36119342
117	0xbe932cbb	-0.28745064
118	0x3ea1c22f	0.31593463
119	0x3e89b323	0.26894483
120	0x3e932ace	0.28743595
121	0xbe9072dd	-0.28212634
122	0xbe97ea00	-0.29670715
123	0x3ea71b1e	0.32637876
124	0x3e93ba59	0.2885311
125	0xbeacb0ae	-0.33728546
126	0xbe7fe7e8	-0.24990809
127	0xbea9950c	-0.33121526
128	0x3ea921ec	0.33033693
129	0xbe897acd	-0.26851502
130	0x3e85d033	0.26135406
131	0xbe9be027	-0.30444452
132	0xbe91310c	-0.28357732
133	0x3e9820b7	0.2971246
134	0xbe82fd61	-0.25583938
135	0x3e98ca7f	0.29841992
136	0xbea5b73e	-0.32366365
137	0xbe8b916c	-0.27259386
138	0x3ea2e12a	0.31812412
139	0x3ebd9945	0.37030998
140	0x3eb2a780	0.34893417
141	0x3eaaab15	0.3333365
142	0x3eaa1344	0.33217824
143	0x3e973b09	0.29537228
144	0x3eac03e6	0.33596724
145	0x3e987f55	0.29784647
146	0x3eb3f7a0	0.3514986
147	0xbe9d74d2	-0.3075319
148	0xbe932d14	-0.2874533
149	0xbe9fd555	-0.31217447
150	0xbe81cd9f	-0.2535219
151	0xbeab0fb1	-0.3341041
152	0xbea91d21	-0.33030036
153	0x3e9cb56f	0.30607173
154	0xbe9fea11	-0.31233266
155	0xbea331e2	-0.31873995
156	0x3eb5cfb6	0.35510033
157	0xbe933d4f	-0.28757712
158	0x3eb635c9	0.3558791
159	0xbe9352e0	-0.28774166
160	0x3ea4683e	0.3211078
161	0xbe8619c0	-0.2619152
162	0xbe64636d	-0.22303553
163	0xbea94535	-0.33060613
164	0x3e971847	0.2951071
165	0xbeb51d08	-0.35373712
166	0x3ea3d26a	0.3199647
167	0x3eb51970	0.3537097
168	0xbeae9975	-0.34101453
169	0x3e9ae83b	0.30255303
170	0xbea6f448	-0.32608247
171	0xbe741715	-0.2383693
172	0xbe9fe643	-0.31230363
173	0x3eabcabf	0.3355312
174	0xbe8b4797	-0.27203056
175	0xbe87fbef	-0.26559398
176	0xbe997a73	-0.29976234
177	0x3e9fbf76	0.3120076
178	0xbea5dcf8	-0.32395148
179	0xbeb2d485	-0.34927765
180	0xbeab6e3e	-0.33482546
181	0x3ea103d0	0.3144822
182	0xbeaee786	-0.34161013
183	0xbe8debcc	-0.2771896
184	0xbe98b054	-0.29822028
185	0x3e9e48f1	0.30915025
186	0x3ea5c19f	0.32374284
187	0xbeb37033	-0.3504654
188	0xbeae7dd7	-0.34080383
189	0x3e99fbb1	0.30074838
190	0xbeb44477	-0.35208485
191	0x3ea10dfb	0.3145598
192	0xbeb9f1d1	-0.36317304
193	0x3e94fc55	0.29098764
194	0x3eb84ad7	0.35994598
195	0xbe7cf6f4	-0.2470358
196	0x3eb6234e	0.3557381
197	0xbe96299d	-0.29328623
198	0xbe9d72bc	-0.30751598
199	0xbea3d0a2	-0.31995112
200	0x3ea6779f	0.3251314
201	0xbebeac9f	-0.37241074
202	0x3eb32d40	0.3499546
203	0x3e5bacc5	0.21452625
204	0xbeb3d8e1	-0.35126403
205	0x3ea7d1d3	0.3277727
206	0x3e9657b0	0.29363775
207	0xbe84d6e6	-0.25945204
208	0x3ea12a0c	0.31477392
209	0x3e7395bb	0.23787586
210	0x3ea85edf	0.3288488
211	0xbea12665	-0.31474605
212	0xbe78069d	-0.24221273
213	0xbead677d	-0.33868018
214	0xbe990c9c	-0.29892433
215	0xbea9e450	-0.33182
216	0x3eaa60ff	0.33277127
217	0xbea8f813	-0.33001766
218	0xbe8bed6b	-0.27329573
219	0xbe93cd1b	-0.2886742
220	0xbe9258fb	-0.28583512
221	0xbea373c5	-0.31924263
222	0xbe927f25	-0.2861263
223	0x3e89473a	0.26812154
224	0x3e7f584f	0.24936031
225	0xbe63a0ca	-0.22229305
226	0x3ec03873	0.37543067
227	0xbeb5da3d	-0.35518065
228	0x3e99ba9d	0.30025187
229	0xbea952ac	-0.33070886
230	0xbe9ba25d	-0.3039731
231	0x3eb80b29	0.35946015
232	0x3e853078	0.2601354
233	0xbe7911f0	-0.24323249
234	0x3e9e05e0	0.30863857
235	0xbe80b013	-0.25134334
236	0xbeb0cafc	-0.34529865
237	0x3e95fbcd	0.2929367
238	0x3ea6c2a1	0.32570365
239	0x3e9e90f4	0.30969965
240	0x3e983ef3	0.29735526
241	0x3e983dc2	0.29734617
242	0x3eb8411d	0.35987177
243	0xbe9d6e5e	-0.30748266
244	0x3eab74cd	0.3348755
245	0x3eb6c73b	0.35698876
246	0xbea5d52f	-0.3238921
247	0xbeb2a9fa	-0.34895307
248	0xbea7a0d7	-0.327399
249	0xbe964c89	-0.29355267
250	0x3eb2b867	0.34906313
251	0x3e99cbbd	0.30038252
252	0xbe917e3f	-0.2841663
253	0x3eb0607a	0.34448606
254	0x3ebbc426	0.36673087
255	0xbe9ed2ce	-0.31020206

fc2.bias f4 [6]
0	0xbde3e94b	-0.111284815
1	0x3e68a78a	0.22720161
2	0xbe47dca3	-0.1951776
3	0x3e3c51f2	0.18390635
4	0x3e6b3610	0.22969842
5	0xbe1504f0	-0.14552665
