python_stuffs/model_code/pytorch_models/category_predictor_model.pth (torch, 229895 bytes, 4 tensors)

fc1.weight f4 [100, 561]
0	0x3e7cd6b6	0.2469128
1	0x3e7466fb	0.23867409
2	0x3e93d7e5	0.28875652
3	0x3e90a42a	0.28250247
4	0x3e8e3cf8	0.2778089
5	0x3e6a825d	0.22901292
6	0x3e8071d3	0.2508684
7	0x3e7d1cc2	0.24718001
8	0x3d20db9c	0.039271936
9	0xbe4ae958	-0.19815576
10	0x3d23819a	0.03991852
11	0x3e994074	0.29931986
12	0xbc28a778	-0.010293834
13	0x3e913ce7	0.28366777
14	0x3d0ec5ce	0.03485661
15	0x3e93df1b	0.28881153
16	0x3e8f6982	0.28010184
17	0x3b03ad00	0.002009213
18	0xbe656bc1	-0.22404386
19	0x3eabe338	0.33571792
20	0xbce34c33	-0.027746296
21	0x3e953c0f	0.29147384
22	0xbe9d6859	-0.30743673
23	0x3e9e2a5e	0.308917
24	0x3ea20546	0.31644648
25	0x3e7269b5	0.23673137
26	0xbe636f32	-0.22210386
27	0xbe48f1bf	-0.19623469
28	0xbe5f3630	-0.21798015
29	0x3e7a33ca	0.24433818
30	0x3c54e6ac	0.01299445
31	0x3ec6b4cb	0.3880981
32	0x3e774d62	0.24150613
33	0x3e9106be	0.28325456
34	0x3e790200	0.24317169
35	0xbe6acce3	-0.2292972
36	0x3e9c8a74	0.3057438
37	0x3e7f1b94	0.24912864
38	0xbb934eb0	-0.0044954643
39	0xbe9e0a34	-0.3086716
40	0x3e9726c5	0.29521766
41	0x3e9c3f90	0.30517244
42	0xbe5f5ea2	-0.21813443
43	0xbe3e9423	-0.18611197
44	0xbe0cfa16	-0.13767275
45	0xbd7d6ee5	-0.061873335
46	0xbeb282e8	-0.348655
47	0x3e74b4e3	0.23897128
48	0x3ae7e7a0	0.0017692931
49	0x3e9c61e6	0.3054344
50	0x3e846705	0.25859848
51	0x3eb12ed9	0.34606054
52	0xbe44b9ed	-0.1921155
53	0x3ea6aae9	0.3255227
54	0x3e71cb94	0.23612815
55	0x3e969e5f	0.29417703
56	0x3c81e112	0.015854392
57	0x3e978bfa	0.2959898
58	0x3e86f575	0.26359144
59	0xbe75102f	-0.23931955
60	0xbe8b95a3	-0.272626
61	0xbe67a23e	-0.22620484
62	0xbe557179	-0.20844068
63	0xbeb00bfa	-0.34384137
64	0x3b361800	0.0027785301
65	0xbdd3fd0e	-0.10351001
66	0xbea81396	-0.32827443
67	0xbe57b03c	-0.21063322
68	0xbeb11974	-0.34589732
69	0xbe92276e	-0.28545707
70	0x3c9a97f4	0.018871285
71	0x3e9f9f81	0.3117638
72	0x3e75f94e	0.24020883
73	0x3e8a219d	0.2697877
74	0x3e9bffa5	0.3046848
75	0x3e83a714	0.25713408
76	0xbcdde3f9	-0.027086245
77	0x3e4e135d	0.20124574
78	0x3e4bd2ee	0.19904682
79	0x3eb2e9c7	0.34943983
80	0x3ee5b89a	0.44867402
81	0x3e9c3c53	0.30514774
82	0xbe9aa293	-0.3020216
83	0x3c9d560c	0.01920607
84	0xbe9bbe07	-0.30418417
85	0xbe868405	-0.26272598
86	0x3e890cc9	0.26767567
87	0x3e745aab	0.23862712
88	0xbea483cf	-0.32131812
89	0xbe59957d	-0.21248432
90	0x3e926ce6	0.28598708
91	0xbcb8d445	-0.022562156
92	0x3e9cac44	0.30600178
93	0x3e810c05	0.25204483
94	0xbeb12437	-0.34597942
95	0x3e951b7f	0.2912254
96	0xbe9a1af0	-0.30098677
97	0xbd0582a6	-0.0325953
98	0x3b583480	0.0032990277
99	0xbe6bc0a6	-0.23022708
100	0x3d21fcac	0.039547607
101	0x3e93e95b	0.28888974
102	0x3e9662ba	0.29372197
103	0x3e778e4e	0.24175379
104	0xbe5b36fb	-0.21407692
105	0xbe34bbe4	-0.176498
106	0xbd1b7833	-0.037956428
107	0x3ea203d2	0.3164354
108	0xbe67c232	-0.22632673
109	0x3e873068	0.2640412
110	0x3ea05876	0.3131749
111	0xbeb75ac3	-0.35811433
112	0x3e890972	0.2676502
113	0xbeb2340c	-0.34805334
114	0x3cc75de4	0.024336763
115	0x3e95884a	0.29205543
116	0xbe861a1c	-0.26191795
117	0x3e7880ae	0.24267837
118	0x3e6a9e54	0.2291196
119	0x3e974f49	0.29552677
120	0xbdc04373	-0.09387865
121	0x3e96306f	0.29333827
122	0x3e892aa0	0.26790333
123	0xbbb57518	-0.0055376403
124	0x3e8e4c55	0.27792612
125	0xbc6bd1b6	-0.014393261
126	0xbdd76875	-0.105179705
127	0xbe99c656	-0.3003413
128	0xbe1c0035	-0.15234454
129	0x3ea93f11	0.33055928
130	0x3e7c2168	0.24622118
131	0x3e99fb03	0.3007432
132	0xbea2b910	-0.31781816
133	0x3e8cc7bd	0.27496138
134	0xbc5ce52c	-0.013482373
135	0x3e95a2ca	0.2922576
136	0x3ea11258	0.31459308
137	0x3e943f4c	0.28954542
138	0xbcc6c4b1	-0.024263712
139	0xbeb69cd7	-0.35666534
140	0xbcf5d35e	-0.030008014
141	0xbe73a272	-0.23792437
142	0x3edac0a9	0.42725113
143	0xbe192674	-0.14956075
144	0xbcf5fa56	-0.030026596
145	0xbc86a7c0	-0.016437411
146	0x3e356e8c	0.17717952
147	0x3e8d2e2e	0.27574295
148	0x3e598dc6	0.21245489
149	0x3ec431b4	0.3831917
150	0xbc535aa4	-0.012900028
151	0x3e8f8348	0.28029847
152	0x3e8c13bb	0.27358803
153	0x3e93cc46	0.28866786
154	0x3e977539	0.2958162
155	0x3e7baa26	0.24576625
156	0x3e9b03c3	0.30276307
157	0x3eb64eee	0.35607094
158	0xbec48968	-0.38386083
159	0x3e969ba3	0.29415616
160	0x3e7940ca	0.24341121
161	0x3e977aca	0.29585868
162	0xbe47327e	-0.19452855
163	0x3e899854	0.2687403
164	0x3e8fdf7c	0.28100193
165	0xbea03b25	-0.31295124
166	0xbc0e91e4	-0.008701775
167	0x3b734770	0.0037121437
168	0xbe75faa3	-0.24021392
169	0x3e8fb159	0.28064993
170	0xbe6f32df	-0.2335925
171	0xbbb50338	-0.0055240653
172	0x3cd509bc	0.026005618
173	0x3e9bd116	0.30432957
174	0x3e82e4af	0.25565097
175	0xbe294b3e	-0.16532609
176	0x3d2c2374	0.042026
177	0x3e9b4dcf	0.303328
178	0xbc4a073a	-0.0123308245
179	0x3e823ce0	0.2543707
180	0x3ea41fef	0.32055613
181	0x3cf71464	0.03016109
182	0x3e09dc35	0.13462909
183	0xbe59c143	-0.2126513
184	0x3e9500e6	0.29102248
185	0xbe4ac3b4	-0.19801217
186	0x3e9a7b26	0.3017208
187	0x3e919700	0.28435516
188	0x3e9df5a3	0.30851468
189	0x3e6f7769	0.23385395
190	0x3e882f91	0.2659879
191	0x3e8e9665	0.27849117
192	0x3e764f96	0.24053797
193	0x3e82b62c	0.2552961
194	0xbe29ca6e	-0.16581127
195	0x3e99d292	0.30043465
196	0x3e7e9810	0.24862695
197	0x3e87b697	0.26506492
198	0xbe7f3f07	-0.24926387
199	0x3e504c7c	0.20341676
200	0xbe7771bd	-0.24164481
201	0x3eb2a7b0	0.3489356
202	0xbd1b8afc	-0.037974343
203	0x3e930d9f	0.2872133
204	0xbdd64594	-0.1046249
205	0x3e750331	0.23926999
206	0x3e93af16	0.28844517
207	0xbe3f9fed	-0.1871335
208	0xbe6053a5	-0.21906908
209	0x3e9c57ef	0.30535838
210	0xbe876c72	-0.26449925
211	0x3e8d81f5	0.27638212
212	0x3e8f45f5	0.2798306
213	0xbe543017	-0.2072147
214	0xbe8c926d	-0.27455464
215	0xbe308f7e	-0.17242238
216	0xbe924ae0	-0.2857275
217	0xbeacb713	-0.33733425
218	0x3e4d74dd	0.20064111
219	0x3e9da3f0	0.30789137
220	0x3e9d6ef6	0.3074872
221	0xbe8635f7	-0.26213047
222	0xbcd25730	-0.02567634
223	0xbe3f0838	-0.18655479
224	0x3e8c0b45	0.27352348
225	0xbe932acb	-0.28743586
226	0xbe92453d	-0.2856845
227	0xbce84cdb	-0.02835696
228	0x3e9a5d4d	0.30149308
229	0x3eb95e7b	0.36204895
230	0x3e8bd0e7	0.27307817
231	0x3ea223f9	0.3166807
232	0x3e906cd1	0.2820802
233	0xbc538450	-0.012909964
234	0x3ea90a8e	0.33015865
235	0x3e8a9a16	0.27070683
236	0xbe765b09	-0.24058165
237	0xbebdbca2	-0.37057978
238	0x3e86dbc8	0.26339555
239	0x3ea20e6c	0.31651628
240	0x3eaafb7a	0.33394986
241	0x3e8fb906	0.2807085
242	0x3e6c091b	0.23050348
243	0x3e5dcb5a	0.21659604
244	0x3e82d226	0.25550956
245	0xbce69394	-0.028146543
246	0x3e9a877a	0.30181485
247	0x3e98b7da	0.29827768
248	0xbebf6d02	-0.37387854
249	0xbe39d1d9	-0.18146457
250	0x3ea58180	0.32325363
251	0xbe142601	-0.14467622
252	0x3eb2705d	0.3485135
253	0xbcfa1c56	-0.03053109
254	0xbe48985b	-0.19589369
255	0xbc212144	-0.009834591

fc1.bias f4 [100]
0	0x3e96f53f	0.29483983
1	0x3e78a217	0.24280582
2	0x3e86aad1	0.26302198
3	0x3e97383f	0.295351
4	0x3e764539	0.24049844
5	0x3e81eaf9	0.25374582
6	0x3e79a018	0.24377477
7	0x3e913bf4	0.28366053
8	0x3e9a84c8	0.3017943
9	0x3e72a03b	0.23693936
10	0x3e89f361	0.26943496
11	0x3e8d3f9a	0.27587587
12	0x3e826e95	0.25474992
13	0x3e681297	0.22663341
14	0x3e886d58	0.26645923
15	0x3e909f09	0.28246334
16	0x3e85f829	0.26165894
17	0x3e7cde35	0.2469414
18	0x3e917675	0.28410688
19	0x3e844dc9	0.25840595
20	0x3e901b68	0.2814591
21	0x3e6196c5	0.2203017
22	0x3e8f1d75	0.2795216
23	0x3e9295c7	0.28629896
24	0x3e80fc0a	0.2519229
25	0x3e8ad34b	0.2711433
26	0x3e7a3377	0.24433695
27	0x3e6f1c36	0.23350605
28	0x3e7268f8	0.23672855
29	0x3e7ca147	0.24670897
30	0x3e865dd0	0.26243448
31	0x3e81609c	0.2526902
32	0x3e81068f	0.25200316
33	0x3e87d416	0.26528996
34	0x3e81ba9c	0.25337684
35	0x3e82a0bc	0.25513256
36	0x3e723f09	0.23656859
37	0x3e688f57	0.2271093
38	0x3e6c7e96	0.23095164
39	0x3e87cce1	0.26523498
40	0x3e9508fd	0.2910842
41	0x3e91385f	0.2836332
42	0x3e4ac3d9	0.19801272
43	0x3e9ac377	0.30227253
44	0x3e77a234	0.2418297
45	0x3e98eb3f	0.2986698
46	0x3e89bf7e	0.2690391
47	0x3e80faf3	0.2519146
48	0x3e92e426	0.28689688
49	0x3e84d6c8	0.25945115
50	0x3e62a84b	0.22134511
51	0x3e814897	0.25250694
52	0x3e9c466a	0.30522472
53	0x3e957373	0.29189643
54	0x3e98ea14	0.29866087
55	0x3e622147	0.22083007
56	0x3e758e26	0.23980007
57	0x3e7b501c	0.24542278
58	0x3e702703	0.23452382
59	0x3e6908e5	0.22757299
60	0x3e87c84b	0.2652
61	0x3e8a4db9	0.27012423
62	0x3e9428c1	0.28937343
63	0x3e978a93	0.2959791
64	0x3e824fd9	0.25451544
65	0x3e72c292	0.23707035
66	0x3e7441df	0.23853253
67	0x3eaf3213	0.3421789
68	0x3ea081f5	0.3134915
69	0x3e729e72	0.23693255
70	0x3e78c7bd	0.24294944
71	0x3e907d3a	0.2822054
72	0x3e70bdc1	0.23509885
73	0x3e99bf51	0.30028775
74	0x3e86f674	0.26359904
75	0x3ea7ae4b	0.32750162
76	0x3e97238f	0.29519317
77	0x3e802e84	0.2503549
78	0x3e924930	0.28571463
79	0x3e754ab9	0.23954286
80	0x3e738e5e	0.23784778
81	0x3e9c9940	0.3058567
82	0x3e8ae211	0.271256
83	0x3e843c38	0.25827193
84	0x3e803b78	0.2504537
85	0x3e83a82a	0.25714236
86	0x3e50d301	0.20392992
87	0x3e8cc102	0.27491003
88	0x3e81bcaf	0.25339267
89	0x3e6a8bcf	0.22904895
90	0x3e5f8282	0.21827129
91	0x3e8679b0	0.26264715
92	0x3e802a0d	0.25032082
93	0x3e8ebaf0	0.27876997
94	0x3e849ee9	0.2590249
95	0x3e916014	0.28393614
96	0x3ea05659	0.31315878
97	0x3e95d837	0.2926652
98	0x3e99f74c	0.30071485
99	0x3e826f11	0.25475362

fc2.weight f4 [6, 100]
0	0x3e82a1e6	0.25514144
1	0xbebd40a7	-0.36963388
2	0xbe73a2a1	-0.23792507
3	0xbead13e4	-0.33804238
4	0x3ea7592d	0.32685223
5	0x3eacfb48	0.33785462
6	0xbebb84f1	-0.36624864
7	0x3ebe635d	0.37185183
8	0xbe9a5841	-0.30145457
9	0xbec8639b	-0.39138493
10	0x3ea6c05e	0.3256864
11	0xbe9d3457	-0.30703995
12	0x3eb43905	0.35199752
13	0xbe9bdd99	-0.30442503
14	0xbeaa57b4	-0.33270037
15	0x3ea8dc4e	0.3298058
16	0xbeaffbc4	-0.3437177
17	0xbeac1707	-0.33611318
18	0xbeb1c2e3	-0.34719
19	0x3eb21001	0.34777835
20	0xbea0a6b8	-0.31377196
21	0xbebea577	-0.37235615
22	0x3ea5149f	0.32242295
23	0x3e9b7c3c	0.3036822
24	0x3eaa8517	0.33304664
25	0xbe90338d	-0.2816433
26	0xbea1bf17	-0.31591102
27	0xbebf557b	-0.37369904
28	0xbe9ba653	-0.30400333
29	0x3ea87a2f	0.3290572
30	0x3eb58544	0.35453236
31	0xbeaa445f	-0.33255288
32	0xbeaa8bf7	-0.3330991
33	0x3ed36dd3	0.41294727
34	0x3eab0612	0.3340307
35	0xbeca94f6	-0.39566773
36	0xbebda32b	-0.3703855
37	0xbead0bf8	-0.33798194
38	0xbec1932a	-0.3780759
39	0xbea31be1	-0.31857207
40	0xbea19b79	-0.3156393
41	0xbea19dc2	-0.31565672
42	0xbea4f05f	-0.3221464
43	0x3e9cd586	0.30631655
44	0x3ec2206a	0.37915355
45	0xbeb4121f	-0.35170075
46	0x3ec2b9a9	0.38032272
47	0x3ecf24df	0.40457818
48	0xbebb5633	-0.36589202
49	0x3ea09424	0.31363022
50	0xbeabe1a7	-0.33570597
51	0x3ecb2d22	0.3968287
52	0x3ebae10c	0.36499822
53	0xbeb3b21a	-0.35096818
54	0x3e9eb715	0.30999056
55	0x3e954848	0.2915671
56	0xbeaed34f	-0.3414559
57	0xbeb78a3d	-0.35847655
58	0x3ecf3259	0.404681
59	0xbeb744d9	-0.35794714
60	0x3ec0e1c9	0.3767226
61	0xbea76fcf	-0.3270249
62	0xbeb59e01	-0.3547211
63	0xbec09322	-0.37612253
64	0x3f1ce02e	0.6127957
65	0x3e9ec7b2	0.3101173
66	0x3ed40f43	0.41417894
67	0x3eaeac8c	0.34116018
68	0xbebbaf6c	-0.36657274
69	0x3edac148	0.42725587
70	0xbe78fa69	-0.24314274
71	0xbe8f93b4	-0.28042376
72	0xbec6b183	-0.38807306
73	0xbe9caeac	-0.30602014
74	0xbe6f3e71	-0.23363663
75	0x3ea2d708	0.3180468
76	0xbe962ffe	-0.2933349
77	0xbeb67f19	-0.35643843
78	0xbe887c79	-0.26657465
79	0xbeb78095	-0.35840288
80	0xbebd335f	-0.36953256
81	0xbe622622	-0.22084859
82	0x3e9d1b05	0.30684677
83	0x3ec3a465	0.3821136
84	0xbea06f02	-0.31334692
85	0x3eb6a892	0.35675484
86	0x3ed1c5ff	0.40971372
87	0x3e96800d	0.2939457
88	0xbe99d6ce	-0.30046695
89	0xbeabf34b	-0.33584055
90	0x3eb6a1b2	0.3567024
91	0xbed01cc7	-0.40646955
92	0xbed37359	-0.4129894
93	0x3ea87da4	0.32908356
94	0xbead5aba	-0.3385828
95	0x3eb35769	0.35027626
96	0xbea0fe1e	-0.31443876
97	0x3eb75f2b	0.35814795
98	0x3eadb365	0.3392593
99	0x3ec15884	0.37762845
100	0xbec1b45e	-0.37832922
101	0xbebbd682	-0.36687094
102	0x3ec2a59c	0.38016975
103	0x3e9f91eb	0.31166014
104	0xbeae3d83	-0.34031305
105	0x3eab7ed0	0.33495188
106	0xbeb4748d	-0.3524517
107	0x3ea5b4c5	0.3236448
108	0x3eb09a94	0.34492934
109	0x3e97f2d6	0.29677457
110	0x3eb15afe	0.34639734
111	0xbe8a22af	-0.26979586
112	0x3ec35687	0.38151953
113	0x3ea36c41	0.3191853
114	0xbece1c51	-0.4025598
115	0xbea01d98	-0.31272578
116	0x3e8e568c	0.27800405
117	0xbea0eea1	-0.3143206
118	0x3e9b35e4	0.30314553
119	0x3eb4d75e	0.35320562
120	0xbec46ee0	-0.3836584
121	0xbee48080	-0.44629288
122	0xbebd8bba	-0.37020665
123	0xbea9e4f4	-0.3318249
124	0xbe9d7477	-0.30752918
125	0xbebd28a9	-0.36945084
126	0x3ecb3122	0.39685923
127	0xbedcfb5e	-0.43160528
128	0xbec31cde	-0.3810796
129	0x3ece6a63	0.40315542
130	0xbea39830	-0.31952047
131	0x3ec99ff1	0.39379838
132	0xbeb6caaf	-0.3570151
133	0xbeb4ad4a	-0.3528846
134	0x3e8ca8d4	0.27472556
135	0xbe94cfe1	-0.2906485
136	0x3e969faf	0.29418704
137	0xbec7af62	-0.39000994
138	0xbeab6d6c	-0.3348192
139	0x3ec37865	0.3817779
140	0x3e9a6b4e	0.30159992
141	0x3eb3aec5	0.35094276
142	0x3eaae580	0.3337822
143	0x3eab00a6	0.33398932
144	0xbec60b67	-0.38680574
145	0xbea6936a	-0.32534343
146	0x3eb1fd14	0.34763396
147	0x3e64e321	0.22352268
148	0x3eb52333	0.35378417
149	0xbea5bc52	-0.3237024
150	0xbea6896e	-0.32526726
151	0xbeaeaddc	-0.3411702
152	0xbeb50978	-0.35358787
153	0x3e8d411f	0.27588746
154	0x3eba1678	0.36345267
155	0xbec268f3	-0.37970695
156	0x3eb1cb96	0.34725636
157	0x3ebf9995	0.3742186
158	0x3ebff3b9	0.37490633
159	0x3edbdcb6	0.42941827
160	0x3ec4afc7	0.38415357
161	0x3eac29e6	0.33625716
162	0x3eabc772	0.33550602
163	0x3e9d40d2	0.30713516
164	0xbed77707	-0.42082998
165	0xbeb618f1	-0.35565904
166	0xbe9f62f0	-0.3113017
167	0x3ed4cc48	0.41562104
168	0xbebdefe8	-0.37097096
169	0xbe8ab190	-0.27088594
170	0xbe8ef770	-0.27923155
171	0xbe835fb4	-0.25658953
172	0xbecbd102	-0.39807898
173	0x3ebb0e8e	0.36534542
174	0x3eb12e10	0.34605455
175	0xbeca09fb	-0.3946074
176	0x3e91bb8d	0.28463402
177	0x3eaa9399	0.33315733
178	0xbe9406dc	-0.28911483
179	0xbeafa3e3	-0.34304723
180	0xbeae1048	-0.33996797
181	0x3eba6ec9	0.36412647
182	0xbead23da	-0.33816415
183	0x3e8edc2a	0.27902347
184	0x3ed3745f	0.41299722
185	0xbec85835	-0.39129797
186	0xbe92d277	-0.28676197
187	0xbec80a79	-0.3907049
188	0x3eb1b913	0.34711513
189	0x3ebd01d4	0.36915457
190	0xbeace3b3	-0.3376747
191	0xbea458b6	-0.3209893
192	0xbeb3c513	-0.35111293
193	0x3e73cede	0.23809382
194	0xbebb2bd3	-0.36556873
195	0xbeb20a3a	-0.34773427
196	0x3eb32a27	0.34993097
197	0xbe8ba6e9	-0.2727578
198	0x3ebb4aa4	0.36580384
199	0x3ecee561	0.40409377
200	0x3e909535	0.28238836
201	0x3ec0543f	0.37564275
202	0xbe658490	-0.2241385
203	0x3eb2c5a9	0.34916428
204	0xbec40b0a	-0.38289672
205	0xbeb33e56	-0.35008496
206	0x3ec1ec21	0.37875465
207	0x3ece1cc4	0.4025632
208	0xbeb2f6d0	-0.34953928
209	0xbec1476a	-0.37749797
210	0x3eb80144	0.35938466
211	0xbe96ce1e	-0.2945413
212	0xbeb0d680	-0.3453865
213	0xbe9df98c	-0.30854452
214	0xbebf52ec	-0.37367952
215	0xbec18022	-0.3779307
216	0xbea7b0ca	-0.32752067
217	0x3ec2425d	0.37941256
218	0xbec0b407	-0.3763735
219	0xbecd34bc	-0.40079296
220	0xbe9ae5a3	-0.30253324
221	0xbeb3ab95	-0.35091844
222	0x3ec00a54	0.3750788
223	0x3e9687a9	0.29400375
224	0xbeda4d6e	-0.426372
225	0xbea75de8	-0.32688832
226	0x3ed4c4e5	0.4155647
227	0xbebab518	-0.3646629
228	0xbeb245de	-0.3481893
229	0x3ec108ab	0.37701926
230	0xbeb7bea6	-0.3588764
231	0x3eb24071	0.3481479
232	0xbececfc4	-0.40392888
233	0xbed0f01a	-0.40808183
234	0xbe9ebab0	-0.31001806
235	0x3ea486e3	0.3213416
236	0xbe98c838	-0.29840255
237	0x3eb6ea42	0.357256
238	0x3eabaf1a	0.3353203
239	0x3ebe0960	0.37116528
240	0xbeb81554	-0.35953772
241	0x3eadc359	0.339381
242	0xbebe5c74	-0.3717991
243	0xbeb2d7dc	-0.34930313
244	0x3eb6ca35	0.35701147
245	0x3e9fbeec	0.3120035
246	0x3ec2dafa	0.3805769
247	0xbecd571b	-0.4010552
248	0x3eabfce5	0.3359138
249	0xbeb9664a	-0.36210853
250	0x3ed1fcaf	0.41013095
251	0x3ea307db	0.3184193
252	0x3ea874a6	0.32901496
253	0xbeb70680	-0.35747147
254	0xbecab9a9	-0.39594772
255	0xbec4f04b	-0.3846458

fc2.bias f4 [6]
0	0x3e7840d6	0.24243483
1	0xbe1d450a	-0.15358368
2	0x3dbe9eea	0.09307654
3	0x3e2ab3a5	0.16670091
4	0xbe45d5b1	-0.19319798
5	0xbd9b0581	-0.07569409
