python_stuffs/model_code/pytorch_models/category_predictor_model.pth (torch, 149767 bytes, 4 tensors)

weight f4 [64, 563]
000000 61 23 20 3e 3c 69 38 3e 9c 30 d0 3c 6a 25 be 3e
       0.15638496 0.18008894 0.025413804 0.3713792
000010 db d9 ae bd ba 33 99 3e 72 6f a3 3e d1 3b 95 3e
       -0.085376464 0.29922277 0.31920964 0.291472
000020 89 66 aa be fa 29 82 3e fd 62 9d 3e 77 dc 69 3e
       -0.33281353 0.2542265 0.30739585 0.22838007
000030 1a c7 99 3e 81 5c 7a 3e 1e f0 c8 bd 63 c9 95 3e
       0.30034715 0.2444935 -0.09811424 0.29255208
000040 17 20 99 3e 41 61 90 3e 11 51 d4 3d 31 fe 94 3e
       0.29907295 0.281992 0.10367025 0.29100183
000050 56 fc 0b bd 3d 34 be 3e 37 e1 ac 3e 0c 08 8a 3e
       -0.034176193 0.3714923 0.33765575 0.26959264
000060 83 38 f2 3d 43 32 dc 3d 10 39 ef 3c a3 37 ca bd
       0.11827185 0.10751774 0.029202014 -0.09873893
000070 9c 9a 9d 3e a5 b9 b2 3e 91 43 bb 3e d4 67 dc 3d
       0.3078202 0.3490726 0.36574987 0.10761991
000080 a8 db 2d 3e 3d c0 99 3e a9 6b b4 3e 32 a9 af 3e
       0.16978323 0.3002948 0.35238388 0.34308773
000090 7d 10 f3 bd 39 20 18 3e f4 fa 27 3d 0b 1b ba 3e
       -0.11868379 0.14856042 0.041010812 0.36348757
0000a0 d6 58 5d 3e 48 8b 9e 3e e8 82 04 3e ab 30 be 3e
       0.2161592 0.30965638 0.12940562 0.37146506
0000b0 75 5b 24 be fa 52 99 3e bc c1 fa 3d 11 9d 4b be
       -0.16050513 0.2994612 0.12243983 -0.19884135
0000c0 38 a5 d2 bc 12 08 0e 3d b0 d8 60 3c 10 ac 3c bc
       -0.025713548 0.034675665 0.013723537 -0.011515632
0000d0 9d 35 e1 3e b6 18 12 3d 4d 5a b0 3e 88 93 91 3e
       0.43986216 0.035668097 0.34443894 0.2843287
0000e0 94 cc dd bd df df 85 3e ae 47 cc bd c2 49 95 be
       -0.10830036 0.26147363 -0.09974609 -0.29157835
0000f0 87 d8 9c 3e da c7 47 be 96 c2 32 bd aa ee b9 bd
       0.30633947 -0.19509831 -0.043642603 -0.09078725
000100 23 85 1e be 15 27 b6 3e 0b e7 a0 3e b0 0f 88 be
       -0.15480475 0.35576692 0.31426272 -0.2657447
000110 d2 f2 b5 3e 32 8f 55 3e ca 64 9e 3e 03 5d c5 bd
       0.3553682 0.20855406 0.3093627 -0.09636881
000120 7f 2a 85 3e ef 31 93 3e af dd f5 3d 13 ce 42 be
       0.26008984 0.28749034 0.120051734 -0.19023924
000130 93 c9 6a 3e df 3d 7a 3e 73 7b 36 3d 80 3b 0b 3a
       0.22928457 0.24437664 0.044551324 0.00053112954
000140 4b 6c 40 be ec c7 89 3e 56 9c 02 be c2 03 6a bc
       -0.1879131 0.2691034 -0.1275495 -0.0142831225
000150 55 cf 90 3e 59 2a 97 3e 64 84 7b 3d cb ce 15 3e
       0.28283182 0.29524496 0.061405554 0.14629667
000160 8a 4f 98 3e 3d da 38 be 7c 11 b3 3e 3a 41 bb 3e
       0.29748183 -0.18052001 0.34974277 0.365732
000170 d2 02 4f 3e f0 11 5b 3e f9 15 eb 3c f8 7f 14 bd
       0.2021592 0.21393561 0.028697 -0.036254853
000180 ba 7f a7 3e a8 70 a1 3e 1e c2 18 bf cc dd f3 3c
       0.32714635 0.31531262 -0.596712 0.029768847
000190 86 bc e3 bd 54 35 87 3e 1b 7d 0e be a2 06 ff bd
       -0.11119942 0.26407874 -0.13914911 -0.12452437
0001a0 78 aa d9 bd c4 18 1e be 41 8c 62 be f4 ba 35 be
       -0.106282175 -0.15439135 -0.22123815 -0.17747098
0001b0 41 63 d8 bd 32 08 ab 3e 0f 9d b2 be 84 84 97 be
       -0.10565806 0.3340469 -0.3488545 -0.2959329
0001c0 38 bc 3c 3c 7b 6b 0b be 70 25 ea bd c5 a6 9f 3e
       0.011519484 -0.1361522 -0.11432922 0.31181923
0001d0 67 c8 96 3e 47 ae 8f 3e 39 8d 8b 3e f4 45 c2 3e
       0.2944977 0.2806265 0.27256182 0.37943995
0001e0 3b 59 8a 3e 88 74 7c be 3d a4 46 be f2 3f d6 bd
       0.27021202 -0.24653828 -0.1939859 -0.10461415
0001f0 23 50 14 be 98 42 ff 3c a6 df 26 3e 43 24 ea bc
       -0.14483695 0.031159684 0.16296253 -0.028581744
000200 25 8b e6 bd b9 47 c1 3e 53 a5 3a be ae 9b 5c be
       -0.112570085 0.37750033 -0.18227129 -0.21543762
000210 de fb 4b be 48 f7 9d 3e 51 85 52 be 24 b8 81 be
       -0.19920298 0.30852723 -0.20558669 -0.253358
000220 a2 b9 93 be a3 1a d3 bd 0b 5a 91 be 83 97 a8 3e
       -0.28852564 -0.10307815 -0.2838901 0.32928094
000230 f0 e8 a4 3e 28 c3 95 be f6 a1 4f be e7 23 57 3e
       0.32208967 -0.29250455 -0.20276627 0.2100979
000240 2a e8 3f be 89 0b 57 3e 94 b8 a7 bd ac f4 89 be
       -0.18740907 0.21000494 -0.08189502 -0.26944482
000250 0f a3 c2 3e aa b8 d8 bd b8 70 cf bd f4 4c b1 3c
       0.3801503 -0.10582097 -0.10128921 0.02164314
000260 9a f6 a8 3e fd 9c 99 3e f2 24 d6 bd 93 1a be 3e
       0.33000642 0.30002585 -0.104562655 0.3712965
000270 ec 70 96 be 0b ae c7 3e de b1 80 be 0b de 90 3e
       -0.29383028 0.38999972 -0.25135702 0.28294405
000280 e0 4c a0 3e ab c1 7e be ad 13 09 be 58 79 5e be
       0.3130865 -0.24878566 -0.13386412 -0.21725976
000290 40 f1 9a be d0 ee bc be 68 5b 29 3d 1e 37 ab 3e
       -0.30262184 -0.3690095 0.041346937 0.3344049
0002a0 98 b5 07 bc b0 ea db bb 76 87 c0 3e 9c 4a a2 3e
       -0.008283041 -0.0067113265 0.37603348 0.31697547
0002b0 96 9c 86 be e2 76 8f 3e 24 33 e5 3c 6f a5 89 be
       -0.2629134 0.28020388 0.027978487 -0.26884028
0002c0 7e 68 28 be 94 8b 68 3e 36 f5 af be 60 22 2d be
       -0.1644611 0.22709495 -0.3436677 -0.16907644
0002d0 37 4c b9 3e 7d 2f c4 3e 9d 07 b6 3e 2b 82 a4 bc
       0.3619096 0.3831748 0.35552683 -0.0200816
0002e0 3f e4 3a 3e 96 4b c8 bd 59 17 07 be bc 7b 83 3e
       0.18251131 -0.09780042 -0.131925 0.2568034
0002f0 53 d1 b0 3e 45 21 67 be ee e4 03 be 8d de 83 3e
       0.34534702 -0.22571285 -0.12880298 0.2575573
000300 01 5d 8f 3e 32 12 af 3e 4c 37 ad 3e 18 96 9e 3e
       0.28000644 0.3419357 0.3383125 0.30973887
000310 a2 54 bd 3e cd 59 a4 3e 5d 9c 60 be 06 84 91 3e
       0.36978632 0.32099763 -0.21934648 0.28421038
000320 e8 07 87 be 0b f3 64 be 67 cf 6d be 08 1a b7 3e
       -0.2637322 -0.22358339 -0.23223649 0.35762048
000330 8e 60 87 be fc 2b 7f be 3a 09 6a be ee 9c 19 3d
       -0.26440853 -0.24919122 -0.22855082 0.037503175
000340 b9 20 6a 3e 6e 6b ae 3e 0f 06 2a be a6 5b 56 be
       0.22864045 0.34066337 -0.16603874 -0.20933399
000350 0a 81 72 be e3 ee 5d be 69 c8 ce 3e 30 e5 ab 3e
       -0.23682037 -0.2167316 0.40387276 0.33573294
000360 a3 92 c5 3e b8 25 86 be 77 a1 98 3e c4 41 70 3c
       0.38588437 -0.26200652 0.29810688 0.014664117
000370 8c 0b 11 3d fc 6f 18 bd 23 d1 14 be 7d f6 9e 3e
       0.035411403 -0.03721617 -0.14532904 0.3104743
000380 f0 f1 28 3d c6 61 43 be 66 e9 10 3d 33 42 24 be
       0.041246355 -0.19080266 0.035378836 -0.16040878
000390 83 b8 9a be 0b 5c bc be a3 60 e6 bd 97 0d a7 3e
       -0.30218896 -0.36788973 -0.11248901 0.32627556
0003a0 ef 6d 11 be b6 d2 b5 be fb 08 c1 be 75 5f aa 3e
       -0.14202093 -0.35512322 -0.37702164 0.33275953
0003b0 20 84 93 3e 83 25 ac 3e 00 64 8c 3e 28 ef a0 bb
       0.2881174 0.3362237 0.27420044 -0.004911322
0003c0 e4 a1 cc be 3d 9d 9c 3e e4 1d a4 be 47 a3 84 be
       -0.39967263 0.30588713 -0.32054055 -0.2590582
0003d0 fa bd a9 3e 27 3e 8d be ac 5a e5 3c 05 53 49 be
       0.33152753 -0.2758648 0.027997337 -0.19660576
0003e0 e3 79 51 be 00 df c5 ba 8f 63 96 3e 99 c0 a1 3e
       -0.20456652 -0.0015096366 0.29372832 0.31592253
0003f0 ce 70 17 be 7b 14 0c 3f e5 02 69 be f0 93 96 3e
       -0.14789125 0.5471875 -0.2275501 0.29409742

bias f4 [64]
000000 93 fb 96 3e ea 29 a9 3e ce 63 42 3e f1 74 68 3e
       0.2948881 0.3303979 0.18983385 0.2270086
000010 69 83 75 3e db 51 46 3e 53 d8 66 3e 0a ad 84 3e
       0.2397591 0.19367163 0.22543459 0.25913268
000020 cc 2f 96 3e 7c f9 72 3e b2 2d 5d 3e 40 ef b1 3e
       0.2933334 0.23727983 0.21599463 0.34752846
000030 3f d9 9e 3e df 93 88 3e b8 b6 b5 3e 71 56 92 3e
       0.3102512 0.26675317 0.35490966 0.28581575
000040 d0 64 d2 3e bb cb a6 3e e2 97 65 3e ac b8 8d 3e
       0.4109254 0.3257731 0.2242122 0.27679956
000050 93 01 99 3e b2 5b 6a 3e 0d df 70 3e e5 fd 65 3e
       0.29884014 0.22886541 0.23522587 0.22460134
000060 0b e4 66 3e 19 f5 a6 3e 65 63 7d 3e a9 75 9e 3e
       0.22547929 0.3260887 0.24744947 0.30949143
000070 aa 90 87 3e 8c 2b 87 3e 23 fa bc 3e b1 d8 97 3e
       0.26477557 0.2640041 0.3690959 0.2965751
000080 16 35 70 3e b6 19 73 3e 45 32 7e 3e 6d 53 c7 3e
       0.2345775 0.23740277 0.24823864 0.38930836
000090 16 1b 90 3e 8f 9a 6a 3e 60 72 a5 3e 7b f6 9f 3e
       0.28145665 0.22910522 0.32313824 0.31242737
0000a0 c9 53 83 3e 97 30 77 3e 20 38 a9 3e fa ba 31 3e
       0.2564986 0.2413963 0.33050632 0.17356482
0000b0 dd 29 80 3e c1 2c b9 3e b8 3f 90 3e f8 0d 80 3e
       0.2503194 0.36166957 0.28173614 0.25010657
0000c0 35 4b b5 3e 8b e4 9b 3e 7e f0 b1 3e 28 24 68 3e
       0.3540894 0.30447802 0.34753793 0.22670043
0000d0 66 e7 9c 3e 1c 60 66 3e 45 2c c8 3e a0 f6 88 3e
       0.30645293 0.224976 0.39096275 0.2675066
0000e0 fe 56 5d 3e 18 b4 6e 3e 89 1f 59 3e e7 89 96 3e
       0.21615216 0.23310888 0.21203436 0.29402086
0000f0 6b 09 a4 3e 2c 11 61 3e 92 0f 4d 3e 54 4a 8b 3e
       0.32038435 0.21979207 0.20025471 0.27205145

weight f4 [6, 64]
000000 ab ea ae 3e 88 d1 c9 be 5c 6a a0 3e a9 cf f0 be
       0.34163412 -0.39417672 0.31331146 -0.47033432
000010 e9 be b7 be dd 79 b8 3e fc bf a8 3e ca 8f b2 3e
       -0.3588784 0.36030474 0.32958972 0.34875327
000020 65 c7 2b 3e 3a 4e bf 3e cb 08 d7 3e d2 e5 e1 be
       0.16775282 0.3736437 0.41998896 -0.4412065
000030 9b a9 ab 3e a9 9e 11 3f 43 76 f6 be bd 41 f5 be
       0.33527836 0.5688272 -0.48137102 -0.47901717
000040 94 8e ed be c5 19 cf be 56 45 9a b9 b0 64 b5 be
       -0.4639784 -0.40449348 -0.00029424828 -0.3542838
000050 37 f7 a9 3e f3 b0 be 3e 2f e5 d0 be f1 b8 99 3e
       0.33196422 0.37244377 -0.40799853 0.30023912
000060 2e ff ae 3e 4f 1f c7 be 20 25 d3 be 47 c4 1d 3e
       0.34179062 -0.38891074 -0.41239262 0.15406905
000070 4c be f6 be 1a a2 88 3e 95 9e d0 be 17 a4 e2 3e
       -0.4819206 0.26686174 -0.40745988 0.44265816
000080 97 a0 59 3e 7d cf c3 3e 62 2b ca 3d 0b 3e f4 be
       0.21252666 0.38244238 0.09871556 -0.47703585
000090 44 7a 77 3e 52 dc da 3e 06 84 e6 be db d0 be be
       0.24167734 0.42746216 -0.450226 -0.3726872
0000a0 5a ed d5 3e 9c 07 7e 3e 52 97 da be f8 1c e9 3e
       0.41782647 0.2480759 -0.42693573 0.45529914
0000b0 f6 3e ba 3e aa c0 8b 3e 5c 3e f2 be 11 02 8a 3e
       0.3637616 0.2729543 -0.473132 0.26954702
0000c0 8c 8b bc be 93 b1 d0 be 3d 6e a5 3e 78 30 63 3e
       -0.36825216 -0.40760478 0.32310668 0.22186458
0000d0 bd 1c 57 3e e4 d8 d4 be 53 18 fb be 73 84 b5 be
       0.21007057 -0.41571724 -0.49041995 -0.35452613
0000e0 ab 52 c7 3e f1 4b 67 3e 2b 47 05 3f 29 78 4a 3e
       0.38930258 0.22587563 0.5206172 0.197724
0000f0 8a af dc be 3f 09 92 3e ea 25 a0 3e 6d 4f bd 3e
       -0.43102676 0.2852268 0.31278926 0.3697466
000100 bf f6 d9 3e 5d 59 ab 3e 90 6b ba be 63 21 e8 3e
       0.42571065 0.33466616 -0.3641019 0.45337972
000110 b1 fb 3e 3e e4 00 e6 be 15 f1 a4 be d4 50 c9 3e
       0.186507 -0.44922554 -0.3221518 0.3931948
000120 71 6f cf 3e 7c 8b b7 be e8 bc b8 be 8d 42 e6 3e
       0.4051471 -0.35848606 -0.36081624 0.4497265
000130 b8 61 bd 3e f7 2e 04 3f d9 9f ac 3e 6f c3 a5 be
       0.36988616 0.5163416 0.33715704 -0.32375666
000140 0c 12 e2 be 42 fc 96 3e 68 89 72 be 8d 57 72 be
       -0.44154394 0.29489332 -0.23685229 -0.2366621
000150 c0 00 c8 be 25 48 80 be af 3e d2 be 5d 07 b2 be
       -0.39063072 -0.25055042 -0.4106345 -0.34771243
000160 2c da bc be c7 0e a5 3e 7c 06 c6 be 88 39 d8 3e
       -0.36885202 0.32237837 -0.38676822 0.42231393
000170 60 5a c9 3e 1e 0d 9a be c0 37 d7 be fd f5 e7 be
       0.39326763 -0.30088133 -0.4203472 -0.45304862
000180 c0 5c d0 3e 5a 0e aa be 6b 2b 98 3e cb 8d b4 be
       0.40695763 -0.33214074 0.29720625 -0.3526443
000190 dc c6 00 bf 10 c7 c6 be 41 56 fa be c2 09 75 be
       -0.50303435 -0.38823748 -0.48893932 -0.23929504
0001a0 b6 2b d4 be 72 ef 7a 3e a2 a9 cb 3e df da bf be
       -0.414396 0.24505404 0.39777857 -0.37471673
0001b0 ee 47 a6 be c0 f9 b7 3e bb 36 b8 be 35 77 9b be
       -0.32476753 0.35932732 -0.35979256 -0.30364385
0001c0 50 03 cf 3e 0e b3 d4 3e 35 ae d9 be a5 d5 bf be
       0.40432215 0.41542858 -0.42515722 -0.37467685
0001d0 ab 35 b7 3e 2a be a6 be 45 07 ec be 29 ca d3 be
       0.35783133 -0.3256696 -0.46099296 -0.41365173
0001e0 67 53 b4 be e9 46 d7 be 7a 72 b7 be 8c 3d 00 bf
       -0.3521988 -0.42046288 -0.35829526 -0.50093913
0001f0 67 5f a9 3e f3 ce aa bd 29 ee ab be bf 39 f1 3e
       0.330806 -0.08340254 -0.3358014 0.4711437
000200 4c 71 d6 be 6d a2 c9 be 7e ad b5 be 2a ac db 3e
       -0.41883314 -0.39381734 -0.35483927 0.42904788
000210 f9 89 e6 be 7f 5a a6 3e 1d be d0 3e a6 4e da 3e
       -0.4502714 0.32490918 0.40770045 0.4263813
000220 9f a7 06 bf 9f c6 b7 be 28 52 b4 3e 89 ed af 3e
       -0.5259952 -0.35893723 0.3521893 0.34360912
000230 70 68 d6 be 73 2d e6 be b8 f0 f1 be 93 c5 a7 3e
       -0.41876554 -0.4495655 -0.47253966 0.32767925
000240 9b 01 f1 be ee 8c c3 3e 6e 0d bb be 74 4e d4 3e
       -0.47071537 0.38193458 -0.36533684 0.41466105
000250 61 ce cc be 1a 32 a2 be 9f e8 c5 3e 26 d9 16 3e
       -0.40001205 -0.3167885 0.38654038 0.14731273
000260 0f 1f d5 be 4c 7b c4 be 0a 9f b9 3e 4f 80 ef be
       -0.41625258 -0.38375318 0.3625415 -0.4677758
000270 f0 ae e2 be 59 16 a2 be 08 6b d7 3e 25 c5 eb be
       -0.44274092 -0.31657675 0.42073846 -0.46048847
000280 b4 a0 b9 3e 46 5f bd be d4 8a bc 3e 1c 0e ab be
       0.3625542 -0.3698675 0.36824667 -0.33409202
000290 34 d7 eb be 35 a2 c1 3e 28 af b0 3e c1 82 93 be
       -0.46062624 0.37819067 0.34508634 -0.28810695
0002a0 aa 8f a1 3e 37 92 e0 be ec 19 b2 be 73 7d ce 3e
       0.3155492 -0.43861553 -0.34785402 0.40330085
0002b0 24 8e 96 3e 5b fa d3 be 03 cc b6 be 9e d6 c9 be
       0.2940532 -0.41401944 -0.35702524 -0.39421552
0002c0 eb 48 b3 3e 36 18 da be 48 50 cf be 02 fe a6 3e
       0.3501657 -0.42596596 -0.40490937 0.32615668
0002d0 b6 ce b6 be 8a da e5 3e 46 42 e4 3e 95 82 d5 3e
       -0.35704583 0.44893295 0.44581813 0.4170119
0002e0 3d 3c a8 be 6e 75 d4 3e 83 b6 e0 3e bf da d0 3e
       -0.32858458 0.41495842 0.43889245 0.4079189
0002f0 5d 32 9b 3e 70 87 b2 be a5 c4 dd be 38 66 b6 be
       0.30311862 -0.34868956 -0.4331409 -0.35624862
000300 b8 c2 b7 3e 03 4d b1 3e f9 fa b8 3e 1b e0 e4 be
       0.35890746 0.34629068 0.36128977 -0.4470223
000310 ac 61 cb 3e 7b 59 97 3e 31 72 94 be 88 2b ae be
       0.39722955 0.29560456 -0.2899337 -0.34017587
000320 a2 a4 d6 be fb 5c ac 3e d4 27 c9 be be 2f a8 be
       -0.4192248 0.33664688 -0.392882 -0.32848924
000330 1a d0 c0 be 5f 0f c0 be b5 d8 80 3e 0e a7 dc 3e
       -0.3765877 -0.37511727 0.25165334 0.43096203
000340 b4 09 78 3e 79 4e e2 be e0 cf cf 3e 4c 9f ca 3e
       0.24222451 -0.44200495 0.40588284 0.3957466
000350 47 2a c7 be 37 90 93 be f6 01 ca 3e d2 56 b7 be
       -0.38899443 -0.28820965 0.3945462 -0.35808426
000360 f3 84 b9 3e 7a cc c0 3e 38 60 cf be 33 2a 66 3e
       0.36234245 0.37656003 -0.40503097 0.22477035
000370 c2 b7 ce be 32 04 b0 3e af 32 ba be 75 f9 89 3e
       -0.4037457 0.343782 -0.36366794 0.26948133
000380 b3 d7 bc be 1d 24 af 3e c5 4f 9a 3e e9 15 63 3e
       -0.36883315 0.3420724 0.30138984 0.22176327
000390 ac e4 d0 be 07 6e f0 be b1 18 78 3e 4a 47 bc 3e
       -0.40799463 -0.46958944 0.24228169 0.3677314
0003a0 69 87 98 3e 24 90 c4 be db 05 61 3e cb 1d c2 be
       0.2979081 -0.3839122 0.2197489 -0.37913355
0003b0 7a 2d cd be 3b ef ca be ee 84 a5 3e 04 e2 b1 be
       -0.40073758 -0.39635643 0.3232798 -0.3474275
0003c0 7f ae 8b be 07 a6 be be e7 7f cd be d7 f1 c1 be
       -0.27281567 -0.37236044 -0.40136644 -0.37879822
0003d0 73 c3 c9 be 6e cc e6 be 6a bb c4 be 7f 68 cd 3e
       -0.39406928 -0.45077842 -0.38424236 0.40118787
0003e0 2c 52 e1 be 46 43 a3 3e df 27 e1 3e 34 b7 a1 3e
       -0.44008005 0.31887263 0.43975732 0.31585085
0003f0 79 43 de be ed d2 d4 3e 95 74 8c 3e 03 9d a2 be
       -0.43410853 0.41567174 0.27432695 -0.31760415

bias f4 [6]
000000 34 c8 f5 be 15 bc af 3c 96 44 26 3c 14 5c d3 be
       -0.48004305 0.02145199 0.010148188 -0.41281188
000010 f4 ea c4 3d 2f 32 dd 3d
       0.09615126 0.108005874
